saved_models/2023-04-19_23-21-04/model.pth (torch, 465682 bytes, 44 tensors)

type_embedding.weight f4 [100, 100]
0	0xbf3ac12b	-0.72951
1	0x3f0cff59	0.5507713
2	0xbf17417a	-0.59084284
3	0x3f1dfcc8	0.6171384
4	0x40122259	2.2833464
5	0x3f119633	0.5686981
6	0x3f7ecc6e	0.99530685
7	0x3fb83c23	1.4393352
8	0xbdbf7830	-0.09349096
9	0x3ed0f8a8	0.4081471
10	0x3f6f0158	0.93361425
11	0x3f725b09	0.9467016
12	0xbfbb48d3	-1.4631599
13	0xc01a0ada	-2.4069123
14	0xbea04110	-0.3129964
15	0xbe1299ad	-0.14316435
16	0x3d3b235b	0.045688014
17	0x3fac0596	1.3439205
18	0x3dfd41fd	0.12366102
19	0x3ed734b8	0.4203241
20	0x3e853c1b	0.2602242
21	0x3f6bc241	0.9209328
22	0xbf7a7cd2	-0.9784671
23	0x3e6e7613	0.23287229
24	0xbfda97f7	-1.7077626
25	0xbfad8b1f	-1.3558081
26	0xbf9ad571	-1.2096387
27	0xbea16abe	-0.3152675
28	0xbfad6b5b	-1.3548387
29	0xc0043926	-2.065988
30	0xbf631537	-0.88704246
31	0xc0301de3	-2.7518241
32	0xbfc7187b	-1.5554346
33	0xbf30c002	-0.6904298
34	0xbfdf7550	-1.7457676
35	0x3effaba7	0.49935648
36	0xbf394a38	-0.72378874
37	0x3f8f5cd7	1.1200207
38	0xbf96dab8	-1.1785498
39	0x3e7718d6	0.24130568
40	0x3f87d424	1.0611615
41	0xbf290073	-0.6601631
42	0xbfd170a7	-1.6362504
43	0xbf7eea1b	-0.99575967
44	0x3f526f19	0.8220077
45	0xbf7c0bb0	-0.98455334
46	0x3f176c92	0.5915004
47	0xbe3572f4	-0.17719632
48	0x3f89f9ba	1.0779335
49	0x3e21bb24	0.15794045
50	0x3f6fba0a	0.9364325
51	0x3f1720f2	0.59034646
52	0xbf52cea6	-0.8234657
53	0xbfda46d8	-1.705287
54	0x3ebf3bc6	0.3735029
55	0x3edc07a4	0.4297458
56	0x3f41974a	0.75621474
57	0x3fa9e381	1.3272554
58	0xbe8810d7	-0.26575348
59	0xc0111ead	-2.2674973
60	0xbf1ca240	-0.61185074
61	0x3fcabf98	1.583972
62	0x3d7fdafb	0.062464695
63	0xbf8e8b75	-1.1136309
64	0x3e9a2891	0.30109075
65	0x3fa9b625	1.3258711
66	0x3f46255f	0.77400774
67	0xbeab33c9	-0.33437946
68	0xbec81e27	-0.39085504
69	0x3fbdb0f2	1.4819624
70	0x3fc50f1e	1.5395238
71	0x3ebacf05	0.36486068
72	0x3f8e343a	1.1109688
73	0xbf582f8f	-0.8444757
74	0xbddd339d	-0.1080086
75	0xbf22feea	-0.6367022
76	0xbfa73d21	-1.306553
77	0xbf33c37e	-0.7022017
78	0x3fa9793c	1.3240123
79	0x3f6919f9	0.91055256
80	0xbeecee4e	-0.46275562
81	0xbfa9c8a9	-1.3264362
82	0x3eacd8f9	0.33759287
83	0xbfd13e53	-1.6347145
84	0x3f65a840	0.89709854
85	0x3ef8db2a	0.4860471
86	0x3fe1d4d7	1.7643079
87	0x3f8957b5	1.0729891
88	0xbd82a6e4	-0.06379488
89	0xbfc112be	-1.5083845
90	0x3f2a3d62	0.6649991
91	0x3f75e5b0	0.960536
92	0xbea51dd2	-0.32249314
93	0xbfbf7d2e	-1.4960077
94	0xbf27660b	-0.6539008
95	0x3ef0d367	0.47036287
96	0x4027d574	2.6224031
97	0xbedf8fc0	-0.4366436
98	0x3f10dc31	0.56585985
99	0xbceb491a	-0.028721381
100	0xc0054649	-2.0824149
101	0x3f7e243d	0.99274045
102	0xbe68313f	-0.22675036
103	0x3efc3e20	0.49266148
104	0x3ed4086c	0.41412675
105	0x3eba09f0	0.36335707
106	0x3e1d3a25	0.15354212
107	0x3f3990b5	0.7248643
108	0x400601e0	2.0938644
109	0x3f924bbd	1.1429363
110	0xbf4c2d3b	-0.79756516
111	0xbf5aaca3	-0.8541967
112	0xbfec5e76	-1.8466327
113	0x3dcc0ada	0.09963007
114	0x3f8f94c1	1.1217271
115	0x3fc9f711	1.5778524
116	0x3f767f7e	0.9628829
117	0xc003914a	-2.0557427
118	0x3f50311a	0.81324923
119	0x3ed393f2	0.4132381
120	0xbed897f7	-0.4230344
121	0xbe7e4172	-0.24829653
122	0xbf8cedd2	-1.1010077
123	0x401dc4d9	2.4651396
124	0x3f9f9a43	1.2468952
125	0xbe8e81e9	-0.2783349
126	0xbfda5465	-1.7057005
127	0xbf3169a1	-0.693018
128	0x3f2aed0c	0.66767955
129	0x3e9fc89b	0.31207737
130	0xbea2011d	-0.31641474
131	0x3efff777	0.49993488
132	0x3f8fdbe5	1.1238981
133	0x3f598bcb	0.8497893
134	0x3eebb890	0.46039248
135	0xbeced8b0	-0.40399694
136	0x3f1f3071	0.6218329
137	0xbf67bb53	-0.9052021
138	0xbdf497c7	-0.11943012
139	0x3f94b854	1.1618752
140	0x3e4a21a6	0.19739398
141	0x3f4c938e	0.7991265
142	0x3df89321	0.121374376
143	0xbd4e6dc1	-0.05039764
144	0xc0148b51	-2.3210032
145	0x3fb2a8be	1.3957746
146	0xbda2522b	-0.079258285
147	0x3f90e7c6	1.1320732
148	0xbdfdb49c	-0.12387964
149	0xbf82a2a3	-1.0205883
150	0xbf004595	-0.50106174
151	0x3fceffdf	1.6171836
152	0x3edbc5da	0.42924386
153	0x3f32ed25	0.69893104
154	0x3ed6460f	0.41850325
155	0xbf0ab48f	-0.5418176
156	0x3da1c9c1	0.0789981
157	0xbf093a39	-0.53604466
158	0x3ea9fa24	0.33198655
159	0xbfa4bc7e	-1.2870023
160	0xbdb68891	-0.08912767
161	0x3f294f6a	0.661368
162	0x3f78689c	0.9703462
163	0x3d64c1ce	0.05584889
164	0x3f75e471	0.960517
165	0xbfc7138d	-1.5552841
166	0x3e846573	0.2585865
167	0x3c965416	0.018350642
168	0x3ec3b160	0.38221264
169	0xbfb00cfc	-1.3753963
170	0xc0287491	-2.6321146
171	0x3f9bc6b0	1.217001
172	0x40271e5d	2.6112282
173	0x3f133c2c	0.5751369
174	0x3fb4a80f	1.4113787
175	0x3e09002a	0.13378969
176	0x3e854464	0.2602874
177	0x3f02b75b	0.5106103
178	0x3ef90934	0.48639834
179	0xbf5ef4d0	-0.87092304
180	0xbdc5b43f	-0.0965352
181	0x3fb6aba4	1.427113
182	0x3fee7725	1.863011
183	0x3ed1a234	0.40944064
184	0x3ec5653c	0.38553798
185	0xbf9a6713	-1.2062706
186	0xbc8694b5	-0.01642833
187	0x3f19d3f7	0.6008906
188	0x3ec8254d	0.39090958
189	0xbf9873cf	-1.1910342
190	0x3ed356de	0.41277212
191	0x3f58d296	0.8469633
192	0x3d02dd25	0.03194918
193	0x3eb6438d	0.35598412
194	0x3f204379	0.62602955
195	0x3e25e558	0.16200769
196	0xbedc900b	-0.43078646
197	0xbeb03a51	-0.34419492
198	0x3f20bd84	0.6278918
199	0xbf92edfb	-1.1478876
200	0x3fe81dc4	1.8134084
201	0xbe9eea2f	-0.31038043
202	0xbfefc2d6	-1.8731334
203	0xbe727e64	-0.23681027
204	0x3f50974a	0.8148085
205	0x3f8791d3	1.0591377
206	0xbea07caf	-0.31345126
207	0xbf7ccfc0	-0.987545
208	0xbee4f286	-0.4471628
209	0x3fce5e56	1.6122539
210	0xbeaecc7a	-0.34140378
211	0xbfaa2206	-1.3291633
212	0xbe89304b	-0.26794657
213	0xbeb73ac3	-0.3578702
214	0xbf8232d4	-1.0171762
215	0xbe516b40	-0.20451069
216	0x3f77c7ed	0.9678944
217	0x3f364b5f	0.7120876
218	0x3e932614	0.2873999
219	0xbe8f0a0c	-0.27937353
220	0x3e1fdc88	0.1561147
221	0xbf3b6950	-0.7320757
222	0xbf102a3d	-0.5631445
223	0xbe54e0a7	-0.20788823
224	0x3e8e00b4	0.2773491
225	0x3fc30e3b	1.5238718
226	0x402a1a4e	2.6578555
227	0xbf6067f2	-0.8765861
228	0xbef01dd9	-0.46897772
229	0xbe26e6bc	-0.16298956
230	0xbe9a379e	-0.30120558
231	0xbf0a4278	-0.54007673
232	0x3ee0bfd6	0.4389636
233	0xbf0c3820	-0.5477314
234	0x3f02ddf1	0.51119906
235	0x3f0f356b	0.55940884
236	0xbe9901b7	-0.2988412
237	0xbf903837	-1.1267155
238	0xbfc9f452	-1.5777686
239	0xbfb46dc5	-1.4095999
240	0xbf7b90a0	-0.98267555
241	0xbfa33b62	-1.2752497
242	0xbeb3f4ed	-0.351478
243	0xbd0accab	-0.033886593
244	0xbf837978	-1.0271444
245	0xbe7155bc	-0.23567861
246	0xbf9413ff	-1.1568602
247	0xbe846ece	-0.25865787
248	0x3fb5cdcd	1.420343
249	0xbdf6754d	-0.12034092
250	0x3ef6b774	0.4818684
251	0xbf966dab	-1.1752218
252	0x3fdbca60	1.7171135
253	0xbee6381f	-0.44964692
254	0xc039ce07	-2.9032
255	0x401f3db3	2.4881408

distance_expansion.means f4 [32]
0	0x3d3057fe	0.043052666
1	0x3d9c8b79	0.0764379
2	0x3dd777b0	0.105208755
3	0x3de90c0e	0.113792524
4	0x3df0550c	0.117349714
5	0x3e0f0880	0.13968086
6	0x3e1c35ea	0.15254942
7	0x3e3f5726	0.18685588
8	0x3e54d748	0.20785248
9	0x3e82f627	0.25578424
10	0x3e91a7e1	0.28448394
11	0x3ea3ff6b	0.32030806
12	0x3eadece2	0.3396979
13	0x3ec571ab	0.38563284
14	0x3eccbd1a	0.39988023
15	0x3ee11e2a	0.43968326
16	0x3eec712a	0.46180087
17	0x3efb2798	0.49053645
18	0x3f062485	0.52399474
19	0x3f0d86e2	0.5528394
20	0x3f1aa06d	0.6040104
21	0x3f2a1065	0.66431266
22	0x3f2f049a	0.68366396
23	0x3f3bc6ff	0.7335052
24	0x3f3fa93e	0.7486762
25	0x3f487c99	0.7831512
26	0x3f637fbb	0.88866776
27	0x3f67b023	0.9050314
28	0x3f7a36a1	0.9773961
29	0x3f7fb752	0.998891
30	0x3f800019	1.000003
31	0x3f800020	1.0000038

distance_expansion.betas f4 [32]
0	0x4381c072	259.50348
1	0x4381c6f2	259.55426
2	0x4381cfd4	259.62366
3	0x4381c7ef	259.56198
4	0x4381cce3	259.60068
5	0x4381c087	259.50412
6	0x4381bc06	259.46893
7	0x4381b742	259.4317
8	0x4381b3fb	259.4061
9	0x4381b58d	259.41837
10	0x4381b69a	259.42657
11	0x4381b573	259.41757
12	0x4381b32a	259.39972
13	0x4381b282	259.3946
14	0x4381b1c4	259.3888
15	0x4381b19b	259.38754
16	0x4381b1ea	259.38995
17	0x4381b3ab	259.40366
18	0x4381b68e	259.4262
19	0x4381b835	259.43912
20	0x4381bb0d	259.46133
21	0x4381bd34	259.47815
22	0x4381bcf1	259.4761
23	0x4381bdc0	259.48242
24	0x4381bdca	259.48273
25	0x4381be2b	259.4857
26	0x4381b9c8	259.45142
27	0x4381ba43	259.45517
28	0x4381b63a	259.42365
29	0x4381b931	259.4468
30	0x4381bb77	259.46457
31	0x4381beb8	259.49

pre_layers.0.weight f4 [64, 100]
0	0x3c57a4de	0.013161866
1	0x3db89d6d	0.090144016
2	0x3d0d792c	0.034539387
3	0x3b5f9040	0.003411308
4	0xbaf47652	-0.0018650985
5	0xbd9b87fc	-0.07594296
6	0xbd5f4ba7	-0.054515507
7	0xbd86bbdb	-0.06578799
8	0xbd61441e	-0.054996602
9	0xbd839c42	-0.06426288
10	0x3d3e8d08	0.046521217
11	0xbd798c63	-0.0609249
12	0x3d282ffe	0.041061394
13	0xbdd81a03	-0.10551836
14	0x3d8512f3	0.06497755
15	0xbd687b6d	-0.056758333
16	0x3dcbebdb	0.09957095
17	0x3d877b22	0.066152826
18	0x3d163437	0.03667089
19	0xba30b114	-0.0006740254
20	0x3cae22db	0.021256855
21	0x3a6bbb8c	0.0008992485
22	0x3d48a07d	0.04898118
23	0x3d99b311	0.07504857
24	0xbcb53bd3	-0.022123253
25	0xbd2d9812	-0.042381354
26	0x3ce6c26c	0.02816888
27	0xbd3cf5c9	-0.046132836
28	0x3dcc2854	0.099686295
29	0x3daf4cd2	0.08559574
30	0x3d3929c6	0.045205854
31	0xbcb9a724	-0.022662707
32	0xbbf3b378	-0.007437166
33	0x3d85dc8f	0.06536209
34	0x3d90730f	0.07053196
35	0xbc4106b6	-0.011781385
36	0xbc910497	-0.017702384
37	0xbc56ed20	-0.013118058
38	0x3da7cd47	0.081934504
39	0xbd2657a1	-0.040610913
40	0xbd8188f1	-0.063249476
41	0x3d6e976c	0.058249876
42	0x3b908de6	0.004411447
43	0x3c355d1e	0.011069564
44	0x3d8b5bce	0.0680462
45	0xbdd0f896	-0.10203664
46	0x3d175e1a	0.036954977
47	0xbc87ba26	-0.016568255
48	0xbd883194	-0.06650081
49	0x3c2fd9b8	0.010733061
50	0x3d4dd300	0.050250053
51	0x3d439c85	0.04775669
52	0x3cc1d480	0.023660898
53	0xb99d3fbe	-0.00029992865
54	0xbda56384	-0.08075622
55	0x3d341997	0.043969717
56	0x3b3b8585	0.002861352
57	0xbdb1e2a7	-0.08685809
58	0xbd279d77	-0.040921655
59	0xbc658e88	-0.014011033
60	0xbd9b0fe6	-0.07571392
61	0x3cb5032f	0.022096245
62	0x3ce36fbe	0.027763244
63	0xbd4f6540	-0.05063367
64	0x3dbfedb2	0.09371509
65	0x3dd3e32f	0.10346066
66	0x3d4f55b9	0.05061886
67	0xbc16374e	-0.009168459
68	0x3d9f3d8c	0.07775411
69	0xbd7f4b39	-0.062327597
70	0xbbbf0948	-0.005829964
71	0xbd684e96	-0.05671557
72	0xbd094e74	-0.033522084
73	0x3c90c020	0.017669737
74	0x3c0ad0ba	0.008472616
75	0xbcf086f9	-0.029361235
76	0xbd9998e9	-0.074998684
77	0xbd830f55	-0.06399409
78	0xbd7be30e	-0.061495833
79	0xbdcc2f35	-0.099699415
80	0xbcc2c69e	-0.023776349
81	0x3ddce9bf	0.10786771
82	0x3d62b9da	0.055353023
83	0x3d117ed0	0.03552133
84	0xbc8bb21b	-0.0170527
85	0x3d29149d	0.041279424
86	0x3dad27e3	0.084548734
87	0xbc93ba20	-0.018033087
88	0x3c1af553	0.009457904
89	0xbd2eb8ce	-0.042656712
90	0x3c8150b2	0.015785549
91	0xbd4725cc	-0.04862003
92	0x3d9dc169	0.07702906
93	0x3cf84323	0.03030545
94	0xbdc407af	-0.09571778
95	0xbd7c508b	-0.06160025
96	0x3dda57b1	0.10661257
97	0xbdc1931c	-0.09451887
98	0x3cce703b	0.0252
99	0xbde6acd8	-0.11263436
100	0x3d3182c0	0.043337584
101	0xbcec0f27	-0.028815819
102	0xbd8081ac	-0.06274733
103	0x3d5e46b8	0.05426666
104	0xbd498b5e	-0.049205177
105	0xbd3ab568	-0.04558316
106	0xbd114a4f	-0.035471257
107	0xbdb3800b	-0.08764657
108	0xbce9cc67	-0.02853985
109	0x3d994f52	0.07485832
110	0xbd66db2f	-0.056361374
111	0x3d187e91	0.037230078
112	0xbcb5bb14	-0.022183932
113	0xbc8706db	-0.016482761
114	0xbda1abdd	-0.078941084
115	0xbb67ff90	-0.003540013
116	0x3dd7c9f3	0.10536566
117	0x3dbdf420	0.09275079
118	0xbbaa4735	-0.005196477
119	0xbcb7d4ee	-0.0224404
120	0xbae9c36c	-0.001783473
121	0xbda30871	-0.079605944
122	0xbd5697e8	-0.052390963
123	0xbd8582af	-0.065190665
124	0x3c06c25b	0.008225049
125	0xbd0c189d	-0.03420316
126	0xbd761611	-0.060079638
127	0xbd8a174a	-0.06742723
128	0x3d43d2a7	0.047808316
129	0x3cbb42cc	0.022859
130	0x3de60779	0.11231894
131	0x3d8acd21	0.067774065
132	0x3bab600e	0.0052299565
133	0x3dca63f9	0.098823495
134	0x3aa06336	0.0012236598
135	0xbdc93c82	-0.09825994
136	0xbae5c73e	-0.0017530692
137	0xbd22f0cf	-0.039780434
138	0xbbb480a9	-0.0055085015
139	0x3da51d37	0.08062213
140	0x3d076ed8	0.033064693
141	0xbca0f3b2	-0.019647453
142	0xbce681fa	-0.02813815
143	0x3d5ada5c	0.0534309
144	0x3d92c5e3	0.0716665
145	0xbcd808dc	-0.026371412
146	0x3aec9854	0.0018050768
147	0xbda23c02	-0.07921602
148	0x3bc4bfdd	0.006004317
149	0x3da5fb3d	0.081045605
150	0xbdcc4122	-0.099733606
151	0xbdb44064	-0.08801344
152	0xbbc80474	-0.0061040465
153	0xbd4e6c46	-0.050396226
154	0xbc9306bb	-0.017947545
155	0x3da5a499	0.08088035
156	0xbd0a1175	-0.033708055
157	0x3da98fa6	0.08279352
158	0x3dcbf56e	0.099589214
159	0xbd44bd49	-0.04803208
160	0x3d7e1a6d	0.06203692
161	0x3d2fa8d7	0.042885628
162	0xbd1654c5	-0.036701936
163	0x3d2cc16a	0.04217664
164	0xba8b5463	-0.0010630008
165	0x3d5b803e	0.0535891
166	0xbe0a9ad4	-0.13535625
167	0xbcad8912	-0.021183524
168	0x3d9fc2a8	0.078007996
169	0x3d9670f8	0.07345766
170	0x3cfafa96	0.030637067
171	0xbdd219bc	-0.10258815
172	0xbd1e9a35	-0.038721282
173	0x3dbe4448	0.09290367
174	0x3c9c7757	0.019099874
175	0xbc33fec0	-0.01098603
176	0xbd582861	-0.052772883
177	0xbda377aa	-0.079818085
178	0x3d8260f2	0.06366147
179	0x3df3f1b3	0.11911335
180	0xbd317602	-0.04332543
181	0x3d86662f	0.06562459
182	0xbd4b68f4	-0.049660638
183	0x3da02ebe	0.07821415
184	0x3c765494	0.015034813
185	0x3d21ce36	0.0395033
186	0xbda4c287	-0.08044916
187	0x3d88fa0a	0.06688316
188	0xbdae822b	-0.08520921
189	0x3d5a57cc	0.053306386
190	0xbd6f2a44	-0.058389917
191	0x3ce11bb3	0.027479028
192	0x3cf9513e	0.030434247
193	0x3d9ac710	0.075574994
194	0xbdb9d0ab	-0.090730034
195	0xbd401a37	-0.0469
196	0xbd91c99f	-0.07118534
197	0xbdb33980	-0.08751202
198	0x3dab5ea5	0.083676614
199	0x3d994ab9	0.07484955
200	0x3d97a2af	0.07404076
201	0x3d87f8b2	0.06639232
202	0xbd14d2f0	-0.03633398
203	0xbde1148c	-0.10990247
204	0xbdb3032e	-0.08740841
205	0xbd9ac70b	-0.07557496
206	0x3dcb2a6a	0.09920199
207	0x3d4b8a30	0.049692333
208	0x3d3abf40	0.045592546
209	0xbcae729e	-0.021294888
210	0xbdacced4	-0.08437887
211	0xbdbaf7e0	-0.0912931
212	0x3d478809	0.048713718
213	0xbdc5221e	-0.09625648
214	0x3d4b74eb	0.04967205
215	0xbd3a03a5	-0.045413632
216	0x3d28037b	0.041018944
217	0xbaeed220	-0.0018220581
218	0xbd95e6f4	-0.073194414
219	0xbd317756	-0.0433267
220	0x3d0064ab	0.031346004
221	0xbd8d6591	-0.06904138
222	0x3d3bbc2f	0.045833763
223	0xbda905e1	-0.082530744
224	0xbd096815	-0.033546526
225	0xbc8fc66e	-0.017550673
226	0xbcdb82c4	-0.026795752
227	0xbd897172	-0.06711091
228	0xbd526f11	-0.051375452
229	0x3ce765ff	0.028246878
230	0x3bb8a9fb	0.0056354976
231	0x3cd5cda8	0.026099041
232	0x3da38065	0.07983474
233	0xbd813e1b	-0.06310674
234	0xbd6a7d71	-0.057248536
235	0x3da8b026	0.08236723
236	0x3de388fe	0.111101136
237	0xbd742a93	-0.059610914
238	0x3d8cf550	0.06882727
239	0x3d5fe078	0.05465743
240	0xbc7f2031	-0.01557164
241	0x3d93e5d9	0.07221574
242	0x3d94543e	0.072426304
243	0x3a38477c	0.0007029695
244	0x3c8a6b07	0.016896738
245	0xbd872078	-0.0659799
246	0x3bc5a123	0.006031172
247	0x3d5bb0bf	0.053635355
248	0xbc1a8c01	-0.009432794
249	0x3c1c1839	0.0095272595
250	0xbdc4a9a3	-0.09602668
251	0x3c2e147f	0.010625004
252	0x3ce6432f	0.028108208
253	0x3c7eae68	0.015544511
254	0x3d5f7951	0.054559056
255	0xbcffacc1	-0.031210305

pre_layers.0.bias f4 [64]
0	0xbd7831bd	-0.06059431
1	0xbd66e473	-0.05637021
2	0x3d76d1cf	0.060258683
3	0xbc8d1fa8	-0.017227009
4	0xbd533cc1	-0.05157161
5	0x3ccc1bf9	0.024915682
6	0x3dde5523	0.10856082
7	0x3d83bf17	0.06432932
8	0xbd94dfe5	-0.07269267
9	0x3da12a46	0.07869391
10	0xbdaccf97	-0.08438032
11	0xbd580182	-0.052735813
12	0x3d3c3510	0.04594904
13	0x3d9d77e7	0.07688885
14	0x3b29216a	0.002580727
15	0x3d954fab	0.07290586
16	0xbd96995f	-0.07353472
17	0xbd575cba	-0.052578665
18	0xbd92d647	-0.071697764
19	0xbd96c9be	-0.07362698
20	0xbd833158	-0.06405896
21	0xbba98197	-0.005172919
22	0xbd4cff95	-0.05004843
23	0xbd38925b	-0.04506145
24	0xbd1d9b5c	-0.03847824
25	0xbbd89f54	-0.0066107903
26	0x3d7d4c56	0.061840378
27	0x3d935b2e	0.071951255
28	0x3d9e058c	0.07715902
29	0xbd3e9798	-0.04653129
30	0xbb8c07ef	-0.0042734067
31	0x3d95f0f2	0.07321347
32	0xbd946031	-0.072449096
33	0x3cccbdf7	0.024992926
34	0x3915c156	0.0001428177
35	0x3d506c37	0.05088445
36	0x3c973015	0.018455544
37	0x3c90d116	0.017677825
38	0xbc9c85a6	-0.019106697
39	0x3c9a759e	0.018854912
40	0xbd3f4e86	-0.046705745
41	0x3d795610	0.06087309
42	0xbd69cfef	-0.057083067
43	0xbcd5ee4c	-0.026114605
44	0x3dc69efc	0.096982926
45	0x3ccf1f2c	0.025283419
46	0x3d73ad41	0.0594914
47	0x3da7a979	0.08186621
48	0x3ce49893	0.027904784
49	0x3d912c73	0.07088556
50	0x3d09afb6	0.033614837
51	0x3d8498bb	0.064744435
52	0x3d6c649c	0.057713136
53	0x3bed440b	0.0072407774
54	0x3d0b41a0	0.03399813
55	0x3b7d4fb3	0.003865224
56	0x3d624381	0.055240158
57	0xbb35c97e	-0.0027738507
58	0x3d92ff08	0.071775496
59	0xbd014df3	-0.03156848
60	0xbca7d692	-0.020488057
61	0x3d28c388	0.041202098
62	0x3dc212ba	0.09476228
63	0xbd5450e1	-0.051834945

post_layers.0.weight f4 [64, 64]
0	0x3d60ba4c	0.054865167
1	0x3d114dd0	0.0354746
2	0x3cfd7751	0.030940684
3	0xbe00d9fd	-0.12583156
4	0xbd16e6d9	-0.036841247
5	0x3e03b2ce	0.12861177
6	0xbd2bbe2e	-0.041929416
7	0x3d894b97	0.06703871
8	0x3dcfd4de	0.10148023
9	0xbdaf8f83	-0.085722946
10	0x3d368bf3	0.04456706
11	0x3dda81b4	0.1066927
12	0xbc9418b6	-0.01807819
13	0x3dbea33a	0.09308477
14	0x3dd6cf84	0.10488799
15	0xbdae514e	-0.085116014
16	0x3de55fda	0.11199923
17	0x3d1b0a02	0.03785134
18	0x3ddd0a67	0.10793
19	0xbd1abfe0	-0.037780643
20	0x3d919f74	0.071104914
21	0x3db91ed1	0.09039081
22	0xbde67534	-0.112528235
23	0xbe103a8a	-0.14084831
24	0xbdfdc39f	-0.123908274
25	0xba1db9e7	-0.00060167763
26	0xbd9ced2f	-0.07662427
27	0xbdbab6c5	-0.09116892
28	0x3c9d52da	0.019204546
29	0x3d2da624	0.042394772
30	0xbd8e9d88	-0.069636405
31	0x3c9b8ea5	0.018988917
32	0xbd202d2b	-0.039105576
33	0xbde1afed	-0.11019883
34	0x3c30a10e	0.010780586
35	0xbd96db9a	-0.073661044
36	0x3d12eb9f	0.035869237
37	0x3d9c10e5	0.0762041
38	0xbd8930a9	-0.06698734
39	0x3d963f2a	0.07336266
40	0x3dc790eb	0.09744438
41	0xbc2f100c	-0.010684978
42	0x3d5a868b	0.053350966
43	0x3bdd70f6	0.0067578508
44	0xbe0104a2	-0.12599424
45	0x3dde5c33	0.10857429
46	0x3d858860	0.06520152
47	0xbd899698	-0.067181766
48	0xbd91d934	-0.07121506
49	0xbd329b02	-0.04360486
50	0x3d3934e3	0.045216452
51	0xbc15886d	-0.009126765
52	0xbdd0bbed	-0.10192094
53	0x3cda2402	0.026628498
54	0x3d8f850e	0.070078
55	0x3db3d173	0.08780184
56	0x3cb422d2	0.02198926
57	0x3b06a065	0.002054238
58	0x3d143713	0.036185335
59	0xbcc884f6	-0.024477463
60	0xbdc788b0	-0.09742868
61	0x3dbfa62c	0.09357867
62	0x3c22ea69	0.009943583
63	0xbde5d58a	-0.1122237
64	0x3d90a943	0.07063534
65	0x3d16b2a7	0.03679147
66	0x3cd1d39b	0.025613597
67	0xbdfd7ac4	-0.12376931
68	0xbcede4a5	-0.02903969
69	0x3c03afdb	0.008037533
70	0xbdbb28a0	-0.09138608
71	0xbd894675	-0.06702892
72	0x3d5f3d5c	0.054501876
73	0x3c133c2e	0.008986516
74	0xbe2cdbab	-0.16880672
75	0x3e0c4e3f	0.13701724
76	0xbd71853c	-0.058964953
77	0x3d72981d	0.059227098
78	0x3d99abfa	0.07503505
79	0xbdaf497c	-0.08558938
80	0x3dadd49a	0.08487816
81	0x3d3963bc	0.04526113
82	0xbda99e1f	-0.08282112
83	0xbdd8f0d1	-0.10592807
84	0xbcc067a2	-0.023486916
85	0x3ba27796	0.0049581034
86	0x3e0c1c2a	0.13682619
87	0x3d75ca6d	0.0600075
88	0xbdd8b58a	-0.10581501
89	0x3db7dccc	0.089776605
90	0xbc022217	-0.007942698
91	0x3d28e3fc	0.041233048
92	0xbda09e49	-0.078426905
93	0xbe106994	-0.14102775
94	0x3d880466	0.06641464
95	0x3d1322e1	0.035921935
96	0x3d00a7a5	0.03140988
97	0x3d2193b7	0.039447512
98	0x3c0502af	0.008118316
99	0xbc7c1595	-0.015386005
100	0xbd77d6a3	-0.060507428
101	0xbd652cd3	-0.05595095
102	0x3de3e34e	0.11127339
103	0x3db58e30	0.08865011
104	0xbcae7b52	-0.021299038
105	0x3cb91d14	0.022596873
106	0xbd972362	-0.073797956
107	0xbd20cd31	-0.039258186
108	0x3dbccade	0.09218381
109	0xbcda4729	-0.02664526
110	0xbddcec43	-0.10787251
111	0xbcb7db76	-0.022443514
112	0xbcf3ab3f	-0.029744742
113	0x3dd8ee8f	0.105923764
114	0x3c15a47e	0.009133456
115	0xbdf55e24	-0.119808465
116	0xbd99c735	-0.07508699
117	0x3dc668f1	0.09687985
118	0x3c0c9c02	0.008582117
119	0xbd32f82b	-0.043693703
120	0xbda1fb32	-0.0790924
121	0x3e0b3638	0.13594902
122	0x3da8c702	0.08241083
123	0x3d4760c3	0.048676264
124	0x3d983b40	0.07433176
125	0xbd1bce79	-0.038038705
126	0xbd5135cd	-0.0510767
127	0x3d83f755	0.06443659
128	0x3dd80b7d	0.10549066
129	0x3d9e947c	0.07743165
130	0xbd8b6f82	-0.06808378
131	0x3d92544f	0.07144987
132	0xbdfeef50	-0.12447989
133	0x3da90691	0.082532056
134	0xbdbb4b81	-0.091452606
135	0x3de99a51	0.11406387
136	0x3dd01844	0.10160878
137	0xbd446acf	-0.047953423
138	0xbe08e1ec	-0.13367432
139	0x3d27f845	0.041008253
140	0xbd9a3fff	-0.075317375
141	0x3b6643ee	0.0035135704
142	0xbdd5d295	-0.10440556
143	0xbda1cf6c	-0.07900891
144	0xbd85380c	-0.06504831
145	0xbc952ed4	-0.018210806
146	0xbda0f2aa	-0.078587845
147	0xbbedff25	-0.0072630816
148	0x3ded7c2b	0.11595949
149	0x3e00684d	0.12539788
150	0xbdaddde6	-0.084895894
151	0x3db44ff2	0.08804311
152	0xbdca9870	-0.098923564
153	0x3dd66165	0.10467795
154	0xbe0337fa	-0.12814322
155	0xbd32df5c	-0.043670043
156	0xbc1d93cb	-0.009617756
157	0xbd84e3b6	-0.06488745
158	0x3dc3f553	0.09568276
159	0xbce46652	-0.027880821
160	0xbdbe61b0	-0.09295976
161	0xb9fd24bf	-0.00048283298
162	0x3e07bd3e	0.13255784
163	0xbca418af	-0.020031301
164	0x3d299403	0.04140092
165	0xbd759cf3	-0.05996413
166	0xbd846819	-0.064651676
167	0xbd728799	-0.059211347
168	0x3c0cd58e	0.008595837
169	0xbd80e321	-0.062933214
170	0xbdb880ce	-0.090089425
171	0xbbb86287	-0.0056269797
172	0x3d63d184	0.05561973
173	0xbc84af97	-0.016197009
174	0x3cc4f259	0.024041342
175	0xbb40a857	-0.0029397213
176	0x3e01cd80	0.12676048
177	0xbd5cfbd7	-0.05395111
178	0x3d776a55	0.06040414
179	0xbdc05d59	-0.09392805
180	0xbd1c68d3	-0.038185906
181	0xbc41d7a0	-0.011831194
182	0xbe0c880c	-0.13723773
183	0xbdefd512	-0.11710562
184	0xbd9a5a7d	-0.075367905
185	0x3cd2783f	0.025692103
186	0x3d4190c5	0.047257204
187	0xbd8a05d2	-0.067393914
188	0x3b6c32c7	0.0036041008
189	0x3ce61f20	0.028091013
190	0xbdd1bcf9	-0.10241122
191	0xbda6c65a	-0.08143301
192	0xbdad0a78	-0.084492624
193	0xbca13964	-0.019680686
194	0x3d80c610	0.062877774
195	0x3b5e1c7d	0.0033891492
196	0xbc91f489	-0.017816799
197	0x3d485bb2	0.048915572
198	0x3c60a049	0.01371009
199	0x3dcc9bf7	0.099906854
200	0x3d579f8b	0.052642386
201	0x3d333a12	0.043756552
202	0xbe0f8cae	-0.14018509
203	0x3df087db	0.117446624
204	0x3daeb42a	0.08530457
205	0xbd31ed31	-0.043439094
206	0x3df95ddb	0.12176105
207	0x3d7bb27b	0.06144951
208	0xbd3af8c5	-0.0456474
209	0x3ddae35e	0.10687898
210	0xbd869d59	-0.065729804
211	0xbdbb182c	-0.0913547
212	0xbdf8555c	-0.12125656
213	0xbd65cd9d	-0.05610429
214	0x3dc5247c	0.096260995
215	0xbd80e5b2	-0.06293811
216	0xba970b38	-0.0011523729
217	0x3db3eece	0.08785783
218	0x3def82a4	0.116948396
219	0xbd2e2504	-0.04251577
220	0xbd8cd59b	-0.068766795
221	0x3ce4d713	0.027934587
222	0xbd892aeb	-0.06697639
223	0x3d98821f	0.07446694
224	0xbd6102d4	-0.054934338
225	0xbce9c9d7	-0.028538628
226	0x3cee4d1a	0.0290895
227	0xbde0cfbf	-0.109771244
228	0x3d6836ad	0.056692768
229	0x3c09d8a9	0.008413472
230	0x3d74bc67	0.059749987
231	0xbac75e4f	-0.0015210601
232	0xbd982929	-0.07429726
233	0xbd799534	-0.060933307
234	0x3e0d867a	0.1382083
235	0x3d908f66	0.07058601
236	0xbc81c3f6	-0.015840512
237	0x3debf600	0.1152153
238	0x3dceb603	0.1009331
239	0xbcf1eb1c	-0.029531054
240	0xbb85d41d	-0.0040841238
241	0xbde40e86	-0.111355826
242	0x3dd46dd4	0.103725106
243	0xbc095e1c	-0.008384254
244	0xbc2f75e5	-0.010709261
245	0x3d813603	0.0630913
246	0xbd2dbc02	-0.042415626
247	0x3d308658	0.04309687
248	0xbd8adc4e	-0.06780301
249	0x3e04f2f9	0.12983312
250	0x3db06fb9	0.086150594
251	0xbdbc1e94	-0.0918552
252	0x3da63ec8	0.08117443
253	0x3d8f8354	0.07007471
254	0x3daa3b44	0.08312085
255	0x3e132573	0.14369754

post_layers.0.bias f4 [64]
0	0x3d636eca	0.05552558
1	0xbc622000	-0.013801575
2	0xbd1dafdc	-0.03849779
3	0x3d2702fa	0.040774323
4	0xbca06d2a	-0.019583303
5	0x3ccffb7b	0.02538847
6	0xbd011aea	-0.031519808
7	0xbcff8880	-0.031193018
8	0xbc08161c	-0.008306053
9	0x38af72b5	8.366016e-05
10	0xbda4d1ee	-0.080478534
11	0x3d900e2a	0.070339516
12	0x3d0e9d2c	0.03481786
13	0x3d7b2bdc	0.061321124
14	0x3d87aca8	0.066247284
15	0x3d902fcd	0.07040367
16	0x3d91a76c	0.07112011
17	0x3d91a045	0.07110647
18	0x3df8b3e5	0.12143687
19	0xbca8888f	-0.020572929
20	0x3d6a738a	0.057239093
21	0x3e01db2f	0.12681268
22	0x3da9927a	0.08279891
23	0x3e1152ac	0.14191693
24	0x3dbcbca0	0.09215665
25	0xbddee823	-0.1088412
26	0x3db41017	0.087921314
27	0x3e01d44e	0.12678644
28	0x3ca0c85d	0.01962679
29	0x3e1ac3d1	0.1511376
30	0x3d3d047b	0.04614685
31	0xbdcf6a5e	-0.1012771
32	0xbdcc144a	-0.09964807
33	0x3d93e904	0.072221786
34	0xbd75ce35	-0.060011107
35	0xbdb4d13b	-0.0882897
36	0xbcadfe11	-0.021239312
37	0x3db381f0	0.08765018
38	0x3b85d534	0.0040842537
39	0xbd8379a7	-0.06419688
40	0xbd14dfe2	-0.036346324
41	0x3d6dd6a1	0.058066014
42	0xbbdde34f	-0.006771482
43	0x3cb621da	0.022232939
44	0xbb8fcef2	-0.0043886835
45	0x3df1e8b2	0.11811961
46	0x3ab3c128	0.0013714181
47	0xbe12d2ba	-0.14338198
48	0xbde3f7cf	-0.1113125
49	0x3d0cf4f5	0.034413297
50	0xbd812632	-0.06306113
51	0xbd35e7c3	-0.04441048
52	0xbd93c6e6	-0.07215671
53	0xbe1fc54f	-0.15602611
54	0x3c79b6ef	0.015241369
55	0xbda1f0e6	-0.07907276
56	0x3d8b66e2	0.06806733
57	0xbdbfd7c7	-0.09367328
58	0xbc4548bc	-0.012041267
59	0x3cd2ce45	0.025733123
60	0xbd839e75	-0.06426708
61	0xbc59adc9	-0.0132860625
62	0xbd0a69ab	-0.03379218
63	0xbc1f420a	-0.009720335

post_layers.1.weight f4 [64, 64]
0	0x3cbe528c	0.02323272
1	0x3d6ee3c5	0.058322687
2	0x3dcc2cdb	0.09969493
3	0xbd326dad	-0.043561626
4	0x3c719de4	0.014747117
5	0xbdd3157a	-0.10306831
6	0x3ccff05e	0.02538317
7	0xbdd38550	-0.10328162
8	0xbe6a5757	-0.2288488
9	0x3d0f1057	0.034927692
10	0x3d04d747	0.032431867
11	0xbd25006a	-0.040283598
12	0xbda7497f	-0.08168315
13	0xbba713c1	-0.0050987904
14	0xbe24991e	-0.16074035
15	0xbe3d9b85	-0.18516357
16	0xbcd34fc5	-0.025794873
17	0x3d27ede0	0.04099834
18	0x3d9ed62d	0.077556945
19	0x3d658318	0.056033224
20	0x3dc85c33	0.097832106
21	0xbd45da24	-0.04830374
22	0xbde67cb5	-0.11254255
23	0xbdc43ecb	-0.09582289
24	0x3cb80eee	0.022468057
25	0xbe20ad0f	-0.15691017
26	0x3cfb9dd2	0.030714903
27	0xbc09c5bd	-0.008408961
28	0xbda7ec84	-0.08199409
29	0x3d62fdcc	0.05541782
30	0xbda131bb	-0.078708135
31	0x3c044d56	0.008075079
32	0xbd935333	-0.07193603
33	0xbdeb0602	-0.11475755
34	0xbe017ec0	-0.12646008
35	0xbe13a92e	-0.14420006
36	0xbc75c11b	-0.014999653
37	0xbd8aa5b8	-0.067698896
38	0x3d851278	0.06497663
39	0x3c932613	0.017962491
40	0xbdc61f84	-0.0967398
41	0xbc9e926a	-0.019356925
42	0xbc1053d9	-0.008809053
43	0x3d1ff88a	0.039055385
44	0x3ca75377	0.020425541
45	0xbcf42611	-0.029803308
46	0x3d941f18	0.07232493
47	0xbe4dbf1c	-0.20092434
48	0x3de6a9ab	0.1126283
49	0x3d68b1ff	0.056810375
50	0xbd852d6d	-0.06502805
51	0x3c78f3fd	0.01519489
52	0x3d450002	0.04809571
53	0x3e201e1e	0.15636489
54	0x3e141c8b	0.14464013
55	0xbe70054a	-0.23439518
56	0xbce3da08	-0.027813926
57	0x3ae02a81	0.0017102511
58	0xbddfbf9f	-0.10925221
59	0xbdfcbb3f	-0.12340402
60	0xbd461117	-0.048356142
61	0x3cd40727	0.025882317
62	0x3ca3cc9e	0.01999503
63	0xbd96881a	-0.07350178
64	0xbd5130bc	-0.051071867
65	0x3db74d49	0.08950288
66	0x3e0ca791	0.13735797
67	0x3dffc338	0.12488407
68	0x3d40af8b	0.04704241
69	0x3d0dff09	0.03466705
70	0x3da6f3f6	0.081520006
71	0x3d6b23f4	0.057407334
72	0x3e058d37	0.1304215
73	0xbdaaa559	-0.08332319
74	0xbd8895e1	-0.06669212
75	0xbd0a280d	-0.0337296
76	0x3d2d4e95	0.04231127
77	0x3e1ca493	0.15297155
78	0xbd4fecba	-0.05076287
79	0x3c58ba5e	0.013228027
80	0x3e0f9356	0.14021048
81	0x3e1cd7ff	0.15316771
82	0xbadc1b0c	-0.0016792729
83	0xbc0c6ff0	-0.00857161
84	0xbdbabcc7	-0.09118038
85	0xbdb89bbf	-0.09014081
86	0xbd245421	-0.040119294
87	0x3dc1979e	0.09452747
88	0xbd182140	-0.037141085
89	0x3e068473	0.13136463
90	0xbddd949c	-0.108193606
91	0xbd773962	-0.06035746
92	0x3cea54a3	0.028604811
93	0xbd577e35	-0.052610595
94	0xbd8a0ccc	-0.06740722
95	0x3de19b24	0.11015919
96	0xbd347c22	-0.044063695
97	0x3df771f5	0.120822825
98	0x3d8facf6	0.070154116
99	0xbd017c40	-0.031612635
100	0xbd248bdf	-0.040172454
101	0xbcd057b2	-0.025432441
102	0xbdc5a261	-0.09650112
103	0x3d6c7c10	0.057735503
104	0x3d5a4718	0.053290457
105	0xbd9cf31c	-0.07663557
106	0x3d185280	0.037188053
107	0x3c9b5ab1	0.018964143
108	0xbd4285db	-0.047490936
109	0x3d9a5ef6	0.075376436
110	0x3b2fc86f	0.0026822349
111	0x3ceb803d	0.028747672
112	0xbcf5507a	-0.0299456
113	0x3df40bfb	0.119163476
114	0xbb2daef0	-0.0026501976
115	0x3e226784	0.158598
116	0x3dcc09ee	0.099628314
117	0xbd48486c	-0.048897192
118	0xbb266be7	-0.0025393905
119	0x3d238599	0.03992233
120	0xbc341e3a	-0.010993535
121	0x3db57981	0.08861066
122	0x3dbfaad4	0.09358755
123	0x3d8c946e	0.06864248
124	0xbba24b60	-0.004952833
125	0xbceaa1a7	-0.028641535
126	0x3df49007	0.119415335
127	0x3d4b8af3	0.04969306
128	0x3d238520	0.03992188
129	0x3e0b196f	0.13583921
130	0x3dc231e8	0.09482175
131	0xbdf44246	-0.11926703
132	0x3da1ad99	0.07894439
133	0x3cccc895	0.024997989
134	0xbd21afcb	-0.03947429
135	0xbd8f233f	-0.069891445
136	0xbc103475	-0.008801569
137	0x3d701f19	0.058623407
138	0xbdeedc92	-0.11663164
139	0x3d8914ce	0.06693421
140	0x3c0c88a7	0.008577502
141	0x3d5c6b8b	0.0538135
142	0xbd2a0ab1	-0.041514102
143	0xbda181cb	-0.07886084
144	0x3e202a9d	0.15641256
145	0x3db07b18	0.08617228
146	0xbdb3b63b	-0.08774992
147	0x3d574321	0.052554253
148	0x3df2a247	0.11847358
149	0xbdb7a3e4	-0.089668065
150	0x3be35c1e	0.0069384715
151	0x3dc26215	0.09491364
152	0x3dee01c3	0.1162143
153	0x3bf7cad3	0.0075620203
154	0x3e030685	0.12795456
155	0x3dab6407	0.08368688
156	0xbd90e494	-0.07074848
157	0x3ccc1965	0.024914453
158	0x3d9c50ad	0.07632575
159	0x3d4703aa	0.04858748
160	0x3d004ffb	0.031326275
161	0xbc97f8f6	-0.018551331
162	0x3dfd2a99	0.123616405
163	0x3cee0b94	0.029058255
164	0xbdb7173b	-0.08939978
165	0x3df21e22	0.11822154
166	0x3d85c73a	0.0653214
167	0x3dccb884	0.09996131
168	0xbb6decd9	-0.0036304502
169	0xbdce9043	-0.100861095
170	0x3d87bbd3	0.066276215
171	0x3d9d4f51	0.07681144
172	0xbaa9c6b3	-0.0012952894
173	0x3df19ab9	0.11797089
174	0xbd984c6c	-0.07436451
175	0x3dfdd9bf	0.123950474
176	0xbe11bfc2	-0.14233306
177	0x3db5e67b	0.08881851
178	0xbd62ecc3	-0.055401575
179	0x3d42bca8	0.047543198
180	0xbd365976	-0.04451891
181	0xbdd00931	-0.10158003
182	0xbbac264c	-0.005253589
183	0xbd842ec3	-0.064542316
184	0x3dfeab77	0.12435048
185	0x3c5f5d59	0.013633096
186	0x3dacc1fa	0.084354356
187	0x3d9e48f4	0.077287585
188	0xbd9ee53b	-0.07758566
189	0x3dd47315	0.10373513
190	0x3d9c5fa8	0.076354325
191	0xbd23a2a1	-0.039950017
192	0x3e104d7f	0.14092062
193	0x3b5abb1f	0.0033375693
194	0x3dc7da00	0.09758377
195	0xbdd5a44a	-0.10431726
196	0xbda5f31a	-0.081030086
197	0xbcc72056	-0.024307411
198	0x3db260f2	0.08709897
199	0x3cd61705	0.026134023
200	0x3d886763	0.066603445
201	0x3dc38cec	0.09548363
202	0x3d81864a	0.06324442
203	0x3df11c8e	0.117730245
204	0x3d38b386	0.045093082
205	0x3ce28892	0.027653012
206	0x3d3f6f58	0.046737045
207	0x3dc74107	0.097292
208	0x3dafc80d	0.085830785
209	0x3d20a444	0.039219156
210	0xbdbc1932	-0.09184493
211	0x3df0c79d	0.11756823
212	0xbd59116a	-0.052995123
213	0x3d039f4f	0.03213435
214	0x3c435ea6	0.011924421
215	0xbc207e56	-0.009795746
216	0xbd4186c0	-0.04724765
217	0xbd220024	-0.039550915
218	0x3d664aa2	0.05622352
219	0x3ddb7022	0.10714747
220	0x3e00efde	0.12591502
221	0x3d5db377	0.05412623
222	0xbc0604ce	-0.008179856
223	0x3da8d068	0.08242875
224	0xbd1bfb2b	-0.03808133
225	0xbd8d0b11	-0.068868764
226	0x3c060e56	0.008182129
227	0x3d8b3570	0.06797302
228	0x3d509657	0.050924625
229	0xbc9d474c	-0.019199036
230	0x3af1c4ad	0.0018445455
231	0x3cd2140d	0.025644327
232	0x3ddb83c1	0.107184894
233	0xbda9a56a	-0.08283503
234	0xbd4d130d	-0.050066996
235	0x3ca87c46	0.02056707
236	0x3d48d308	0.04902938
237	0xbc6cabc7	-0.014445252
238	0x3d66c6a6	0.05634179
239	0x39e2bd15	0.00043246956
240	0xbe0dfc07	-0.13865672
241	0xbd912848	-0.07087761
242	0x3ddea738	0.10871738
243	0x3d9e6a31	0.07735098
244	0x3dcbba61	0.09947658
245	0xbc1c5093	-0.009540695
246	0x3dcc853e	0.099863514
247	0xbda68048	-0.081299365
248	0xbc7e4262	-0.015518757
249	0x3d678096	0.056519113
250	0xbc552781	-0.013009907
251	0xbdc9227d	-0.09821031
252	0x3de7f545	0.11326078
253	0x3d61a276	0.055086575
254	0xbcde1325	-0.027108738
255	0x3d31d164	0.04341258

post_layers.1.bias f4 [64]
0	0x3db6e0e3	0.089296125
1	0xbda11a39	-0.0786633
2	0x3e082943	0.1329699
3	0x3bf08f3f	0.007341295
4	0x3d99397a	0.07481666
5	0x3d8385d0	0.06422007
6	0xbd5eb48c	-0.0543714
7	0xbddaccae	-0.10683571
8	0x3d0989d6	0.033578716
9	0x3dbd8ba5	0.09255151
10	0xbd5ad4c8	-0.05342558
11	0x3c890ee5	0.016730735
12	0xbc4ed47b	-0.0126239015
13	0x3e168a58	0.14701211
14	0x3d8500ac	0.06494269
15	0x3b6d0d25	0.0036171165
16	0xbcba358f	-0.022730617
17	0xbd81461c	-0.063122004
18	0xbb6f19f5	-0.0036483977
19	0x3e0a4dbc	0.13506216
20	0x3cff4799	0.03116207
21	0xbc56ecf1	-0.013118015
22	0xbd064765	-0.03278293
23	0xbd26cfaa	-0.040725388
24	0xbcb82313	-0.022477662
25	0x3d42e76b	0.04758398
26	0x3c984c02	0.01859093
27	0x3c2ddcda	0.010611737
28	0xbc3f8e26	-0.011691606
29	0x3de2ce40	0.11074495
30	0x3e2025f5	0.1563948
31	0xbd4fba29	-0.050714646
32	0xba91e743	-0.0011131543
33	0x3aaba6e3	0.0013096001
34	0xbb88e76a	-0.0041779773
35	0xbdcf7a54	-0.10130754
36	0x3daa6d7e	0.08321665
37	0x3dfff5b5	0.12498037
38	0x3dc6da30	0.09709585
39	0x3d6436ef	0.05571645
40	0x3d3580a0	0.04431212
41	0xbda99a8d	-0.08281431
42	0xbdad1d02	-0.084527984
43	0xbd9406fc	-0.07227895
44	0xbcf08542	-0.029360417
45	0x3dcbbf0a	0.09948547
46	0x3d2ed95f	0.04268777
47	0x3dc8697f	0.09785747
48	0x3db5f903	0.08885386
49	0xbd8c8131	-0.06860579
50	0xbd99cb92	-0.07509531
51	0xbd8f8e1b	-0.07009526
52	0x3d9735f6	0.07383339
53	0x3e1b8e74	0.1519106
54	0xbd4bace1	-0.049725417
55	0xbdab5647	-0.083660655
56	0x3d20ab75	0.039226014
57	0x3c84ae6e	0.016196456
58	0x3db7e6b9	0.08979554
59	0x3e10b0b6	0.1412991
60	0x3c5b4fca	0.013385722
61	0x3daf97d3	0.0857388
62	0x3da30d51	0.07961524
63	0xbcfcdb7f	-0.030866383

post_layers.2.weight f4 [64, 64]
0	0x3d0d9487	0.034565475
1	0x3ce9a2bd	0.028519982
2	0x3d6b0d6d	0.05738585
3	0x3da9eee4	0.08297518
4	0xbdc13a83	-0.09434988
5	0x3dbd9f1c	0.09258863
6	0x3d821d07	0.06353193
7	0x3d8f6321	0.07001329
8	0x3ca4913d	0.020088786
9	0x3d51ec7f	0.05125093
10	0x3b5817b0	0.0032973103
11	0x3db1ecf7	0.086877756
12	0x3e0c36de	0.13692805
13	0x3dd28bff	0.102806084
14	0xbd1657f5	-0.036704976
15	0xbe22cc95	-0.15898354
16	0x3d787d57	0.06066641
17	0x3d32af44	0.043624178
18	0x3db2ea09	0.08736045
19	0xbd8fe5ad	-0.07026229
20	0x3df5c5be	0.12000607
21	0xbd96a0fb	-0.07354923
22	0xbd063d40	-0.032773256
23	0x3dcde8ea	0.100541905
24	0x3d12ebc3	0.03586937
25	0x3dd1a283	0.10236075
26	0x3d4f283d	0.050575484
27	0x3c8bcf5b	0.017066648
28	0xbd51026c	-0.0510277
29	0x3dc3864c	0.095470995
30	0xbd8e7ed1	-0.06957782
31	0xbcca94ba	-0.024729121
32	0x3d339afd	0.04384898
33	0x3e051865	0.12997587
34	0x3d5d4b67	0.054026987
35	0xbc5a0ca2	-0.013308676
36	0xbd65531a	-0.055987455
37	0xbc2c1426	-0.010502851
38	0xbd242343	-0.04007269
39	0xbd1add22	-0.037808545
40	0x3b5fbc72	0.0034139422
41	0xbd35460b	-0.04425625
42	0x3d483ff6	0.048889123
43	0x3d2e29bf	0.04252028
44	0x3e0eaac7	0.13932334
45	0x3dc6fb87	0.09715944
46	0x3c28af3b	0.010295684
47	0xbcd18804	-0.025577553
48	0x3d031b09	0.032008205
49	0x3de77945	0.11302427
50	0xbd45652f	-0.0481922
51	0x3d8c5838	0.06852764
52	0xbd541ece	-0.05178719
53	0xbd0405c2	-0.032232054
54	0xbd94a2e9	-0.07257635
55	0xbdb0b684	-0.08628562
56	0x3dd64cd8	0.104638755
57	0x3dbc080b	0.091812216
58	0xbe148f60	-0.14507818
59	0x3d84ca9f	0.064839594
60	0xbddffb94	-0.109366566
61	0xbd11b6e5	-0.035574812
62	0x3e0f14ea	0.13972822
63	0x3d5bb6d4	0.053641155
64	0x3cbac1d7	0.022797508
65	0x3e02cf17	0.12774311
66	0xbc2bd677	-0.010488144
67	0x3bb6db1a	0.005580318
68	0xbd76cc80	-0.06025362
69	0xbd281f84	-0.04104568
70	0x3ce58719	0.028018521
71	0xbdb95b88	-0.09050661
72	0xbd7446b5	-0.059637744
73	0xbd3393ad	-0.043842006
74	0x3d8921b6	0.06695883
75	0x3cff083f	0.031131862
76	0x3c9c9404	0.019113548
77	0x3dca6993	0.09883418
78	0xbd8af966	-0.0678585
79	0x3de48194	0.111575276
80	0x3d8d0959	0.068865485
81	0xbdfb3496	-0.12265889
82	0xbc9a2ff7	-0.0188217
83	0xbc992a66	-0.018696975
84	0x3c3c422c	0.011490386
85	0x3c09c063	0.008407685
86	0x3d2a65a4	0.04160084
87	0x3c7a6b46	0.015284365
88	0xbd9a32a4	-0.0752919
89	0xbe012e26	-0.1261526
90	0xbca362ab	-0.01994451
91	0xbb7263c8	-0.0036985744
92	0xba9334d6	-0.0011230956
93	0x3d97dec0	0.07415533
94	0xbe13e0c4	-0.1444121
95	0xbb0bc960	-0.0021329746
96	0xbcb6c042	-0.022308473
97	0x3c9df2ec	0.019280873
98	0x3d8afdfb	0.06786724
99	0x3d8758ab	0.06608709
100	0xbdf73a86	-0.12071709
101	0xbc689769	-0.014196255
102	0xbcf183d8	-0.029481813
103	0x3dc6a2dc	0.09699032
104	0xbc9e92d7	-0.019357128
105	0xbd824ac9	-0.063619204
106	0x3dc59d8f	0.096491925
107	0xbe2c21ea	-0.16809812
108	0xbde43ac5	-0.11144022
109	0x3d807515	0.062723316
110	0xbc96174c	-0.018321656
111	0x3da112fb	0.07864948
112	0xbdf226e7	-0.11823826
113	0xbc9bea7d	-0.019032711
114	0xbe03f005	-0.12884529
115	0xbe4559f8	-0.19272602
116	0xbd44a776	-0.048011266
117	0x3dc23d35	0.094843306
118	0x3d55a9c7	0.052163865
119	0x3dc1ed17	0.094690494
120	0xba8a7fd8	-0.0010566665
121	0xbd813169	-0.06308252
122	0x3e45267d	0.19252963
123	0x3c9a7c93	0.01885823
124	0x3ba405ae	0.00500556
125	0x3c77d81b	0.015127207
126	0x3dc79a66	0.09746246
127	0xbd0c780c	-0.034294173
128	0xbe1635ae	-0.14668915
129	0x3dfd9cce	0.12383424
130	0x3d0d6f51	0.034529988
131	0x3de3d710	0.11125004
132	0xbdb7bf87	-0.08972078
133	0x3e5e2005	0.21691902
134	0xbded5550	-0.11588538
135	0x3d1efc3f	0.03881478
136	0x3d45c2a3	0.048281323
137	0x3d1dcf33	0.03852768
138	0xbb47eb9f	-0.0030505431
139	0xbdaa6add	-0.08321164
140	0xbdaf1d6b	-0.08550533
141	0xbd0c25bb	-0.03421567
142	0xbd2d4b0d	-0.042307902
143	0xbe4cf1a0	-0.20014048
144	0x3df3d8f3	0.11906614
145	0x3dc63072	0.09677209
146	0xbcd771dc	-0.02629941
147	0x3e02217d	0.12708087
148	0x3e66d105	0.22540672
149	0x3de0341c	0.10947439
150	0xbd56c653	-0.05243523
151	0xbd727f3a	-0.059203364
152	0xbdd9f630	-0.1064266
153	0xbcdc39f0	-0.026883096
154	0x3d8ef4bd	0.06980274
155	0xbd50a714	-0.050940588
156	0x3cf70f88	0.030158773
157	0xbd2a2121	-0.0415355
158	0x3e236a59	0.15958537
159	0x3ddf2ae5	0.10896853
160	0x3ce8ac02	0.028402332
161	0xbc232dff	-0.009959697
162	0xbd482ae5	-0.048869032
163	0xbdbaa0e6	-0.0911272
164	0xbd5007b2	-0.05078859
165	0xbc91210d	-0.017715955
166	0x3d938094	0.07202259
167	0x3ce54484	0.027986772
168	0x3d664f9d	0.05622827
169	0x3ce13ac5	0.027493844
170	0xbdb61eaa	-0.088925675
171	0xbdba0354	-0.09082666
172	0x3d8e3bde	0.069450125
173	0xbc1cfe98	-0.009582184
174	0x3bb2e8b3	0.005459869
175	0x3d7a799b	0.06115113
176	0xbd7d0fad	-0.061782528
177	0xbd5a1c8d	-0.053249884
178	0x3d251e4c	0.040312096
179	0x3de3c057	0.1112067
180	0xbda2ca48	-0.07948738
181	0x3e0aba2f	0.13547586
182	0xbc852d2e	-0.016256895
183	0x3c282e9b	0.010265018
184	0x3e118f32	0.14214781
185	0x3cce005d	0.025146658
186	0xbe07c640	-0.1325922
187	0x3ddbec83	0.107384704
188	0xbe174191	-0.14771105
189	0xbca757b6	-0.020427566
190	0x3e1123ef	0.14173864
191	0x3e2a365f	0.16622303
192	0xbe2d0737	-0.16897283
193	0xbd2ae3a6	-0.04172101
194	0xbbb67891	-0.005568572
195	0xbd886671	-0.06660164
196	0xbcba1f63	-0.022720044
197	0x3df32ba9	0.11873562
198	0xbd2e9cc7	-0.042629983
199	0xbd28d024	-0.041214123
200	0x3d440398	0.04785499
201	0xbe0ebf25	-0.13940103
202	0x3dddb687	0.1082583
203	0xbdace7b0	-0.084426284
204	0x3e0d6ed6	0.13811812
205	0x3da4637b	0.08026787
206	0xbd389265	-0.045061488
207	0xbe28f0a3	-0.16498046
208	0xbd01ff3a	-0.031737544
209	0x3c764f15	0.015033503
210	0x3d5fd837	0.054649558
211	0x3ddca62d	0.10773883
212	0x3e33945e	0.17537066
213	0x3d263e8a	0.040586986
214	0x3d21ba8a	0.03948454
215	0x3e1520b0	0.1456325
216	0xbb9b47c4	-0.0047387797
217	0x3d98d7a2	0.07463004
218	0x3db24ea3	0.08706405
219	0x3ca4fe66	0.020140838
220	0x3d04ce53	0.03242333
221	0x3d79f23f	0.06102204
222	0xbcce78db	-0.025204113
223	0xbd83d94c	-0.064379305
224	0xbd1ba0bd	-0.03799509
225	0x3db4fc7b	0.08837219
226	0x3d8b6779	0.06806845
227	0x3d1569c0	0.036477804
228	0x3e15e394	0.14637595
229	0x3dcc308c	0.09970197
230	0xbd1f6db7	-0.03892299
231	0xbd9ba1d7	-0.07599228
232	0x3d7517ce	0.059837155
233	0x3c823293	0.015893256
234	0xbda20a91	-0.07912172
235	0x3b444989	0.0029951057
236	0x39beeb00	0.00036414713
237	0x3dc1fbe3	0.09471872
238	0x3c303c32	0.010756539
239	0x3c781f31	0.015144155
240	0x3dcc013c	0.09961173
241	0x3b8bb026	0.004262942
242	0x3df62f4c	0.1202074
243	0x3dca518e	0.098788366
244	0xbc72f5c4	-0.014829103
245	0x3db7f996	0.089831516
246	0xbd4be7e6	-0.049781702
247	0xbe03c06b	-0.1286637
248	0xbd292a82	-0.041300304
249	0x3dce49ec	0.10072693
250	0xbe0c5dcd	-0.13707657
251	0x3d01b504	0.03166677
252	0xbd90395d	-0.07042191
253	0xbd2be19e	-0.041963212
254	0xbdc60948	-0.09669739
255	0x3da3ecef	0.08004176

post_layers.2.bias f4 [64]
0	0x3df61d64	0.120173246
1	0xbcd40fd3	-0.025886452
2	0xbc483d15	-0.012221594
3	0x3d6634a0	0.05620253
4	0xbc330049	-0.010925361
5	0xbd849a01	-0.064746864
6	0x3e0ac499	0.13551559
7	0xbd1407c5	-0.036140222
8	0x3dd7dd94	0.105403095
9	0xbd800250	-0.06250441
10	0x3c8c89d8	0.017155573
11	0x3e04575f	0.12923954
12	0x3e09b42d	0.13447638
13	0x3e00e3b1	0.12586857
14	0xbd188bdc	-0.037242755
15	0xbda4c67b	-0.0804567
16	0x3d9f6289	0.07782466
17	0xbd655d97	-0.055997457
18	0xbdcbd963	-0.099535726
19	0xbd97172a	-0.07377465
20	0x3e0c34cf	0.1369202
21	0xbcd67017	-0.026176495
22	0xbae2c6e0	-0.0017301701
23	0xba75e972	-0.00093807944
24	0x3d10ff8b	0.035399955
25	0xbc9a51d9	-0.018837856
26	0x3cd94474	0.026521899
27	0x3ce89ef6	0.028396111
28	0xbe03ddfc	-0.12877649
29	0x3d9bc064	0.07605055
30	0x3dbc582c	0.09196505
31	0xbc35231c	-0.011055734
32	0x3d941d7e	0.07232188
33	0xbcc7f852	-0.0244104
34	0xbd9cf0f0	-0.07663143
35	0x3dd7b5c3	0.10532715
36	0x3debb993	0.11510005
37	0x3d905795	0.07047955
38	0xbcbabcbf	-0.02279508
39	0xbd5e1872	-0.05422253
40	0x3de9dd71	0.1141919
41	0xbd010bd7	-0.031505432
42	0xbd92009d	-0.07129023
43	0xbd4f73cd	-0.050647546
44	0xbce77bd6	-0.028257292
45	0x3de33bc5	0.110953845
46	0x3c2a0451	0.010377006
47	0x3d862feb	0.065521084
48	0xbdc0ca9a	-0.09413643
49	0xbdafef32	-0.08590545
50	0xbd5539a3	-0.05205692
51	0x3d06be97	0.032896604
52	0xbdcd0e97	-0.100125484
53	0xbcf1ebc4	-0.029531367
54	0x3b65c7ec	0.003506179
55	0x3dc8b74d	0.09800587
56	0x3da0bdc3	0.07848694
57	0x3dfc8895	0.123307385
58	0x3de0bf82	0.10974027
59	0xbb416315	-0.002950852
60	0x3cfd6d39	0.03093587
61	0xbd2cd955	-0.04219945
62	0xbcc142f4	-0.023591496
63	0x3db58de7	0.08864956

output_layer.weight f4 [1, 64]
0	0x3e018ea0	0.12652063
1	0xbdeaba99	-0.11461372
2	0x3dca9e75	0.098935045
3	0x3dadb4e3	0.08481767
4	0xbe6f4428	-0.23365843
5	0x3d8efd27	0.06981879
6	0x3e0f8023	0.14013724
7	0xbd41ed13	-0.047345232
8	0xbe0e44dc	-0.13893455
9	0xbe42b3de	-0.19013926
10	0x3cb4c2d8	0.022065565
11	0x3df480b0	0.11938608
12	0x3da4ed27	0.08053046
13	0x3cbbf68c	0.022944711
14	0xbdd9bb95	-0.106314816
15	0xbdf310cb	-0.118684374
16	0x3de39b56	0.11113612
17	0x3d929a3a	0.07158323
18	0xbde24834	-0.11048928
19	0x3ca0144e	0.019540932
20	0x3ca83dda	0.020537306
21	0x3ded786e	0.11595236
22	0x3d415da6	0.04720845
23	0xbe6e3a5a	-0.23264447
24	0x3d9d2d48	0.07674652
25	0xbd0e9bcf	-0.03481656
26	0xbdbc458f	-0.09192955
27	0x3db1d97b	0.08684059
28	0xbe2df803	-0.1698914
29	0xbdbb6159	-0.09149427
30	0xbd8f74da	-0.070047095
31	0xbdc447dd	-0.09584019
32	0x3e197d40	0.14989185
33	0x3e0f0cd7	0.13969742
34	0xbea9f1fc	-0.33192432
35	0xbe0fe200	-0.14051056
36	0xbde5b3b5	-0.11215917
37	0x3dbac038	0.09118694
38	0x3d4c9b51	0.04995281
39	0xbd4d798d	-0.050164748
40	0xbde6e7a5	-0.112746514
41	0xbe1e1f34	-0.1544159
42	0xbd764e66	-0.06013336
43	0x3daf569d	0.08561442
44	0xbe7bd419	-0.24592628
45	0x3db390aa	0.08767827
46	0xbd8423bd	-0.06452129
47	0xbdabd261	-0.08389736
48	0xbcb58b20	-0.022161067
49	0xbdd6eb8a	-0.10494144
50	0x3e82b55a	0.25528985
51	0x3d318dc2	0.04334808
52	0xbdc9113e	-0.09817742
53	0x3cb4071e	0.02197605
54	0xbdf1ed51	-0.11812843
55	0xbd048c8b	-0.032360595
56	0x3d424f32	0.047438808
57	0x3dd4034b	0.103521906
58	0x3d9f7791	0.07786477
59	0xbd02cb88	-0.031932384
60	0x3df89a73	0.12138834
61	0xbe32ec62	-0.17472985
62	0x3dd6715a	0.10470839
63	0xbd388ba5	-0.04505505
