saved_models/2023-04-20_01-35-39/model.pth (torch, 638556 bytes, 60 tensors)

type_embedding.weight f4 [100, 100]
000000 91 0c 96 3e ee 1a 5d bd 90 dc bb bf d2 35 7e 3c
       0.29306462 -0.05398076 -1.4676685 0.015515761
000010 b5 f1 f7 3e e6 8f 43 3f 08 77 a3 3e 9e df 20 3f
       0.48426595 0.76391447 0.3192675 0.6284121
000020 33 e7 a5 3f 0c 2f 49 bf 0e f6 0d 3d fb 3a 35 bf
       1.2961181 -0.7858741 0.034658484 -0.7079312
000030 52 ce a1 bf b3 03 d9 3f 35 54 4b bf d4 9c b2 bd
       -1.2641089 1.6954254 -0.79425365 -0.08721319
000040 dd 0a 98 3e 73 c6 01 bd 32 96 d9 be e6 2a 06 bf
       0.29695788 -0.031683397 -0.42497402 -0.5240921
000050 46 50 ef 3e 94 07 45 bf 16 9c 2f 3f 30 30 9c 3f
       0.4674093 -0.7696469 0.68597543 1.2202206
000060 ed 65 0b c0 7e b9 91 bd 48 1b 4d 3f 34 2a b9 3f
       -2.178096 -0.07115458 0.8011975 1.4466004
000070 8a b8 d7 3e 94 83 af 3e 06 cd 52 bf 53 89 fa 3e
       0.4213298 0.34280074 -0.8234409 0.48932895
000080 f5 28 12 3f bc 50 43 3f 10 3f f6 be dd f3 35 3f
       0.57093745 0.76295066 -0.48094988 0.7107523
000090 a5 4d 1c bf 83 1b bd bf 88 5a 02 bf cb ff 14 c0
       -0.61055976 -1.4774021 -0.5091939 -2.3281124
0000a0 e5 be b7 bf 51 ce f4 3e a2 55 99 bf bf c3 9a 3f
       -1.4355131 0.47813657 -1.1979258 1.2090987
0000b0 05 6d 0b be 8c 61 63 bf f8 d5 13 c0 f6 67 8d be
       -0.13615806 -0.8882072 -2.3099346 -0.27618378
0000c0 47 f6 69 3f d8 d2 e3 3f a9 ab b0 3e fb 28 79 bd
       0.91391414 1.779872 0.34505966 -0.060830098
0000d0 c1 bc 5e be ca 24 c9 bf 8f 79 cc 3e 5a 19 33 bf
       -0.21751691 -1.5714352 0.39936492 -0.6996056
0000e0 fd b4 e7 be b3 0b ee be 82 5e 72 3f 7c df b4 3c
       -0.4525527 -0.464933 0.9467546 0.022079222
0000f0 a6 a1 3e 3f 3b a6 91 be 15 97 a3 bf bd 7e 90 3f
       0.74465406 -0.28447136 -1.2780482 1.1288677
000100 92 1f 19 bf 3c 4c 0f 3e 30 f0 80 bf 26 2f 10 c0
       -0.598138 0.13993925 -1.00733 -2.2528777
000110 d1 ae 1b 3f 20 4f 7d 3d 96 c1 b7 be 4d 40 2c 3f
       0.60813624 0.061843038 -0.35889882 0.67285615
000120 cd 88 f7 bd 92 ff 43 bf 36 b8 b8 3f 2e 4f ba 3f
       -0.120866396 -0.76561844 1.4431217 1.4555414
000130 4b 5f a6 be ee 4d b7 3e fd 07 85 bf e1 4a 72 3c
       -0.32494578 0.35801643 -1.0393063 0.01478836
000140 be 23 c7 3e 91 05 47 be 11 06 1b 3f ac a4 02 3d
       0.38894457 -0.19435717 0.6055613 0.031895325
000150 4d 70 df bd 56 a8 8b 3f ab ac 76 3f e0 62 c4 bf
       -0.109100915 1.0910747 0.9635722 -1.5342674
000160 9a 8c f2 be 72 d8 af 3e 00 dc e9 be 36 38 83 3d
       -0.47372895 0.34344822 -0.4567566 0.06407206
000170 16 47 0f 3f f5 dd 3c 3e 81 3a 28 be 13 33 51 3f
       0.55967844 0.18444045 -0.16428567 0.8171856
000180 5f 1e 8d be 6e ed b7 bd ff 56 e5 3f d8 56 89 3b
       -0.27562234 -0.08980833 1.7917174 0.004191261
000190 40 fb 49 3f 27 f9 e9 3d ba a0 8b 3f d1 8a a4 3e
       0.78899 0.11424475 1.0908425 0.3213716
0001a0 b9 5f d9 bc 46 cc 91 3f ba 71 1c 3f 2e 51 a3 3e
       -0.026534902 1.1390464 0.6111103 0.31897873
0001b0 04 60 46 bf 74 48 e2 bf 95 a1 c0 be 46 4a 56 bf
       -0.7749026 -1.7678361 -0.37623277 -0.8370708
0001c0 7c e2 22 bc 9c a3 23 3f 3d 04 03 bf de e9 8c bf
       -0.009941693 0.63921523 -0.5117834 -1.1008871
0001d0 a2 ef b5 3e 7c 28 e6 3f 78 e2 31 bf 06 e4 3e bf
       0.35534388 1.7981105 -0.6948619 -0.74566686
0001e0 f6 ce fd 3f bb eb 21 3f 6f fb b5 bf 84 01 0b c0
       1.9828784 0.6325032 -1.4217356 -2.1719675
0001f0 ce 30 5b 3f 67 5b 85 bf f3 be 0e be 36 4c ae 3f
       0.85621345 -1.0418519 -0.13940029 1.3617008
000200 79 5d 88 3e 48 b5 2b 3f cf 1c 83 bf 34 c7 37 bf
       0.26633814 0.6707349 -1.0243167 -0.71788335
000210 6e 6a 7c 3e bc d6 69 3d 7c 69 d3 bf d3 aa cf 3e
       0.24649975 0.057089552 -1.6516566 0.40560016
000220 a4 1f 20 bf ca 47 2c bf 0d 0f e1 3e c4 fa c4 3e
       -0.6254828 -0.6729704 0.43956795 0.3847257
000230 a8 89 92 3e 04 3e d5 bd ab 4d 97 3f 46 66 c9 bf
       0.28620648 -0.10412219 1.1820577 -1.5734336
000240 6f 38 b9 bf 8d ed 4a 3f 5b 9b 47 3f 4d 64 35 bf
       -1.4470347 0.79268724 0.7797143 -0.7085617
000250 71 2b bf bf 9a 1f c0 bf 3a 03 61 bf 2e 72 eb bf
       -1.4935132 -1.5009644 -0.8789555 -1.839422
000260 53 05 63 3e bc 5e 58 3f 21 68 fb 3d ce 2d 69 bd
       0.2217 0.84519553 0.122757204 -0.05692845
000270 d2 d2 41 bf cb 2f 64 bf 73 61 37 be b6 e2 23 bf
       -0.7571231 -0.89135426 -0.17908268 -0.6401781
000280 88 40 7d 3f da a7 9a 3f 52 56 85 3f d6 94 37 bf
       0.9892659 1.2082474 1.0416968 -0.7171148
000290 57 3a 5a bf 93 47 de 3f fb aa 11 bf 9b ab b4 bd
       -0.8524527 1.7365593 -0.5690152 -0.08821794
0002a0 8d 9c ef 3b fb d0 06 be 76 b0 09 3f 64 2b 30 3f
       0.0073123635 -0.13165657 0.53784883 0.6881621
0002b0 66 5f 67 3f 62 7f 1f bf 3b 10 e5 be dd f9 ea 3e
       0.9037994 -0.62303746 -0.44738945 0.45893756
0002c0 00 05 3e be 7e 71 b3 be 78 ff c3 bf cd 61 d2 bf
       -0.18556595 -0.35047525 -1.5312338 -1.6436096
0002d0 88 c6 56 3e 9d 73 96 3f 18 ad ff 3f b9 5e 96 3f
       0.20974171 1.1754032 1.9974699 1.1747657
0002e0 ef d1 23 be ef 91 10 bf 9f d8 12 3d 25 e3 c6 bd
       -0.15998052 -0.56472677 0.035851117 -0.09711293
0002f0 26 6f 67 3e 58 0e e3 3e cb 23 a2 bf 0d 70 b3 3d
       0.22600994 0.4434688 -1.2667173 0.08761606
000300 01 9e c4 bf 41 2c 30 3f 40 a6 a5 3f 29 38 60 bf
       -1.5360719 0.68817526 1.294136 -0.87585694
000310 ee c4 10 c0 f6 2f 53 bf 08 9b 96 bf 6f b0 56 3e
       -2.2620196 -0.8249506 -1.1766062 0.20965742
000320 00 c9 20 3f f7 19 57 3f 93 a3 c2 3e 59 db 89 3f
       0.628067 0.84023994 0.38015422 1.0770065
000330 88 b9 53 bf a4 89 9f be 00 72 01 3f 2d de 23 3f
       -0.82704973 -0.311597 0.50564575 0.6401089
000340 7f 27 ce bd c6 9f 32 3e 8f 37 ef 3f ef b3 1b 3f
       -0.10066127 0.17443761 1.868883 0.6082143
000350 62 fa 4a bf 2f bd 18 bf 3a e1 ed bf c9 59 65 3f
       -0.79288304 -0.5966367 -1.8584359 0.89590126
000360 80 5c 3f bf 79 b3 85 bf 84 30 15 3f b5 f5 7d be
       -0.7475052 -1.0445396 0.58277154 -0.24800761
000370 d3 a0 01 be 84 27 98 3d 79 47 8b bf 8c ec 8d 3f
       -0.12659006 0.07429412 -1.0881187 1.1087813
000380 5c 0d f6 be 80 91 91 3f f2 db eb bf ba e6 8c bd
       -0.48057067 1.1372528 -1.8426497 -0.06879945
000390 d7 ad 0e bd 91 57 92 bf f5 d7 54 bd 09 01 01 bf
       -0.034833755 -1.1432973 -0.051963765 -0.50392205
0003a0 15 91 f5 3f 18 9c 2f bf af 22 04 be 14 c5 83 bf
       1.91849 -0.68597555 -0.12903856 -1.0294518
0003b0 43 b4 14 c0 0a dd a5 bf 08 f7 0a 3f f5 75 62 bf
       -2.3235023 -1.2958081 0.5428319 -0.8846124
0003c0 3e 7a 2c bd 4e 0f 36 3f 36 29 00 40 1a 1f 0d bf
       -0.042108767 0.71117103 2.0025153 -0.5512558
0003d0 b0 84 76 be 54 4e c6 3f 5d 23 8e 3f 0a c4 bd 3e
       -0.24074054 1.5492654 1.1104542 0.37063628
0003e0 42 3f 9c bf e5 8e 1d 3e bb 2c d9 3f 72 f9 a0 3f
       -1.2206805 0.15386541 1.6966776 1.2576125
0003f0 46 49 0e bf 59 a4 65 be aa ac 89 bf 78 09 80 3d
       -0.55580556 -0.22425975 -1.0755818 0.06251806

distance_expansion.means f4 [32]
000000 17 83 a4 3c 10 c7 99 3d 63 5e b8 3d 05 85 b1 3d
       0.02008204 0.07508671 0.09002378 0.086679496
000010 34 78 05 3e 2c cf bb 3d d5 65 2d 3e d5 bf 48 3e
       0.13034135 0.09170374 0.16933377 0.19604428
000020 c4 ef 69 3e 73 6a 88 3e d7 8b 8e 3e 81 93 aa 3e
       0.2284537 0.26643714 0.27841064 0.33315662
000030 5c 6d bc 3e 81 34 c9 3e 6f 1d c8 3e 71 16 e7 3e
       0.36802185 0.3929787 0.39084956 0.4513431
000040 51 12 f4 3e a6 b1 03 3f 70 2d 0c 3f e6 16 13 3f
       0.47670224 0.51442945 0.5475683 0.57456815
000050 f5 54 23 3f 34 d8 28 3f 96 93 2f 3f 49 04 38 3f
       0.6380151 0.659549 0.68584573 0.7188154
000060 25 36 43 3f e3 d3 46 3f 3a 33 7e 3f 7d 65 7d 3f
       0.76254493 0.77667063 0.99296916 0.98982984
000070 4e 1a 7d 3f 06 00 80 3f 04 00 80 3f 7a 06 80 3f
       0.9886826 1.0000007 1.0000005 1.0001976

distance_expansion.betas f4 [32]
000000 89 c7 81 43 9c c5 81 43 a8 d1 81 43 5f ce 81 43
       259.55887 259.54382 259.63794 259.61227
000010 11 be 81 43 aa c0 81 43 a5 b7 81 43 69 b4 81 43
       259.4849 259.5052 259.43472 259.40945
000020 16 b4 81 43 a7 b6 81 43 ad b3 81 43 5f b6 81 43
       259.40692 259.42697 259.40372 259.42477
000030 fb b6 81 43 88 b2 81 43 be ad 81 43 58 b5 81 43
       259.42953 259.39478 259.35736 259.41675
000040 73 b5 81 43 e4 b7 81 43 a8 b8 81 43 85 b7 81 43
       259.41757 259.43665 259.44263 259.43375
000050 cd ba 81 43 e2 ba 81 43 22 bc 81 43 6c bc 81 43
       259.45938 259.46002 259.4698 259.47205
000060 ec bc 81 43 5d bd 81 43 60 b0 81 43 2b b2 81 43
       259.47595 259.4794 259.37793 259.39194
000070 30 b5 81 43 f3 b8 81 43 95 bb 81 43 08 be 81 43
       259.41553 259.44492 259.46548 259.48462

pre_layers.0.weight f4 [64, 100]
000000 3f 52 8d bd 2a c4 9c 3d 75 81 0b bd c4 3b 4d 3d
       -0.06900453 0.07654603 -0.034059007 0.050105825
000010 be 14 5d bd c3 0f ca 3d 96 32 a8 bd 99 45 bd bd
       -0.05397486 0.098662876 -0.082127735 -0.0924179
000020 41 ed bb 3d cb bd 3e bd 8d 82 7f bd 6c af 05 bc
       0.09176112 -0.04656772 -0.062380362 -0.0081595
000030 21 1f 31 bd a3 97 59 bd 7e 9a 81 bd 84 6f b1 bd
       -0.043242577 -0.053123128 -0.06328295 -0.08663848
000040 91 78 e2 3d 83 2e d9 3d cb 86 8d bd 8c aa bb 3d
       0.110581525 0.106045745 -0.06910475 0.091633886
000050 3a b3 b9 3d 79 be 16 bd c5 4a 28 3c fd 8c 6e 3c
       0.09067388 -0.036802743 0.010271733 0.014559981
000060 5a 08 b9 bd ed 2e 8e 3c e3 2b 8d bd 97 30 a0 3d
       -0.09034796 0.01735636 -0.06893136 0.07821768
000070 8a 59 61 bc 2d 34 4c 3d c4 76 0f 3d df c7 af 3d
       -0.013754258 0.049854446 0.035025373 0.08583044
000080 8c 89 6d 3c 3c b4 10 3d c9 5c a5 3d c0 17 56 bd
       0.014498126 0.035328135 0.08074338 -0.052268744
000090 4b 9b 26 bd ef 61 e5 3d 61 63 c4 bc 0d ad 12 3d
       -0.040675443 0.1120032 -0.023973169 0.035809565
0000a0 a3 94 30 bd b1 6f 81 bd 8c 85 ab bd 9a a0 b3 3c
       -0.0431105 -0.063201316 -0.083750814 0.021927167
0000b0 83 22 82 3c 79 b8 4c bd da 81 97 bd ef 3d 34 3d
       0.015885597 -0.049980614 -0.07397814 0.044004377
0000c0 9b 88 94 3d 2b f4 5b bc 00 9a 91 3d b1 e2 cd bd
       0.07252618 -0.013424913 0.07109451 -0.100530036
0000d0 a6 09 c8 3d 32 4f 3b 3d c4 ab 69 bd 17 32 94 bd
       0.09767465 0.045729823 -0.057048574 -0.072361164
0000e0 a2 ea 11 bd f4 a7 cb 3c a5 2f 17 3d d0 a0 6d bd
       -0.035624154 0.02486036 0.03691067 -0.05801469
0000f0 83 52 90 3d 86 40 e7 bc 60 e7 07 bc ec 80 ba bd
       0.07046988 -0.02822901 -0.00829491 -0.09106621
000100 33 1e ae 3b 9e 1a 9d bd 2a 87 fb 3c d1 b7 f7 bc
       0.0053136586 -0.076710925 0.0307041 -0.030239018
000110 85 8b 9e bd 03 00 82 3b f1 8e 31 bd b5 48 11 3e
       -0.07741455 0.0039672866 -0.04334921 0.14187892
000120 ab 60 6e bc 09 36 43 bd b5 fc fa 3c b5 1d c6 bb
       -0.014549415 -0.047658954 0.030638078 -0.006046022
000130 7d 59 bf bc 36 ac 91 bd bd d7 98 3d 54 e0 c4 bd
       -0.023358101 -0.07112925 0.07463024 -0.096131
000140 55 a5 9d bd 29 46 d5 3d ef 77 8b 3d ab 9e 91 bc
       -0.0769755 0.104137726 0.06809985 -0.017775854
000150 4e b6 5c 3d 8d f0 bb bd 6c bd 8c 3c 19 9f 70 3d
       0.053884797 -0.09176741 0.017180167 0.058745477
000160 2a 4f 5a bd 38 bc 2a bd c5 20 91 bd af 74 9b bd
       -0.053298153 -0.041683406 -0.070863284 -0.07590615
000170 60 c8 95 bd 82 cd 7f 3d 98 6f c4 bd 0e 48 11 bd
       -0.07313609 0.062451847 -0.09591597 -0.035469107
000180 b3 c7 42 3c e7 3c 35 bb 42 11 dc bd 0b 09 c8 bd
       0.011888432 -0.0027654709 -0.10745479 -0.0976735
000190 e7 df 4c 3d 4d a5 de 3c b3 73 4d bc fc 5e 6a bd
       0.050018217 0.02717843 -0.012539792 -0.05721949
0001a0 ca e9 97 bd 82 eb 50 3c 02 a8 d7 3d b9 e0 04 be
       -0.074176386 0.012751462 0.10530092 -0.1297635
0001b0 f3 aa d8 bd 8e f5 b5 3d cc e0 50 3d 22 b8 a9 3d
       -0.10579481 0.088847265 0.050995633 0.08287074
0001c0 52 00 be bd e9 6b 9f 3d e4 b8 67 3d 76 50 52 bd
       -0.09277405 0.07784254 0.05657281 -0.051346265
0001d0 1e 5d aa 3d 76 dc 86 bd 35 cb 97 3d 15 da ce 3d
       0.08318542 -0.06585018 0.074118055 0.101001896
0001e0 f4 62 75 3c dd 61 11 3c ef 6f 34 bd 50 29 9a bd
       0.014977206 0.00887343 -0.04405206 -0.07527411
0001f0 4b d1 7e 3d 4d 82 cf 3b 60 99 ac 3d 3b 7b 0c 3d
       0.062211316 0.0063326717 0.084276915 0.03429721
000200 57 c4 a6 3b 75 78 56 bc 1e 1a b4 bd cc 87 e6 bd
       0.0050893235 -0.013090243 -0.08794044 -0.1125637
000210 82 7b a3 bb 1f d9 aa bd 6d 94 b2 3d 0c 47 e5 3c
       -0.0049890885 -0.08342194 0.08719716 0.02798798
000220 b1 b3 32 3d 9a 5a b3 3c 78 ee 51 bc 71 be a4 3c
       0.0436284 0.021893788 -0.012813203 0.02011034
000230 14 fb 47 3d e1 cd 80 bb f7 ee 6c bc f1 d0 b2 bd
       0.04882343 -0.0039307927 -0.0144612705 -0.08731259
000240 b8 48 c6 3c f8 a8 14 bd 3a 49 86 bd 16 c2 23 3c
       0.024204597 -0.036293954 -0.065569356 0.009995004
000250 2c 22 26 3d 06 85 f0 3b 63 81 55 3d e8 c6 1b 3c
       0.040559933 0.0073400764 0.052125346 0.009507872
000260 73 25 0d bc d3 43 6c bd fd 6d 85 3d 38 9f 8c bb
       -0.008614886 -0.05768187 0.06515119 -0.0042914413
000270 6a ef 31 3d 69 b3 97 bd 66 5d 1d bb 8c 93 23 bb
       0.043441214 -0.07407267 -0.0024011969 -0.002495977
000280 b4 67 d9 bd b5 17 0a 3d 46 51 b9 3a cf cd 11 bc
       -0.10615483 0.033714015 0.0014138601 -0.008899166
000290 d9 e0 88 bd d9 f0 a1 bd 9f b8 92 3d 2c ab 3b bd
       -0.06683511 -0.07907266 0.0716412 -0.04581754
0002a0 6e ec 8b 3d 40 4b 2c 3c 64 81 45 ba f7 47 c4 3c
       0.06832205 0.010515988 -0.00075342343 0.023960097
0002b0 80 54 46 bd 5b 35 0a 3e 68 b1 c7 3d 92 c4 63 bd
       -0.04842043 0.13496916 0.097506344 -0.055607386
0002c0 6b fa 00 3d f3 bd 02 bd c3 2f 75 3d 32 b7 ee bc
       0.031488817 -0.03191943 0.059860002 -0.029140089
0002d0 b4 5e 3e bd 86 44 81 3d 1a f2 6e bd 28 8a 7c bd
       -0.046477035 0.06311898 -0.058336355 -0.061655194
0002e0 c0 1a d5 bd 2c 5b e7 3d 5e c9 33 bd 49 d5 63 bd
       -0.10405493 0.112966865 -0.04389321 -0.055623326
0002f0 9c 20 8a 3d 78 78 84 bd 73 9c 2c bd bc 4b 91 bd
       0.06744501 -0.0646829 -0.04214139 -0.07094523
000300 18 b4 76 bc 9c ca 96 3d 9f 02 18 3d ad 03 8e bd
       -0.015057586 0.073628634 0.037111875 -0.06934295
000310 09 0f 34 bd ec a6 5b 3c 49 26 76 3d d7 26 e8 3b
       -0.04395965 0.0134064965 0.060095105 0.007084708
000320 15 c5 8f 3d 3c ad ac bd 60 ce 94 bd 3a 3f f2 3a
       0.07020012 -0.08431479 -0.072659254 0.0018481978
000330 bf 19 0c bd f1 dd 70 3d da 87 08 3d dd 97 9c 3c
       -0.03420424 0.05880541 0.033332683 0.019115383
000340 fc 12 60 bd fc 54 18 bd 89 1d 74 bd 88 43 47 bd
       -0.054705605 -0.037190422 -0.05959848 -0.048648387
000350 22 93 91 bb 43 a3 4e bd f5 4c f0 bc f4 fb bd 3c
       -0.0044425884 -0.050448667 -0.029333571 0.02319143
000360 1c 9a 25 3d b7 2f 74 bb 53 f0 a1 3d 8a ac 86 3d
       0.040430173 -0.0037259886 0.07907166 0.06575878
000370 95 5a 11 bd 01 ef 1a 3b 09 3f 95 bc 6d 84 c5 bd
       -0.035486776 0.0023640993 -0.018218534 -0.09644399
000380 8c 0b c1 3d 84 1b 11 3d f0 24 ae bb ef 8c 75 bd
       0.094260305 0.03542663 -0.005314462 -0.059948858
000390 bc b6 84 bd b6 90 26 bc 90 32 50 bd 4e 93 b5 bd
       -0.06480166 -0.010166338 -0.05082947 -0.08865987
0003a0 96 dc 92 bc 27 f9 91 3d 7f 46 ab bd c7 27 a1 bd
       -0.01792745 0.071276 -0.083630554 -0.07868915
0003b0 04 0b 4b bd 70 64 99 bd b6 d8 00 bd 58 cf 47 bd
       -0.049571052 -0.0748986 -0.03145667 -0.048781723
0003c0 41 a5 fa ba 9a a8 2d bd 8a a8 2e bd c8 39 e0 bd
       -0.0019122736 -0.04239712 -0.0426412 -0.10948521
0003d0 0e bc 71 3c 65 dc 19 bb b6 dd 44 3d 9e 55 0a be
       0.014754308 -0.0023477313 0.048063003 -0.13509223
0003e0 92 97 77 3c fd 96 4f 3d 6d 14 b1 3a 26 6a 88 bd
       0.015111821 0.050681103 0.0013510116 -0.06660871
0003f0 fb 0a fe 3c 9e 84 d6 3c 4a a9 f4 bc 40 74 85 3b
       0.031011095 0.026186284 -0.02986588 0.004072696

pre_layers.0.bias f4 [64]
000000 52 af 05 bc 4b 47 48 3d b1 2d 6a bd ca 7b 8a 3d
       -0.008159475 0.048896115 -0.05717248 0.06761892
000010 f8 b1 b3 3d 3b 2f 81 3d ac e2 c7 bd c8 0a db 3d
       0.08774179 0.063078366 -0.09760031 0.10695416
000020 7f 56 c9 3d 09 5f af 3d cb a3 68 3c d1 a7 92 bd
       0.09830951 0.085630484 0.014199208 -0.07160915
000030 f9 98 d5 bd 9d 07 19 bd 6b f7 6a bd f8 93 bd 3c
       -0.10429568 -0.037360776 -0.057364862 0.023141846
000040 16 75 28 3d 6a 08 af bc bf 4d f9 bd ca df a1 bd
       0.041127287 -0.021366317 -0.12173032 -0.079040125
000050 72 e1 69 bc 43 2f 1b 3b 47 75 0b 3d 7c 50 1b bd
       -0.014274942 0.0023679293 0.03404739 -0.037918553
000060 9f 76 58 bd 63 bb c5 3c 4f 87 a8 3d e5 aa a0 bd
       -0.0528475 0.024137205 0.08228933 -0.078450955
000070 86 eb dc 3c 71 51 f3 3c 1c 8e 43 bd 7e c4 d3 3d
       0.026967775 0.02970192 -0.047742948 0.10340212
000080 32 9a 8b bc 05 39 a5 bd a9 ea e7 bc 41 a3 ed 3b
       -0.0170413 -0.08067516 -0.028310137 0.0072521274
000090 2f b7 37 bd 0a 69 9d bc 57 eb 7d bd 99 cf cd 3d
       -0.044852432 -0.019215126 -0.061992016 0.10049362
0000a0 34 d6 3f bc ea 89 a0 bd 82 4a 38 bd af e1 68 bd
       -0.011708785 -0.07838805 -0.04499293 -0.056855854
0000b0 36 f9 ef 3d 8e 82 c2 bd 1e 3e 83 3d 0a 35 89 3d
       0.11717455 -0.094975576 0.06408332 0.066995695
0000c0 e7 b6 87 bd ca b5 03 3d 7f e4 bf 3d a2 fe ae bd
       -0.06626683 0.03215579 0.09369754 -0.08544661
0000d0 70 06 a2 bc 89 78 93 bd 94 e1 7f 3c eb a4 82 bb
       -0.01977846 -0.07200725 0.015617747 -0.003986945
0000e0 9b 0d 1f bd a9 c2 95 bc f9 e6 b0 3c 39 94 7f 3d
       -0.038831335 -0.018281298 0.021594511 0.062397216
0000f0 fa 05 62 bd 0c bb 02 3d c6 15 79 bd b2 bd 9b 3d
       -0.05518148 0.031916663 -0.06081178 0.07604541

post_layers.0.weight f4 [64, 64]
000000 11 3b dd 3d 4c 5a d8 3b f5 e0 e2 bd 3b c6 41 bd
       0.10802282 0.006602561 -0.110780634 -0.047308188
000010 2a d7 0e be 7d 09 06 ba c1 58 32 3d 5d 5a 41 3d
       -0.13949266 -0.0005113108 0.043541674 0.047205318
000020 ca c9 18 bc 37 2b 06 be 30 10 95 3c 34 bf 9a bd
       -0.009325454 -0.13102423 0.018196195 -0.07556
000030 a5 da e5 3d d0 68 d5 3d a4 68 ac 3d 10 a7 c9 3b
       0.11223344 0.10420382 0.08418396 0.0061539486
000040 d1 a9 23 bd 96 5f 8d 3d f3 0d a1 bd c8 28 ab 3d
       -0.03995687 0.06902997 -0.07863989 0.08357388
000050 5f a5 04 3e 58 8e 03 bd d8 5e 92 bc c8 b6 c8 bd
       0.12953709 -0.03211817 -0.01786749 -0.09800488
000060 e4 98 95 bd cd ff ed 3d 71 e1 d4 bc 62 f4 f9 bd
       -0.07304552 0.11621056 -0.025986405 -0.122048154
000070 5b c6 89 3d 96 7d c5 3d 6a 1c 6a 3d d4 19 8a bd
       0.067272864 0.09643094 0.057156004 -0.067432076
000080 e7 5b bc 3c 43 1d 59 bd 72 59 be 3d ff 20 09 bc
       0.022993041 -0.05300642 0.09294404 -0.008369683
000090 da ba c6 3d cb cf 96 bd 12 96 1a 3c 82 4e 13 3d
       0.09703608 -0.07363852 0.009435194 0.035963543
0000a0 5f 87 b5 3d e9 23 0c bd 1a 4e 16 bd 97 fe 03 3c
       0.088637106 -0.034213934 -0.036695577 0.008056304
0000b0 66 af 0b be 51 a8 6a 3c f3 6f ea 3d 31 91 00 3d
       -0.13641128 0.014322356 0.11447134 0.031388465
0000c0 e6 ba f1 bd 70 7f 07 be 64 ac 48 3c bf 1b d2 bd
       -0.11803226 -0.13232207 0.012248132 -0.102591984
0000d0 b7 af bd 3d ab f5 01 3e 59 a8 b7 bc b0 8c 99 3c
       0.092620306 0.12691371 -0.022419142 0.018743843
0000e0 ad dd d4 3d e8 8e 9f 3d 4f b3 15 3c e7 df f0 3d
       0.10393844 0.07790929 0.009136989 0.11761456
0000f0 8b f4 f6 bd d4 e9 b3 3b d7 12 8f 3d 05 de c2 3d
       -0.120583616 0.005490521 0.06986015 0.09515003
000100 83 21 fe 3c 06 78 e0 3d b1 3a ba bd 8d 30 8f bc
       0.031021839 0.10960393 -0.09093226 -0.017479206
000110 44 95 d0 3d 70 32 83 3d f6 f4 09 bc 59 df 34 bc
       0.1018472 0.064061046 -0.00842022 -0.011039578
000120 a7 56 92 bd 0c f9 61 bc 5f a4 ae 3d 3e b7 8e bd
       -0.07145434 -0.013792288 0.08527445 -0.069685444
000130 5e cf 17 3e 7d 48 09 be 51 83 3a be 89 34 58 bd
       0.14825198 -0.13406558 -0.18214156 -0.052784476
000140 2b e5 9a bc 72 06 70 3c 9a b0 c1 bd cc e6 93 3d
       -0.018908104 0.014649974 -0.09457512 0.072217554
000150 8f e1 80 3d 16 a3 c0 3d ab 79 c3 3d 28 f8 eb bd
       0.06293022 0.09406106 0.09544691 -0.115219414
000160 c2 a0 cb 3d ab 09 75 3d 52 53 d8 bd 4c ca e4 bd
       0.099427715 0.059823673 -0.10562767 -0.111713976
000170 c0 e3 15 3e ac 2a 71 3d 03 3f 62 bc 39 80 2f 3d
       0.14637661 0.058878586 -0.0138089685 0.042846892
000180 68 ad a1 3d c4 49 84 3d eb 74 f4 3d c4 6a 8e 3d
       0.07894403 0.06459382 0.11936363 0.06953958
000190 8b be fe 3c ea 31 0c 3e 2f 53 f3 3d 99 eb da 3d
       0.031096717 0.13690916 0.118811004 0.10689468
0001a0 f8 66 0f 3d 59 f3 80 bd 2c 1a 6d 3d 3b 3b bf bd
       0.035010308 -0.06296415 0.057886288 -0.09337469
0001b0 7e 57 11 bd 45 ba 77 3d 34 92 29 3d bf ea 61 3d
       -0.03548383 0.060480375 0.041399196 0.055155512
0001c0 da 1b f6 bd fc 9b e0 bd 19 c1 c5 3d 59 b8 48 3d
       -0.12017031 -0.10967252 0.09655971 0.049003933
0001d0 2a 04 e7 bd f9 bb 0c 3d a2 ff dd bc 1f ee 5d bd
       -0.11280091 0.034358952 -0.027099434 -0.054182168
0001e0 93 d0 37 bc 35 cf 00 3e 15 a7 df 3d 91 c5 b8 3d
       -0.011219162 0.12579043 0.1092054 0.09022058
0001f0 c0 c3 01 bd fd 29 ce 3d 9e 50 c2 bd cd 51 0b be
       -0.031680822 0.100666024 -0.09488033 -0.13605423
000200 9c 9c e1 bd 71 a5 0f be d2 2b 03 bd fc bf f4 3b
       -0.11016199 -0.14027955 -0.032024212 0.0074691754
000210 1a 73 11 bc ea 03 f6 bc 09 6a bf 3c 5e 48 d2 3d
       -0.00887754 -0.030031163 0.023365991 0.10267709
000220 60 bd 05 be 41 59 52 bd 83 8b 9d 3d 8c 34 a9 3d
       -0.13060522 -0.05135465 0.076926254 0.08261976
000230 7a 3f 45 3c 27 a8 54 bc 1f 22 ff bd d1 a8 ec 3d
       0.01203906 -0.012979544 -0.1245768 0.11555637
000240 c7 1d e7 b8 0e e2 5d 3d 60 5c d8 bd a4 58 29 3c
       -0.00011020485 0.05417066 -0.10564494 0.010336075
000250 c7 4a 27 3c ce 0b 11 be ba c8 6e 3c b4 ff 64 bd
       0.010210699 -0.1416466 0.014574224 -0.05590792
000260 a1 9e c7 bd 8a 18 4f 3c 5c 37 a3 3d 16 70 6d bd
       -0.09747053 0.012640128 0.07969543 -0.05796822
000270 c3 90 b3 bd ad 61 a1 bd 32 14 26 bd 04 a1 17 be
       -0.087678455 -0.07879958 -0.040546604 -0.14807516
000280 30 45 42 bd 2f 85 b0 bd bb d5 9d bd 4a 2d 9c bd
       -0.047429264 -0.08619153 -0.077067815 -0.07625826
000290 47 b2 c4 3d f7 ad b8 bd 56 81 a3 3d 72 ea 96 bd
       0.09604316 -0.09017556 0.07983653 -0.07368936
0002a0 9b 7c d1 3d 32 a7 a7 bd 08 e0 da 3d 08 f9 2c bd
       0.10228845 -0.08186187 0.10687262 -0.042229682
0002b0 38 a6 90 3d 6f f4 a8 bc 32 fe b8 bd a8 96 01 3e
       0.07062954 -0.020624368 -0.09032859 0.12655127
0002c0 ef 62 d2 bd 63 ea e7 3d 62 84 f1 3d bb 85 e2 bd
       -0.10272776 0.113240026 0.11792828 -0.11060663
0002d0 ef cd a4 bd 48 b9 43 bd ef 72 17 bd e5 e9 f9 3b
       -0.08047091 -0.04778412 -0.036974844 0.0076267594
0002e0 46 2b ca bd 6a 7b 73 bd 6b a6 ed 3d 38 f2 e8 3d
       -0.09871535 -0.05944387 0.11604007 0.113743246
0002f0 28 95 ee bd ee 9b 69 b9 1b fd aa bd 8d 69 26 3d
       -0.11649543 -0.000222787 -0.08349057 0.040628005
000300 5a ea 39 bd 65 25 91 bd 1f 3f 0a be a3 f7 ba bc
       -0.04538951 -0.070872106 -0.13500641 -0.02282316
000310 d6 d6 01 3c 3f 36 4a 3c ca 2a be 3d f6 89 0b bd
       0.007924756 0.012342035 0.09285505 -0.034067117
000320 52 16 1b be 24 87 b0 3d a9 fd bd 3d 1c 19 d2 3d
       -0.15145233 0.08619526 0.092768975 0.102586955
000330 b7 b1 1c 3c ef 12 d6 3d 99 92 f8 bd a1 89 89 3d
       0.009563855 0.1045283 -0.12137336 0.06715704
000340 38 95 2e 3d 89 65 97 bd 7e b7 42 3d 83 53 9a bd
       0.042622775 -0.07392413 0.047538273 -0.0753546
000350 72 aa 82 3d 70 dd aa bc 2d 65 dc 3d 0a 39 b9 3d
       0.06380166 -0.020857543 0.10761485 0.090440825
000360 6b de 1c 3c 53 b5 d3 bd fa 73 d0 3d 2d 4a 90 3d
       0.009574513 -0.10337319 0.10178371 0.07045398
000370 71 3e 17 3e 9b 4b d1 3d 5e 49 36 bd c5 df 1b bd
       0.14769913 0.10219499 -0.044503562 -0.0380552
000380 f5 5d 0e be 5e 53 c1 3d bb ff 1a bd 06 45 ef 3b
       -0.1390303 0.09439729 -0.03784154 0.0073019294
000390 cd 24 76 bd 05 a7 2b bd 66 e8 43 bd 4f 16 0a 3e
       -0.06009369 -0.04190733 -0.047829054 0.13485073
0003a0 c1 8b 39 bd ee 6a e8 bd 1c 63 81 bd e4 14 d4 3d
       -0.045299295 -0.1134852 -0.06317732 0.10355547
0003b0 04 ef 07 be b8 de 41 3d d6 4a bd bd aa 69 57 bd
       -0.13274771 0.04733154 -0.092427894 -0.052591003
0003c0 9f 98 d2 3d 7d 9f d1 3d e4 ab 4e 3d 71 f8 53 bc
       0.102830164 0.10235498 0.050456896 -0.012937651
0003d0 83 22 89 3d 52 bc 0c be 7b 5a 0d be a4 0c 0d bd
       0.06696036 -0.13743713 -0.13804047 -0.034435883
0003e0 f3 ef f4 3c 46 1a 65 bd 43 b3 a8 3d 10 77 74 bd
       0.029899573 -0.05593326 0.082373165 -0.05968386
0003f0 69 41 b6 bd 85 eb 69 bc a8 85 b0 bd 9f a7 42 3d
       -0.08899195 -0.014277344 -0.08619243 0.047523137

post_layers.0.bias f4 [64]
000000 1d 6c 5b bd 13 a2 f5 3d fe 6b 25 3e db b1 75 bd
       -0.0535699 0.11993804 0.16154477 -0.05998407
000010 f5 20 12 3e b8 8e 26 bd 80 36 2c be 89 ee ea 3d
       0.14270385 -0.04066345 -0.16817665 0.11471278
000020 c2 c0 e7 bc 44 29 05 3e d9 c8 a9 bd dd b3 a5 bc
       -0.028290156 0.13004023 -0.08290262 -0.020227367
000030 8b 0c 46 bc bc 57 71 bd bd b1 f1 bd 32 f7 3c 3d
       -0.012087951 -0.05892156 -0.11801479 0.04613418
000040 8f cc 15 3c a1 44 02 bd 55 57 80 bd 0a e0 d0 3d
       0.009143009 -0.03180373 -0.06266657 0.10198982
000050 47 1f e4 3d 23 07 a7 bd 43 5f 3b 3c 9a 39 12 3e
       0.11138778 -0.08155658 0.011436286 0.14279786
000060 aa 01 c4 bd 92 d4 11 3c 13 92 26 3d d7 73 07 3d
       -0.0957063 0.008900778 0.04066665 0.033069458
000070 31 f3 da 3d f4 cf b9 3b c6 d2 ba bd d5 c0 a3 bd
       0.10690916 0.005670542 -0.09122233 -0.07995764
000080 f5 27 d6 3d cc 1f 52 bd 7a ed b1 3d 8c ed 1a be
       0.1045684 -0.051299855 0.08687873 -0.1512968
000090 69 de 23 3e de 31 ff bd 70 bb f7 3c 50 36 e1 3d
       0.16002811 -0.12460683 0.030240744 0.109966874
0000a0 5c ab c1 3d 56 44 d5 3c 91 03 98 bd 3b 80 2c 3c
       0.09456512 0.026033562 -0.07422555 0.010528619
0000b0 5f e6 b8 3d 30 94 43 bd 29 0c 05 3d 2b 8f 89 bd
       0.09028315 -0.047748744 0.0324823 -0.0671676
0000c0 e0 64 36 bd 29 3d 8c 3d 5c bb f2 3d 71 06 01 be
       -0.044529796 0.06847603 0.11852142 -0.12600113
0000d0 55 fe cc 3d b7 45 bb 3d ac 86 3b bc c1 e8 18 bd
       0.100094475 0.091441564 -0.0114456825 -0.037331346
0000e0 7c 8d 5c bc 63 21 de 3d 7f 19 8d 3d a1 99 c3 bd
       -0.013461467 0.10846212 0.068896286 -0.09550787
0000f0 19 84 a9 3d c8 9d 6e 3d 33 fd e6 bc c9 8d 89 bd
       0.08277149 0.05825594 -0.028196907 -0.067164965

post_layers.1.weight f4 [64, 64]
000000 33 1f ed 3d 66 bc 0e bd fe c5 47 bc 05 2c a1 3d
       0.115782164 -0.03484764 -0.012193201 0.07869724
000010 92 9a 11 3e ae 6f e7 bc 0e 6e 04 be d1 7d b8 bd
       0.1421912 -0.028251495 -0.12932608 -0.090083726
000020 dc 17 6f bd 72 4c b2 3c d2 e8 8a bd 06 e0 01 3e
       -0.058372363 0.021764968 -0.06782688 0.12683114
000030 c9 5d b4 ba 5e 2f a3 3d f9 50 da 3d 17 63 02 be
       -0.001376086 0.07968019 0.106599756 -0.12733112
000040 a4 1a 32 bd 47 f1 3f 3d 4f 7c 81 bc b6 11 97 3c
       -0.043482438 0.04686096 -0.015806345 0.018441062
000050 de fd 10 3e e5 31 e2 3c d6 51 0d 3d 3d 2b ba 3d
       0.14159343 0.027611682 0.034501873 0.09090278
000060 9c 89 09 3e c5 69 ab bb 10 4c 01 3e f4 75 5f 3d
       0.134314 -0.0052311146 0.12626672 0.05455585
000070 1d b9 00 3e 57 1b 19 3e 47 3b 4e bd 79 10 a2 3c
       0.12570615 0.14951836 -0.0503495 0.019783245
000080 d2 a4 17 bd d0 1f bb bd 1f 17 00 3e c8 42 3a bd
       -0.03702242 -0.09136927 0.1250882 -0.045473844
000090 bc b0 91 bd ac 81 62 bd af a7 0d 3b fa 12 9f 3d
       -0.071137875 -0.055299446 0.002161484 0.07767291
0000a0 84 e5 7b 3c 82 ea 17 3d b5 70 a8 bd 13 53 80 3d
       0.015374545 0.03708888 -0.08224622 0.06265845
0000b0 d6 1e da bc cc 27 87 bd 83 1b 95 bd 49 1e e9 3d
       -0.026626032 -0.065993875 -0.07280638 0.113827296
0000c0 bd e2 8c 3d ae 07 c1 bd 0b 10 20 3e 97 b8 3e 3d
       0.068791844 -0.09425293 0.1563112 0.046562757
0000d0 4a a1 bb 3c c7 c4 b4 bd 06 37 d5 3d 78 8f 08 3e
       0.022904057 -0.08826595 0.104108855 0.13335979
0000e0 c1 34 b7 bc 21 85 03 bd d5 16 9a bc 99 aa d1 3d
       -0.022364022 -0.032109383 -0.018809715 0.10237617
0000f0 1e 96 90 bd 18 4d a4 3d f6 d5 f4 3d 28 88 99 bd
       -0.070598826 0.08022517 0.11954872 -0.07496673
000100 20 cb 22 bd 1f 0f 87 bd 2a 9e 58 bd 0e 97 29 bd
       -0.039744496 -0.06594681 -0.052885212 -0.041403823
000110 75 87 36 3d 62 a4 24 3d 5f 46 f3 bc 0e 93 89 3b
       0.044562776 0.04019583 -0.029696641 0.0041984385
000120 1f 92 0b bc f9 1d a2 3d a2 7b aa 3d 73 34 e3 3d
       -0.008518725 0.07915873 0.08324362 0.11093988
000130 87 55 be bc 00 ea b1 bd 8b 33 98 bd 0c b1 50 3d
       -0.023234142 -0.0868721 -0.07431706 0.050950095
000140 8f a0 ec 3b e6 73 48 be 49 a0 20 be 99 84 af bd
       0.0072212885 -0.19575462 -0.15686144 -0.08570213
000150 18 00 d1 bd a1 e8 d7 bd 8b 09 99 3c 41 7b e9 3d
       -0.10205096 -0.10542417 0.018681308 0.11400462
000160 fa b0 32 3d 2a 34 e5 bb 73 9a ea 3c 49 26 16 3e
       0.04362581 -0.006994744 0.0286381 0.14663042
000170 74 68 60 3d 84 de 20 3e bf a3 ff bc d6 37 c2 bd
       0.054787114 0.15709883 -0.03120601 -0.09483306
000180 9a 23 59 bd 43 74 05 3e 54 b5 b7 3d c0 16 c5 bd
       -0.053012468 0.13032632 0.089701325 -0.0962348
000190 b5 e8 0d bd 4c 12 19 bd 77 3c b0 bd 49 6a 1b 3e
       -0.034645755 -0.037370965 -0.08605283 0.15177263
0001a0 06 7b 9e 3d 50 f7 95 3d ba d0 30 bd 7f 92 13 bc
       0.077383086 0.07322562 -0.043167807 -0.009007095
0001b0 1f cf db 3c 1d 80 ff 3d c0 4f 23 3e 52 71 e5 bc
       0.026832161 0.124756075 0.15948391 -0.028008137
0001c0 fc c4 f1 3d 4c c8 2f be 33 35 07 bd 7c 81 b6 bd
       0.1180515 -0.17166251 -0.03300972 -0.08911416
0001d0 13 41 95 3d db fc 67 bd 51 e8 d4 bb b3 4e 21 3c
       0.072878025 -0.056637626 -0.006497421 0.0098454235
0001e0 b9 49 17 be 24 ce cb bd a7 e1 bc 3d b2 9b 08 3d
       -0.14774217 -0.099514276 0.09222727 0.033351608
0001f0 95 0f bb bd 6b 3d 8a bc da 38 81 3d 2f 20 f3 3b
       -0.091338314 -0.01687499 0.06309672 0.007419608
000200 f6 34 39 3d e3 07 ba bd 6d 43 1f bc 9d 54 1f 3c
       0.045216523 -0.090835355 -0.009720665 0.009724763
000210 eb 85 fa bc 48 9c 86 3d 00 49 19 bc 41 b4 fe 3d
       -0.030581435 0.06572777 -0.009355783 0.124367245
000220 a2 f0 57 ba 64 3e 0f 3e 5d 89 00 be 85 ae 02 3e
       -0.0008237456 0.13988644 -0.125524 0.12761886
000230 4f 1e 09 3d 19 9e e5 3d ff 29 be bd af 7e dc bc
       0.03347617 0.11211795 -0.09285354 -0.026915876
000240 f2 07 9d bd ed 2d c3 bd 1e 6e c0 3d 54 13 4d bc
       -0.07667531 -0.09530244 0.09396003 -0.012516815
000250 16 29 d3 3c 6d b0 e0 bc aa fe c8 3d 6d eb 08 3e
       0.025776427 -0.027427876 0.09814198 0.13371058
000260 8d 43 21 3c 90 ac b3 3d 50 35 08 3e 29 be 08 3d
       0.0098427655 0.08773148 0.13301587 0.033384476
000270 c0 a0 fa 3d e8 f8 ca bb 2e aa 70 bd 2c 3b 83 bd
       0.12237692 -0.0061942227 -0.058756046 -0.064077705
000280 cd ba c3 3d cd 72 e5 bd 7c 74 93 3d c6 c6 67 3d
       0.09557114 -0.11203537 0.07199952 0.05658605
000290 5b db 0e bc a5 d6 63 3d 4c 1f ea bd 7f 8a d0 bd
       -0.008719291 0.055624623 -0.11431751 -0.10182666
0002a0 63 46 d8 bc 62 88 e2 3c 74 4a 13 3e 0e eb a4 bd
       -0.02640075 0.027652923 0.1438387 -0.080526456
0002b0 45 b1 cf bc e3 78 1b bd a2 93 c3 bd e0 4b 0a 3e
       -0.025353083 -0.037957083 -0.09549643 0.13505507
0002c0 91 78 d7 bd 6c 96 36 3c 62 dd a1 3b 23 a6 e9 bb
       -0.10521043 0.011144262 0.004939721 -0.0071304007
0002d0 4b 72 91 bc 36 cd 4c bc 30 63 a0 bc 0e b6 63 bd
       -0.017754694 -0.012500098 -0.019578546 -0.055593543
0002e0 36 df b0 bc b2 69 ae 3c 4a bd 67 bd 42 3b 4a bd
       -0.02159081 0.021290634 -0.056577004 -0.04937292
0002f0 d7 23 ac bc f6 d8 92 bc be 2b 78 3c 63 5f 05 be
       -0.021013184 -0.01792572 0.015147148 -0.13024668
000300 37 69 af 3d d6 a4 3c bd 2a 51 86 3d b8 85 ff 3c
       0.0856499 -0.046055637 0.065584496 0.031191692
000310 1f 01 da 3d bb b8 f2 bd d4 78 e5 bd 2f 13 da 3d
       0.10644745 -0.11851641 -0.11204687 0.1064819
000320 ae 88 19 bd b9 4e d8 3c 24 d3 cd bd ab 6b 96 bd
       -0.037483864 0.026404725 -0.100500375 -0.07344755
000330 80 41 06 bd 30 dd f7 3d 1e d6 c5 bc e4 31 ac 3b
       -0.03277731 0.12102735 -0.02414995 0.005254971
000340 19 f9 bf bd 94 dc 20 bd 41 6e db bc d6 cb e8 3d
       -0.093736835 -0.03927286 -0.026785972 0.113670036
000350 e7 2d ca bd 03 b2 da 3c ac c4 dc bd 83 a3 f2 3d
       -0.098720364 0.02669621 -0.107797 0.11847594
000360 7c 03 da bc 0d eb 82 bd 90 a9 ad 3d 6a 16 87 bd
       -0.02661299 -0.06392489 0.08479607 -0.06596072
000370 90 31 f7 3d 0a 8d 9a bc b2 b0 c8 bd d7 57 b0 bd
       0.1207 -0.01886608 -0.09799327 -0.08610504
000380 7a de b3 3d 60 cb 13 bd 20 a1 86 3c 41 dc 1c 3b
       0.087826684 -0.036082625 0.016434252 0.0023934992
000390 a9 0d e8 3d 16 3b 14 be 17 20 93 bd 46 1e 80 3d
       0.113307305 -0.14475664 -0.07183855 0.06255774
0003a0 00 a8 c1 3d 0c 35 37 3d b6 1b 8e 3d aa 65 f8 bd
       0.094558716 0.044728324 0.06938879 -0.12128766
0003b0 e7 93 09 3e 00 f9 cc 3c e1 34 10 3e d5 3e d1 bd
       0.13435327 0.025021076 0.14082672 -0.102170624
0003c0 df aa 17 be c1 de 80 3d 4a 58 b8 3c 4f 9c c9 bd
       -0.14811276 0.06292487 0.022503037 -0.098442666
0003d0 f2 80 26 3d 79 1b 99 bd a2 cb 10 bb 87 d3 a4 3d
       0.040650316 -0.07475943 -0.002209403 0.08048158
0003e0 92 34 96 bd da 66 8a 3d 97 a7 ca bd 0e e9 e6 bd
       -0.07334246 0.06757899 -0.098952465 -0.112749204
0003f0 f3 27 2c bc 27 1c ab bd 16 cb 57 3c 29 81 3d bd
       -0.0105075715 -0.08354979 0.013170978 -0.046265755

post_layers.1.bias f4 [64]
000000 fb 66 b9 3d ae 5d 94 3d 4e a4 87 bd 28 73 bf 3d
       0.09052845 0.072444305 -0.066231355 0.09348136
000010 b2 d9 d4 bd e2 3a 15 3e 03 1e a5 3d 39 02 70 bd
       -0.103930846 0.14573243 0.08062365 -0.05859587
000020 22 b6 db bc 7d 31 b1 3d 62 68 63 3d 04 fa c9 3d
       -0.026820246 0.08652017 0.05551947 0.0986214
000030 c6 1a 06 bd ec 30 15 3d 85 48 4d 3d aa 50 b7 bd
       -0.032740377 0.03642361 0.05011799 -0.08950932
000040 f6 06 c9 3d 60 8f 0f 3a 99 4d 79 3d 68 6e f0 3d
       0.09815781 0.00054763816 0.06086502 0.11739808
000050 ac 28 b5 bc b2 5b 59 3d d8 df cd 3d d0 cc d1 bb
       -0.02211412 0.053065963 0.100524604 -0.0064025894
000060 80 68 a9 3d ed 51 06 be a4 a4 2d 3d 39 9f 16 3e
       0.08271885 -0.1311719 0.04239334 0.14709176
000070 c0 30 e9 3d e2 97 c5 3c 97 a6 92 3c 19 4d 00 3e
       0.113862514 0.024120275 0.017901702 0.1252941
000080 a8 82 f2 bd c4 30 6b bd f2 d4 ee bd b8 db b0 bd
       -0.11841327 -0.057419553 -0.1166171 -0.08635658
000090 a5 54 19 bc 1b 14 e5 bc 7d b5 f1 bc ac 4b 03 3e
       -0.00935856 -0.027963689 -0.029505486 0.12821835
0000a0 ea 1a 8a bc 5d 0d c2 bd 68 e8 ce bc 56 00 8d 3b
       -0.016858537 -0.09475205 -0.025257304 0.0043030186
0000b0 70 c3 d1 bd 65 55 f8 3c a8 07 ae bd a2 45 04 3d
       -0.10242355 0.030314157 -0.08497554 0.03229297
0000c0 d5 40 29 bd a6 18 30 3d f2 d3 ed bb 67 17 96 3d
       -0.041321594 0.042992257 -0.007257932 0.073286824
0000d0 63 88 00 3e 32 f7 6b bc 01 6e 1f bd f8 16 d2 bb
       0.12552027 -0.014402198 -0.038923267 -0.0064114295
0000e0 76 db 0a bd 29 56 33 3d ec fd 04 3e ba fa ae 3d
       -0.0339007 0.04378334 0.12987489 0.08543916
0000f0 e6 64 e1 3d 0c b9 25 bd e3 4e 5b bd ae f7 d3 bd
       0.11005573 -0.040459678 -0.05354203 -0.103499755

post_layers.2.weight f4 [64, 64]
000000 ca 4e aa 3d e0 44 d8 bb d3 17 d7 3d ef cd a2 bd
       0.08315809 -0.0066000074 0.10502591 -0.07949435
000010 bd a0 56 bd 4e ec eb bd 68 23 4e 3d 36 99 93 bc
       -0.052399386 -0.11519681 0.050326735 -0.018017393
000020 1c d8 6d 3d 1a 4d bd bd c4 d2 9c 3d d0 46 da b9
       0.058067426 -0.092432216 0.07657388 -0.0004163296
000030 d0 0e a2 3d 79 ac 00 be ad 32 84 bc 31 63 d0 3c
       0.079129815 -0.12565793 -0.016137445 0.025437923
000040 70 32 fa 3d 96 67 11 3e c5 97 a5 3d 2c 67 fa 3c
       0.122166514 0.14199671 0.08085588 0.030566774
000050 7a bd d3 bd 04 39 ac 3d e7 11 3a bd 72 9f ca bd
       -0.10338874 0.08409312 -0.04542723 -0.09893693
000060 d8 03 91 3d ab 3d 17 3d 88 dd 20 be ac 3f 0d bd
       0.07080811 0.036924046 -0.15709507 -0.03448455
000070 d2 d1 03 3e bf dd c0 bd 7a da ae bd 89 71 49 be
       0.12873009 -0.09417295 -0.08537765 -0.19672216
000080 99 0d 09 3e e4 84 41 3d e1 03 3a 3e c0 36 85 bb
       0.13384093 0.047245875 0.18165542 -0.0040653646
000090 ee ac 1e bd f8 a8 39 bc 4c 10 31 bd 58 74 37 bb
       -0.038739137 -0.011331789 -0.043228433 -0.002799293
0000a0 ca 04 39 be dc 78 51 bd 26 c6 57 3c 85 74 8d 3d
       -0.18068233 -0.05114065 0.013169801 0.0690699
0000b0 ab ef 45 bd b3 0e a9 bc 99 af ac bc fd d6 bd bc
       -0.04832427 -0.020636892 -0.021079825 -0.023173803
0000c0 d1 9e 2b 3d 57 b3 08 3e 6d 13 10 3e 4c e8 2a 3c
       0.041899506 0.13349663 0.1406991 0.01043136
0000d0 8e e9 b7 3d 90 7c 07 be bf 86 db bd 5b 40 8d bd
       0.08980094 -0.1323111 -0.1071906 -0.068970405
0000e0 ef 5f 8e 3c 44 f3 55 bd 9a 44 08 be 33 6e ab bd
       0.01737973 -0.05223395 -0.1330742 -0.08370628
0000f0 5e 3c f3 bd 7f 62 c0 3d 61 ac 9c 3c 23 83 85 be
       -0.118767485 0.09393787 0.019125165 -0.26076612
000100 66 dc 97 3c a1 19 b8 bb 09 1f 1b 3d fb bd 12 3d
       0.018537711 -0.0056182896 0.037871394 0.03582571
000110 6a 01 01 3c ec e0 cc 3d 75 79 b2 bb 89 d9 dc 3d
       0.007873872 0.10003838 -0.0054466077 0.10783679
000120 f9 a8 48 3d 68 ea d5 3d 0a 1d ff 3d 26 a0 8a 3d
       0.04898927 0.104451 0.12456711 0.06768827
000130 de 0d 3b be 27 90 38 3d 31 9e f1 3d d7 ac 89 3c
       -0.18267009 0.04505935 0.11797751 0.01680605
000140 21 ea 21 3e ff 0b 90 bd 8d e9 9b 3d fd 59 b0 3d
       0.1581197 -0.07033538 0.07612906 0.08610914
000150 c8 3a 22 3d e9 28 62 bd 83 4b bb bd 09 e3 cf 3d
       0.03960684 -0.055214796 -0.09145262 0.101507254
000160 4b 68 d8 bd 37 25 0a be fa 4a db 3d 0b 86 1f bd
       -0.10566767 -0.13490759 0.1070766 -0.038946193
000170 63 ab 5c bd 8f a2 b6 bc ef fd 65 3d ac ef 86 bd
       -0.053874385 -0.02229431 0.056150373 -0.065886825
000180 1a 40 39 3e f4 a3 f8 bb 3d 95 67 3e d4 60 eb bd
       0.18090859 -0.007587904 0.22615524 -0.11493078
000190 80 3b 3e 3d e6 a3 3a be 56 ac f0 3d c1 5f 64 bd
       0.046443462 -0.18226585 0.117516205 -0.05575538
0001a0 9b 50 8f bd d0 8c 15 bd c8 cd 0c 3e c7 3b 26 3d
       -0.06997796 -0.036511242 0.13750374 0.040584352
0001b0 15 18 54 bd 28 1e f6 3c c2 ba a5 bb 8e 71 cb bd
       -0.05178078 0.030043676 -0.0050576637 -0.09933768
0001c0 f1 cd 09 3e 0a 1c 87 bc 75 cf 8b 3d a3 e0 b7 bd
       0.13457467 -0.016492862 0.06826679 -0.08978393
0001d0 d1 7c d8 3d 24 5b eb 3d 27 46 88 3d 05 16 2f bc
       0.10570682 0.11491993 0.066540055 -0.010686402
0001e0 15 26 2f be 19 4d 1c 3e 3a dc c6 3c 30 95 93 3c
       -0.17104371 0.15263785 0.024274934 0.018015474
0001f0 ad 8c f1 bd 73 d3 09 3e 06 eb 97 bc 62 76 b4 3d
       -0.1179441 0.13459568 -0.018544685 0.08811642
000200 e1 ab 79 3d 9d de 05 3e f2 67 8b bd 36 39 82 bc
       0.060954932 0.13073201 -0.06806935 -0.01589642
000210 1b 97 36 bd 31 9c 37 bd b7 86 53 bd d7 9d b1 3d
       -0.0445777 -0.04482669 -0.051642146 0.08672684
000220 5b 13 8c bd 2e dc 99 bd b4 c6 d5 bc 79 4d a5 bc
       -0.06839629 -0.07512699 -0.026095726 -0.020178543
000230 49 f6 09 be ec 89 8b bb 2d bf 87 3c 77 00 8f bd
       -0.13472857 -0.004258385 0.016570652 -0.069825105
000240 63 17 33 3c f8 b3 c8 bd f5 db aa 3d b1 4a ce 3d
       0.010930869 -0.09799951 0.08342735 0.1007284
000250 6f 27 3c bd 6f a5 06 bc fc 69 c2 3d a0 6d c1 bd
       -0.045936044 -0.008218153 0.09492871 -0.094447374
000260 e0 8c 8d bd f3 e0 02 be a5 ed 8c 3d d9 6c 5f 3d
       -0.069116354 -0.12781124 0.068812646 0.054547165
000270 a2 88 61 bc 77 65 18 3d d1 02 b3 bb 7a d6 cc bc
       -0.013765486 0.03720614 -0.005462982 -0.025004614
000280 2d fb e0 3c 87 17 85 bc 70 15 d3 3d 52 20 81 bd
       0.02746352 -0.01624657 0.10306823 -0.06304993
000290 f4 af 86 3d b8 97 ae bd 8e 45 d6 3b bd 39 f2 3b
       0.06576529 -0.08525032 0.0065390533 0.007392137
0002a0 36 62 27 be d7 25 89 bd ad f7 e4 3d fb ff 34 3e
       -0.16346058 -0.066966705 0.11180053 0.17675774
0002b0 12 90 f7 bc 38 59 01 3d 80 e0 1c 3d db 7a 58 3c
       -0.030220065 0.031579226 0.038300037 0.013212885
0002c0 a0 4e 68 3d f0 ba 8e bd 9b f8 2c 3d 8b 71 59 3c
       0.056715608 -0.06969249 0.042229276 0.0132717
0002d0 39 80 f9 3d 8e 97 a5 3d 80 28 93 bc f2 9b ec bb
       0.1218266 0.080855474 -0.017963648 -0.0072207386
0002e0 fb 1e d1 bc 12 fe c5 bc c2 32 81 bd c7 4e 06 3e
       -0.025527468 -0.024169002 -0.063085094 0.13115989
0002f0 af 3f cd 3d 88 9a 91 bd 9e d8 1e be 4d 2d ad bd
       0.10021912 -0.071095526 -0.1551232 -0.08455906
000300 30 15 d7 bd 4e c7 26 bd 6f 88 80 bc c8 f8 92 bc
       -0.10502088 -0.040717416 -0.015690057 -0.017940894
000310 d8 30 ee 3c a1 ea 26 3d 59 0a fb 3d 01 51 c5 3d
       0.029076025 0.040751103 0.12257833 0.09634591
000320 39 af 0c 3e a9 5f 64 bd 6f 1e af bd 7d 3c f0 bd
       0.13738717 -0.05575529 -0.085507266 -0.11730287
000330 50 fe a3 3c ea 9f 01 3e a6 68 0a bd 04 2e 68 bd
       0.020018727 0.12658659 -0.033791207 -0.05668451
000340 02 a3 be 3c 33 df 00 3e 15 c0 a5 3d c9 c7 16 bd
       0.023271088 0.12585144 0.08093277 -0.036811624
000350 57 c2 59 bd 05 d6 0a bc ce 5f 30 be 48 8b bf 3d
       -0.053163853 -0.008473878 -0.17224047 0.09352738
000360 f1 71 8b bd 10 f3 00 3e 27 cb c0 bd ba 8e e1 bd
       -0.06808842 0.12592721 -0.09413748 -0.11013551
000370 c9 d4 ec 3d b5 1d 43 be 4e c6 8b bd e7 5a 40 bd
       0.11564023 -0.19054301 -0.06824933 -0.04696169
000380 98 28 26 be 95 97 54 bd 94 54 de bc da d9 e7 3d
       -0.16226423 -0.051902372 -0.02713994 0.11320849
000390 9b 29 0c be 08 e3 a3 bd 10 d7 93 3d 65 19 f6 3d
       -0.13687746 -0.08002287 0.07218754 0.12016562
0003a0 50 64 ef 3c d3 e8 29 3e 00 2c 5c bd bd 16 80 3c
       0.029222637 0.16592722 -0.0537529 0.015635842
0003b0 3e 17 87 bd a6 86 38 3d 4f 23 a2 bd 85 b4 9d 3d
       -0.0659623 0.045050286 -0.07916891 0.07700447
0003c0 b4 4b 3d be 66 6d 1d bd 7f 69 d1 bd b9 d2 06 bd
       -0.1848591 -0.03843441 -0.102252 -0.032915805
0003d0 74 1a 03 bd bb ef 9f bd d7 39 0b 3c 0c 52 e0 3d
       -0.03200765 -0.07809397 0.008497677 0.10953149
0003e0 66 79 4b bc dc f4 8a bd a5 bf 5d 3c 00 d9 b7 3d
       -0.01241908 -0.067849845 0.013534461 0.08976936
0003f0 69 df 0e be 3b 2f 1d be 7e 88 73 3d 64 5e 58 3d
       -0.13952412 -0.15350048 0.05945634 0.052824393

post_layers.2.bias f4 [64]
000000 d1 f2 de bd 0c c8 03 3e 61 38 88 3d 16 4c 89 bd
       -0.10886157 0.1286928 0.066513784 -0.06703965
000010 5a 78 d9 bd 9c b8 05 3d fa 80 4f bc d0 68 bd bd
       -0.10618658 0.03264676 -0.012665028 -0.09248507
000020 ae f0 0b 3e 01 46 93 3c 24 57 ad bd 25 d7 9e 3c
       0.13666031 0.017977716 -0.084638864 0.019389698
000030 23 fb a1 3c 24 5b de 3d 8a 6d 9d 3c aa 67 90 bd
       0.019773072 0.108572274 0.019217271 -0.07051022
000040 56 6d 28 3d 79 cc 93 bd 60 46 70 3d f5 4c 05 3e
       0.041119896 -0.072167344 0.058660865 0.13017638
000050 96 70 32 bd cb 46 46 3d 4f 63 ae 3d 05 ee e3 3c
       -0.0435644 0.048407357 0.08515035 0.027823457
000060 47 ce 2f 3d 24 de 3c 3d df 45 90 bd 22 2d c7 bd
       0.04292133 0.046110287 -0.07044577 -0.09725405
000070 42 60 67 bd d5 1c 56 bd de ce 1a 3d b7 3d 03 be
       -0.056488283 -0.05227359 0.03779494 -0.12816511
000080 95 28 60 bc ac c2 24 3d 4f 9d 81 bd 70 bd 08 3e
       -0.0136815505 0.040224716 -0.06328832 0.13353515
000090 e7 66 95 3d 4e 8e d6 3d 49 88 9a 3c 5c aa d6 3d
       0.07295018 0.10476361 0.018863814 0.10481712
0000a0 d2 a4 c1 bd af ce ed bc cf 68 95 3d 1f ee 08 3e
       -0.09455265 -0.029029218 0.07295381 0.13372086
0000b0 1f 98 34 bc ba 09 eb 3c f9 48 25 bd 93 87 f0 bc
       -0.011022597 0.028691161 -0.040352795 -0.029361522
0000c0 f4 8f 81 3c ef 53 b4 3c 5a b3 9d bd 4d cc 95 bd
       0.015815713 0.022012679 -0.07700224 -0.07314358
0000d0 44 f4 9a 3c f5 32 da 3d c8 7e 0c 3d dc 21 c3 3c
       0.018915303 0.106542505 0.034300596 0.023819856
0000e0 59 82 1f 3d 67 e2 54 3d 35 33 ae 3d 3a 17 a2 bd
       0.03894267 0.051973727 0.08505861 -0.07914586
0000f0 10 87 34 bc e5 b5 bc bd bc be a0 3d b9 3e c3 3c
       -0.01101853 -0.09214381 0.0784888 0.02383362

output_layer.weight f4 [1, 64]
000000 0c 6c 95 3e 23 b7 eb 3d 7c 9e 36 3d 0f 17 1b be
       0.29183996 0.1150954 0.044584736 -0.15145515
000010 60 ad 1a 3d 83 60 34 bd d6 b6 db 3d 02 13 39 3e
       0.037763 -0.044037353 0.107282326 0.18073657
000020 de 96 21 3d 70 60 4e 3d 2d bc 3e be ba c0 a2 be
       0.03945052 0.05038494 -0.18626471 -0.31787664
000030 d7 82 fd 3d 1f 84 27 be de 7a 7f be e4 be c7 3e
       0.12378471 -0.16358994 -0.24949214 0.39012825
000040 0f 02 0c 3e f6 94 86 3d 51 f6 fe bd 8c 31 2f 3d
       0.1367266 0.06571381 -0.12449325 0.04277186
000050 20 b9 11 3e eb 23 ba bd 28 e9 07 3e 86 31 21 bd
       0.14230776 -0.09088882 0.13272536 -0.03935387
000060 cc 99 b2 3d 8b 20 16 be 2e 17 2e be dc 3d 16 3e
       0.08720741 -0.14660852 -0.1700103 0.14672035
000070 30 43 80 be 1b 8b 22 be 71 c3 f5 3d 67 cd d9 bd
       -0.2505126 -0.15873377 0.12000168 -0.106348805
000080 b6 91 40 3d 45 0d f2 3d 7a e9 12 bd 47 51 b6 3d
       0.04701396 0.11818937 -0.03586719 0.08902221
000090 0e fb 3b 3d 2e d3 04 be e9 63 68 3d ee ac 85 bd
       0.04589372 -0.12971184 0.056735907 -0.06527124
0000a0 d7 47 3a 3e 6b db 12 be 34 44 fc 3d 87 47 ad 3d
       0.18191467 -0.14341514 0.12317696 0.084609084
0000b0 1a 6c f4 bd f1 e0 13 bd 2c 60 85 be 4e 37 65 3d
       -0.11934681 -0.036103193 -0.26049936 0.055960946
0000c0 a4 ad 1b 3e fb ec d4 3d 53 74 61 3d f3 8b 07 3e
       0.15202957 0.10396763 0.055042576 0.1323698
0000d0 c0 0b e1 3d c0 a4 f8 3d 15 ab 16 be 79 19 e1 bd
       0.10988569 0.121407986 -0.147137 -0.10991187
0000e0 3c d8 f1 3d f5 55 31 3d 27 dd 13 3e 50 e2 09 3e
       0.118088216 0.043294866 0.14439832 0.13465238
0000f0 ed b3 a0 3d cd db 8c 3e 69 b1 20 3d 49 16 0c be
       0.07846818 0.27511445 0.03923169 -0.13680376
