saved_models/2023-04-19_23-15-39/model.pth (torch, 292872 bytes, 28 tensors)

type_embedding.weight f4 [100, 100]
00000000: dcb4 c93d 019a c73e 4423 253e ae66 913f
00000010: 1042 d6be 6fda 713f 3309 8abe 9c4b 803f
00000020: c009 e2be 523b fa3d 6b4b 29bf d037 e33d
00000030: b437 9d3f 7a9c b2bf abe8 cbbf aa33 ba3f
00000040: 01a8 cebf b206 023e 02a1 163f d870 c7bf
00000050: 8e7d 82bf c6c4 153f 989c 823f 2621 103f
00000060: f8af a0be ee0e adbe 673f e5be 73d9 873f
00000070: fef9 4ebf 0959 90bf f9ab 883f 02ea 2ebf
00000080: 8f69 e03e f330 51bf 3a97 643e 7590 813f
00000090: b863 50bf f56d c6be 5abf 81bf 729c c33e
000000a0: 915b c63e 723f a4bf 19f4 803f de25 3cbf
000000b0: 1c85 793e 239b 5fbf 7963 1e3f edbe 883f
000000c0: 5742 e03e 091d 8a3f 4168 8b3f 6c1b 8d3f
000000d0: dc4c 543f 417e 0d3e 3099 a43e e0c4 6cbf
000000e0: 57f3 0740 0944 7cbf e5ab 3fbe 054f bb3d
000000f0: 8d53 92bf 6014 c23e c3ce d43e 99e5 67be
00000100: 2af9 363e 1089 eabf c53f 033f cd65 06c0
00000110: aa34 d23f a11c 263e 2629 923f 1e06 9cbf
00000120: fbdf 31bf 48a3 5e3f b125 57bf 5dd0 b3bd
00000130: 2047 91bf 93cb 8c3f ddef 2240 bf5b 163f
00000140: a2b4 ac3d 0e25 933f 55bb ba3f cb12 3b3e
00000150: 3b32 22be dcde bfbf b697 cfbe 0fa9 893f
00000160: 7eb1 083f 2e70 3cbe 58b0 e5bf d4dc 6c3e
00000170: f61f f43f e2e0 b7bf c076 22bf 9690 373f
00000180: 8eaa 13c0 c7ab 17bf 892a 193f 2063 6bbf
00000190: a30c 6f3f b58b 0740 e336 623f efaf 2dbf
000001a0: b7c9 94bf dd93 8b3e de6f b33f 9bb4 f93f
000001b0: e14d 923f 2fc3 35be df38 293f b508 943e
000001c0: 09e1 56bf 4146 3a3f 4f4d 56be 46d8 5e3e
000001d0: 24ef 36bf b0c3 c9bf 643c 8bbf a053 263f
000001e0: de29 9a3f afb4 7cbf 1d2e 7f3f ac1d f3be
000001f0: 702c 703f 746d 823d e0dc 903e 0766 12bf
00000200: f8b8 3abe d33c 6d3f 0da8 183f 6a39 633e
00000210: 1c90 9e3f ac4d cdbe 5e49 8c3e 889a 273f
00000220: 10a2 353f 5f1a 983f 43f2 2a3f 1057 41c0
00000230: 66e1 49bf e26c 81bf 5dc4 e1bf 1cd7 1e40
00000240: 48cf 8b3e 36ae 0c40 c568 87bf 8c44 1a3f
00000250: 519f c9bf 6003 e53e 9c5f cbbf a9e8 8e3f
00000260: 711b 283f cb2e a9be 908d 03bf fe86 713f
00000270: 3f1a 033c b5e5 973f 0e0a 79bf 1d03 02bf
00000280: 01ba ca3e 5214 87be ccd2 bb3f 3080 ca3e
00000290: 00ed 90bd f58c 773f 7764 033f f466 70be
000002a0: c7ee a8bf 4a57 8cbf 05cd 593f 096b c23e
000002b0: a308 813e 2b3f 86bf 0000 7f3f e89b 95bf
000002c0: 6c7b cd3f 4b96 1fbf aeca c8bd df04 163f
000002d0: b411 0fbe d82d 97bf f56f ab3e 4f8f 82bf
000002e0: 9ccd c7be c880 35bf 116f 373f ae93 2abf
000002f0: de76 c83e ab6c dbbd aeaf c6be ccb3 f2bd
00000300: e7da 643e e44e b23f 020a a6bd 2d8a 2c3f
00000310: 0192 f1bf f725 0fbf 16b1 51bf ed1b 8abf
00000320: 7186 5b3f e746 18bf 7ad2 6c3f 4f6f fcbe
00000330: c5a2 a3be 24da 493e ed10 3fbe 12e0 493f
00000340: 2dce ee3f 1a2a 3f3f 7248 46be d2d4 8a3e
00000350: 6120 253f 6136 783e 6e8e 8abd 9756 31bc
00000360: 6fe8 2cbe 2246 74be 3b25 23bf 3b0d 84bf
00000370: 2587 a73f 9aa2 ab3f 7e43 cf3f c1fb 92be
00000380: ec5d a8bd 1748 8cbf 3905 703f 9f36 8b3f
00000390: 0c84 e23f 2fd2 6e3d 5eb2 123f 92c9 d1be
000003a0: de95 64bf 4398 27bf 393e f93e f17a e83f
000003b0: 27e8 a1bf b73e dabb a689 61bf 5fac a1bf
000003c0: bdda c93d a1f1 17bf 3272 b5bd 9c65 4ebf
000003d0: 0125 593d d549 023c 9252 c8bd 138d bc3f
000003e0: 6410 06c0 cbd8 973e 4dc9 883f e40b e2be
000003f0: fb6b 8a3f fd45 bbbe 5e9d a83e 8ce1 debd
0.09848949 0.38984683 0.16126734 1.135946 -0.41847277 0.9447393 -0.26960143 1.0023074
-0.44148064 0.12218346 -0.66130704 0.1109463 1.2282624 -1.3954003 -1.593038 1.4547017
-1.6145021 0.12697867 0.5883943 -1.5581312 -1.0194566 0.5850338 1.0204039 0.5630058
-0.31384254 -0.33800453 -0.44774935 1.0613235 -0.8085021 -1.1277171 1.0677482 -0.6832582
0.43830535 -0.81715316 0.22323313 1.012221 -0.8140216 -0.38755766 -1.0136521 0.38205296
0.38741735 -1.2831862 1.0074493 -0.7349528 0.24367183 -0.87346095 0.61870533 1.0683266
0.43800613 1.0790111 1.0891191 1.1023993 0.8292978 0.13817693 0.32148123 -0.9248791
2.1242273 -0.98541313 -0.18717916 0.09145931 -1.1431748 0.3790617 0.41563997 -0.22646178
0.17868486 -1.8323078 0.5126918 -2.0999634 1.6422322 0.16221859 1.1418808 -1.2189367
-0.6948239 0.869679 -0.8404189 -0.087799765 -1.1349831 1.0999626 2.54589 0.58733743
0.084328905 1.1495683 1.4588419 0.18268888 -0.15839474 -1.4989886 -0.40545434 1.0754718
0.5339583 -0.18402168 -1.7944441 0.23131114 1.9072254 -1.4365504 -0.6346245 0.71704996
-2.3072848 -0.59246486 0.5983053 -0.9194813 0.9337866 2.117902 0.88365 -0.6784658
-1.1624058 0.27261248 1.4018514 1.9508241 1.1430017 -0.17750238 0.66102403 0.28912893
-0.83937126 0.7276345 -0.20927928 0.2176219 -0.7145865 -1.5762844 -1.0877805 0.6497135
1.2044027 -0.987132 0.9967974 -0.47483575 0.93817806 0.06368533 0.28293514 -0.5718693
-0.18234622 0.92670935 0.59631425 0.2218987 1.2387729 -0.4009832 0.27399725 0.6547017
0.7095041 1.1883048 0.6677591 -3.0209389 -0.78859556 -1.0111353 -1.763805 2.4818792
0.2730658 2.198133 -1.0578848 0.60260844 -1.5751745 0.44729137 -1.5888553 1.1164752
0.6566687 -0.33043513 -0.5138788 0.94346607 0.008001863 1.1866976 -0.9728097 -0.50786
0.39595035 -0.2638269 1.4673705 0.39550924 -0.07076454 0.9669946 0.5132517 -0.23476774
-1.3197869 -1.0964139 0.8507846 0.37972286 0.25201902 -1.0488027 0.99609375 -1.1688204
1.605329 -0.62338704 -0.09804283 0.5860118 -0.13971597 -1.1810865 0.33483854 -1.0199984
-0.39024055 -0.7089963 0.7165385 -0.6663159 0.39153188 -0.10714086 -0.38805908 -0.118507
0.2234913 1.3930326 -0.081073776 0.6739834 -1.8872682 -0.55917305 -0.81910837 -1.0789772
0.85752016 -0.5948319 0.9250866 -0.49303672 -0.3196012 0.1971212 -0.186588 0.7885753
1.865667 0.74673617 -0.19363573 0.27115494 0.6450253 0.24239494 -0.067654476 -0.010823867
-0.16885541 -0.23854879 -0.63728684 -1.0316538 1.3088118 1.3408997 1.6192472 -0.28707698
-0.08221039 -1.09595 0.9375797 1.0876044 1.7696548 0.058305915 0.57303417 -0.40974098
-0.8929118 -0.6546671 0.48680285 1.8162519 -1.2648972 -0.006660308 -0.8810066 -1.2630728
0.09856174 -0.5935307 -0.08859672 -0.80623794 0.053013805 0.007952173 -0.09781374 1.4730552
-2.0947504 0.29657587 1.0686432 -0.44149697 1.0814203 -0.36576834 0.32932562 -0.108828634

distance_expansion.means f4 [32]
00000000: 958b 503d ba75 df3c 6ca4 be3d 5f95 ce3d
00000010: ced8 d03d 2933 0b3e 6de9 273e ebd9 3a3e
00000020: 6166 5e3e c652 843e 68e2 9e3e 647d a63e
00000030: 2151 ae3e a0cd bf3e 158a d13e cad2 d83e
00000040: 9154 ff3e 1829 f33e 5888 083f 4ef5 173f
00000050: 57c5 1a3f 329f 1e3f 2111 393f 4ea8 393f
00000060: 672f 403f 4c8f 543f 14d0 663f f5bd 7e3f
00000070: f8a3 783f 2efb 7f3f 52ff 7f3f 7300 803f
0.050914366 0.027277816 0.09308705 0.10087084 0.10197602 0.13593735 0.16397639 0.18247192
0.21718742 0.258444 0.3103211 0.3251754 0.3404627 0.37461567 0.4092566 0.4234832
0.49869207 0.4749229 0.53333044 0.5935868 0.60457367 0.6196166 0.7229176 0.7252244
0.7507233 0.83031154 0.9016125 0.995086 0.97125196 0.99992645 0.9999896 1.0000137

distance_expansion.betas f4 [32]
00000000: 4bba 8143 07be 8143 4eca 8143 27ce 8143
00000010: 0cce 8143 b2bc 8143 e1bb 8143 ccb9 8143
00000020: 0ab6 8143 2eb6 8143 fcb5 8143 75b4 8143
00000030: d6b2 8143 bcb4 8143 17b4 8143 88b3 8143
00000040: 69ba 8143 5cb3 8143 58b8 8143 dfbb 8143
00000050: 29bb 8143 47bb 8143 06be 8143 d1bd 8143
00000060: 11be 8143 ddbd 8143 3ab9 8143 b4b2 8143
00000070: 96b6 8143 22b9 8143 09bc 8143 eabd 8143
259.4554 259.4846 259.5805 259.61057 259.60974 259.47418 259.4678 259.45154
259.42218 259.42328 259.42175 259.40982 259.39716 259.412 259.40695 259.4026
259.45633 259.40125 259.4402 259.46774 259.4622 259.4631 259.48456 259.48294
259.4849 259.4833 259.44708 259.39612 259.42645 259.44635 259.46902 259.4837

pre_layers.0.weight f4 [64, 100]
00000000: 209f a23d f80f 58bd 74a6 53bd d78c 4c3d
00000010: 797b 08bd 1fce b93c add7 28bd e7b8 19bd
00000020: 1064 59bd fe27 903d 22b4 963c f8f3 fcbb
00000030: ca24 303d fa83 843d 8079 d43d 580b 913c
00000040: b54b 5b3d 83a6 1b3d 6fc6 a73d 5512 7fbd
00000050: f2ab 6fbd 7b70 85bd 6372 27bd e8df 6b3d
00000060: ff9a c4bd 27c8 703d d805 9abc 88a7 3fbc
00000070: 1b6e 9b3d bbf3 893d 0b7c b2bd 8304 b6bd
00000080: d155 d83c 06e5 8cbc e0b8 363c 4415 48bb
00000090: c2fd 02bd 76fb 84bd cf68 5cbd 389e d7bd
000000a0: 2ff5 b4b9 0f9f bc3d c992 a53c 4ab7 85bd
000000b0: 142e a8bd cf9e b53d 91ea 97bd 00b4 a1bc
000000c0: 23ee b1ba 38d8 c93d 3bc3 babd bd52 9abd
000000d0: 9b5d fa3c 16c4 b23d 4a23 47bd eea8 603d
000000e0: 321d 79bd 540b f6bd 220b 88bd e89c 2abd
000000f0: ab78 2ebd 966f 2f3d a4dc 9abd 367d 313d
00000100: f30f 88bd fe52 f73c fc76 a4bd 0242 dabc
00000110: 9385 d7bd ff23 95bb a07b 7a3b 3f7b 533d
00000120: b52a a8bd 922b 9d3c cb94 60bd 7d19 c33d
00000130: 154a a13d 6c2e 88bd 72e8 c4bd 58bf 12bd
00000140: adaa 52bc c59a f1bd 4a44 233d c60a 993d
00000150: 26ee 51bd a38f bbbc 778f 7bbd 7930 383d
00000160: 9e60 b9bd 77e6 1d3d f57c 5dbd a735 9f3d
00000170: 7438 4a3d 315c 56bd 5ef0 abbd c427 8e3c
00000180: 40e3 da3d 5b52 ff3b c49b 3bbd d6aa 9dbc
00000190: dfec fd3c 3828 b1bc 9da2 f8bc 40c1 b8bc
000001a0: cf72 403d 28a1 71bd 7bbc e0bd 271d 9ebd
000001b0: 97ac 963d ee05 583d 4541 35bd ff59 eb3d
000001c0: 558e 38bc 0dc8 3c3d aa43 fd3d 4128 35bd
000001d0: ca9d c0bd 126c 60bd f42b 4d3b 7083 b8bd
000001e0: 07bf b3bd fb6a b33c 40a9 4f3d bc0a a4bc
000001f0: 4f87 c93c cd41 07bd 35c5 a0bd bb6d 953c
00000200: 40c4 d2bd a0bc b2bd 2862 debc f24b f33d
00000210: f888 71bb 00a1 4dbc 6a48 023d ce51 0f3d
00000220: 098f 74bd f623 fb3b 2f05 08bc 3126 483d
00000230: a771 3d3d 550e abbd f4fb 8abd d1c0 a93c
00000240: f6eb 973d 2e92 bdbd 366a 523c 3ab6 cb3d
00000250: 0af5 343d b6e5 eb3c 9658 133d 88ea bd3a
00000260: 4736 7f3d 7884 8fbd b07a 123c efce b93d
00000270: 1e44 ba3d 4c29 843d 154d 273d fd0e eabc
00000280: ad9a b7bd b586 323d 346d 453d f635 743d
00000290: 9b81 abbd 4cc3 9dbd 44c5 b3bd e224 54bd
000002a0: f3c5 873c 6c0a bcbb 14b7 583b b829 34bd
000002b0: 5658 8a3c 4166 313b 0bf2 a5bc d04f 7e3d
000002c0: d959 0f3c 7a01 84bc c8c0 b4bd 696e cfbd
000002d0: 0432 963d d2c5 9fbc 92b4 38bd 3b3a ebbd
000002e0: f109 1d3d ec9a a63c e361 b33d 6324 913d
000002f0: 9f4c d23c 1004 d53c 3c44 a83d fe13 9fbc
00000300: 7a29 c7bc 3d26 53bd cf6a 5f3d 7cda 5d3a
00000310: cdaa 843b 0482 513d bc30 183d c752 a8bd
00000320: 50ee a33d 9606 b7bb c4c0 90bd 7823 213c
00000330: 5a56 1c3d 2b0d d4bc 559d ba3d e7c9 8e3d
00000340: 1ca8 c33d 4539 5ebc 7a49 abbd 0dd7 163d
00000350: ae01 803d 5190 713d 2411 823d dbcb 373c
00000360: da04 ba3b 36f9 153d 5338 bdbc 707f ae3d
00000370: 0789 803d 6593 d13c 92b4 d63c 4c16 dabd
00000380: 6bc2 b4bd e648 3d3d 7050 e9bd 75c2 9a3b
00000390: d16b cabc 468e 72bd bc83 acbd 4962 c6bb
000003a0: db16 0dbd 60ab 86bc 4e40 c3bd 0a97 78bd
000003b0: ea29 acbd d4e5 bf3d b4f8 d83c 2b36 8d3d
000003c0: ec5d b1bd da9c 3b3d f0a5 bb3d 46ef a33c
000003d0: 68a8 8abd ee62 173d 5c0f 673d 39b3 f8bb
000003e0: f1a3 b1bd 2c79 03bd 4432 023b 27f7 95bd
000003f0: 0c26 c2bd dbb8 433b 3674 00bd 241e 593d
0.07940507 -0.052749604 -0.051672414 0.049939003 -0.033320878 0.022681294 -0.04122131 -0.037529852
-0.053073943 0.07038878 0.01839644 -0.007719513 0.043003835 0.06470485 0.10374737 0.017705604
0.053538997 0.038000595 0.08192145 -0.062273342 -0.05851359 -0.065155946 -0.040880572 0.05758658
-0.09599876 0.05878463 -0.018801615 -0.011697657 0.0758936 0.06735941 -0.087150656 -0.08887579
0.026408108 -0.01719905 0.011152476 -0.0030530253 -0.031980284 -0.06493275 -0.05381089 -0.10528225
-0.0003451495 0.092100255 0.020211594 -0.065291 -0.08211914 0.08868181 -0.07417787 -0.019739151
-0.0013574999 0.098556936 -0.091192685 -0.07535312 0.030562213 0.08728807 -0.04861764 0.054848604
-0.06081886 -0.120138794 -0.066427484 -0.041653544 -0.042595547 0.042831026 -0.07561615 0.0433323
-0.06643667 0.030190941 -0.08030507 -0.026642803 -0.10523524 -0.00455141 0.003822066 0.05163121
-0.08211271 0.019185815 -0.0548294 0.09526346 0.07875458 -0.06649479 -0.09614648 -0.03582701
-0.012858075 -0.11797098 0.039860047 0.07472758 -0.051252507 -0.02289564 -0.061416116 0.044968102
-0.090516314 0.038549867 -0.054074246 0.07773905 0.049370244 -0.052334014 -0.08395456 0.017352946
0.10687876 0.0077918 -0.045802847 -0.0192465 0.030996738 -0.021625623 -0.030350978 -0.022553086
0.04698449 -0.05899158 -0.1097345 -0.07720404 0.07357138 0.05274003 -0.0442517 0.11491775
-0.011264403 0.04608922 0.123664215 -0.044227842 -0.09405096 -0.054790564 0.0031306716 -0.09009445
-0.0877667 0.021901598 0.05069852 -0.02002465 0.024600653 -0.033021737 -0.07850114 0.0182408
-0.10291338 -0.087273836 -0.027146414 0.1187972 -0.0036855321 -0.012550592 0.03180734 0.034990124
-0.05970672 0.007664199 -0.008302017 0.048864547 0.046250965 -0.08352343 -0.067863375 0.020721825
0.07418053 -0.09256397 0.0128427055 0.09946866 0.044179 0.028796058 0.035973154 0.0014489451
0.062307622 -0.07007688 0.008940384 0.090726726 0.090950236 0.06453189 0.040844996 -0.0285716
-0.08965049 0.043585498 0.048199847 0.059621774 -0.0837433 -0.077032655 -0.0877786 -0.051792987
0.016573882 -0.005738547 0.0033068107 -0.0439851 0.016887825 0.0027069005 -0.020257017 0.062087834
0.008749449 -0.016113985 -0.088258326 -0.10128481 0.073337585 -0.019503508 -0.04509408 -0.11485716
0.03833956 0.020337544 0.08758905 0.07087018 0.025671301 0.026002914 0.0821614 -0.019418713
-0.02431177 -0.05155014 0.05454522 0.00084630377 0.0040486814 0.051149383 0.03715585 -0.082189135
0.08004439 -0.005585502 -0.07068017 0.009835117 0.03816829 -0.025885185 0.0911204 0.069721036
0.09553549 -0.013563459 -0.08363624 0.036826182 0.062503204 0.05897552 0.063509256 0.0112180365
0.005676848 0.03661462 -0.023098147 0.085204005 0.06276136 0.025582979 0.02620915 -0.10648784
-0.08826145 0.0462121 -0.11392295 0.004722888 -0.024709614 -0.059217714 -0.08423564 -0.006054197
-0.034445625 -0.01643914 -0.095337495 -0.060690917 -0.08406432 0.09370008 0.026485778 0.06895097
-0.08660492 0.045803882 0.091625094 0.020011555 -0.06770402 0.03695958 0.056411132 -0.0075897244
-0.086738475 -0.03209798 0.0019866386 -0.07322531 -0.09479913 0.002986482 -0.031360827 0.05300726

pre_layers.0.bias f4 [64]
00000000: 8429 783d 321d 263d 7f5e 4e3d 6857 403c
00000010: 7af1 803d 3aaf 18bd 9e61 093a 275c 503d
00000020: 3b4b 4b3d 0e50 113d adbc 3ebd d5fb e63c
00000030: bd3f cbbd 8623 7f3d 61ba 5ebd e1db 673d
00000040: eee7 913d 64e5 2dbd 6530 a2bc 56ec 59bc
00000050: 8223 87bd 2ea2 eeba 16cd 09bd d9b7 83bd
00000060: c451 263c 6ac5 263d 1c0c d03d c510 b0bd
00000070: fe11 933d b6c8 2bbd ddc2 c6bd a1e4 a13a
00000080: 4806 eb3c 24f4 cabb 64e3 d63c 16cc c33d
00000090: f2f6 e5bb 0b3d 993d cd9f 9b3d 2310 843c
000000a0: c2c5 c6bc 11ab 793d 0b69 fd3d dd86 c33c
000000b0: 8b5c 41bd 20b2 da3c 63ae 50bc 31d8 8abd
000000c0: f0ce bd3c dabe 9b3d 4709 afbd fbfa 9c3d
000000d0: 65d8 983d bf1c 98bc 3a79 5bbd ca3a a7bc
000000e0: 494d 7f3d 4e12 afbc e76a afbd 061a 96bd
000000f0: 0840 713d fc95 38bc 8540 abbd a0d9 7e3d
0.060586467 0.040555187 0.050383087 0.011739589 0.06296058 -0.037276484 0.00052406813 0.050869133
0.049632292 0.035476737 -0.046566654 0.028196255 -0.099242665 0.062289737 -0.054376964 0.056606177
0.07124315 -0.042455092 -0.019798467 -0.013300976 -0.065985695 -0.0018206292 -0.03364285 -0.064315505
0.01015133 0.040715612 0.1015856 -0.085969485 0.07181166 -0.04193946 -0.09705136 0.0012351462
0.028689519 -0.0061936546 0.026231475 0.09560411 -0.0070179636 0.07482346 0.07598839 0.016120976
-0.02426422 0.060954157 0.12373551 0.023868019 -0.047207396 0.026696265 -0.0127368895 -0.067795165
0.023169965 0.076047614 -0.085466914 0.07665058 0.07463149 -0.018568395 -0.053582408 -0.020413775
0.062329564 -0.021371033 -0.08565312 -0.07329182 0.058898956 -0.011266228 -0.083619155 0.062219262

post_layers.0.weight f4 [64, 64]
00000000: 1c6b e93d 5c87 fd3c 94ce 00be 701d 893d
00000010: f34f 763d 0d58 853d 9e2b 1c3b eca7 b6bd
00000020: b131 51bd d41b d63d a37b 003d ec63 50bd
00000030: f4a5 2e3d c18a adbd 5871 e43c 4d90 f1bc
00000040: 5cc8 54bd 0f26 bcbd 43ab e2bd 8a8c 8dbd
00000050: fcfb f73d 7e25 babd 6560 093d abc5 2abd
00000060: 90e2 cc3d 12cc 7fbd 0f71 16bc 0c59 cd3d
00000070: 5cb9 a0bc d0a1 053e 2d17 bb3d bd40 83bc
00000080: 9d7d 923d eeb9 01be fc35 5f3d 86b8 c9bd
00000090: 3198 053e 2d4d 36bd abad 6f3c 18d6 913d
000000a0: 53e2 ddbd 744b 6dbd 98ba 913d b058 ab3d
000000b0: 7995 9b3d 18a8 e63c 96b7 23bd b326 d6bd
000000c0: 5403 48bd 21ff c8bd f0a9 ccbd c1f4 55bd
000000d0: 9ce2 9ebc 5b2e 193e 34b1 88bd f798 703d
000000e0: 5b2d e43d 3007 debd 9081 cc3d ae50 913d
000000f0: b658 14bd 8d76 d2bd efc7 9abc 355d 00bd
00000100: f6a6 483d 01fb 66bd f37c ef3d 3724 64bd
00000110: 4bf6 00bd e715 03be aca1 f63d 11d8 e13d
00000120: 2a4e f13d e019 6e3d e732 d13d 4233 1e3d
00000130: 9551 a43d 9995 e93d 09c9 c13d aa15 8b3d
00000140: 02ed d23d bd1f cf3c 42b4 b9bd a870 3c3d
00000150: 6423 17be b1b5 ef3d a544 13bc b4ca c5bd
00000160: e40f 823d 84cd f03d ca17 673c 4e36 abbd
00000170: fc78 1a3d d2e3 403d a69f 30bd 8fe1 f23c
00000180: 3c7a 803d 111e 0b3e 29d6 abbd 1af0 fc3c
00000190: 1340 9cbd f61d 01be 0b07 50bb abb5 cebd
000001a0: 6c88 a03d 791d 923d 69d8 d0bd 4efa f73d
000001b0: 7fd7 b13c 2b17 a43c 6e55 033e a222 93bd
000001c0: 13ea e83c 6add 21be 577d c63d d79f bd3d
000001d0: e071 16bc 3dcf 5c3d 9ee1 91bd 3005 a73d
000001e0: e389 dabc 32e6 4fbd 6237 f3bd 24a7 733d
000001f0: f5c3 ad38 9843 753d fe73 8c3c 1ec6 d73a
00000200: 4099 083e 84dd 4e3d 8434 c1bd 954f 8abd
00000210: 0bc9 87bc 56a4 843d 476b 903d 9b68 e2bd
00000220: 1739 113e 74a2 14be d73a d2bd 8358 a7bd
00000230: 749d babd ad66 e0bc dccf 97bd a2ba 103e
00000240: 437d 31bd c402 ff3c b460 2e3d 1d5d 033d
00000250: d3f0 e13d 91a7 bd3d c893 b83c de19 0bbe
00000260: ca86 523d 6c03 dabd 32aa bc3d c0dc cebd
00000270: 91b1 8a3c 2c2b 6bbd 3ae2 c53d fac8 c23d
00000280: 7c49 c5bc 547d c73d 85d2 f53d 1be9 93bd
00000290: d923 d43d 8949 e03d 95b3 f33a 10ba db3d
000002a0: 8a30 babd 5262 c33d 694d c2bd e8cd b4bb
000002b0: 8487 a9bd 7d86 44bd c1a8 9bbd 4d0d 523c
000002c0: d050 003e 3b6c 4a3d e9ad a6bd 3d4f cb3d
000002d0: 1c4a ac3d bd27 a5bd 3c3c f0bc 6988 aa3c
000002e0: 5f91 83bd 64e0 cfbd 7099 ad3d 9390 013e
000002f0: 44bb d53c 66ed ce3d a954 cebd 463b 28be
00000300: 0ad3 70bd d5c2 f53d b8d1 e93d c002 b5bd
00000310: ae45 16be d3d2 9cbd ad92 4b3d f997 86bd
00000320: c5fe 91bd 450f 99bd b851 b63d c66f de3c
00000330: d5c3 0e3c 14b4 a2bd 17c3 95bd 8774 c3bd
00000340: 0c14 63bd d194 00be 875e a7bd a5f5 02be
00000350: 8152 843c f2d1 493d 864e 2f3d e626 0dbe
00000360: e74b 8f3d 3584 663d 319a 9ebd 367d 9a3d
00000370: cd91 d33d ce15 43bd 31a1 6dbd 3768 dc3d
00000380: b43d 733d fe4b 823d 3ee3 9f3d 1c10 17be
00000390: a73a 0fbd 576b b8bc f7e6 8c3c acd5 0ebc
000003a0: a7c8 c23d 9c84 0fbb 612b f03d c779 d9bd
000003b0: 765c 06be cf03 4d3d fdad c73d 627a 0cbe
000003c0: 73da e43d 6ad9 513d d55f 47bd 6fea 06be
000003d0: d5a6 c23d 17cc a83d 3ef7 30bc e4df 72bd
000003e0: 8823 fcbc b3ee 8ebd 4a24 873d dc2f de3d
000003f0: d6ec 8ebd d4af 7ab9 cb18 bd3d c821 ce3c
0.113973826 0.030948333 -0.12578803 0.06695068 0.06013484 0.06510935 0.0023829709 -0.08918747
-0.05107278 0.104545265 0.03136791 -0.050876543 0.042638734 -0.08473731 0.027886078 -0.029487753
-0.05194889 -0.091869466 -0.11067822 -0.06911571 0.12108609 -0.09089182 0.033539195 -0.041692417
0.10004151 -0.062450476 -0.009182229 0.1002675 -0.019619636 0.13050008 0.0913528 -0.01602208
0.07152865 -0.12668583 0.054494843 -0.09849648 0.13046338 -0.044507194 0.014628808 0.07120913
-0.108341835 -0.057933286 0.07115668 0.08366525 0.07596869 0.028156325 -0.039970003 -0.104566
-0.0488313 -0.09814287 -0.099933505 -0.05223537 -0.019395165 0.1495909 -0.06674424 0.05873963
0.11141463 -0.10841215 0.099856496 0.070954666 -0.036217414 -0.10276518 -0.018894164 -0.03133889
0.04898735 -0.05639172 0.11693754 -0.0556986 -0.031484883 -0.12801324 0.12042555 0.110275395
0.11782487 0.058130145 0.10214787 0.038623102 0.08023373 0.114054866 0.094621725 0.067912415
0.10299112 0.025283689 -0.090675846 0.046005875 -0.14759594 0.11704577 -0.008988534 -0.09657803
0.06350687 0.11757949 0.014104793 -0.08359967 0.037713036 0.047092266 -0.043121003 0.02964857
0.06273314 0.13585688 -0.08390457 0.030876208 -0.07629409 -0.12609085 -0.003174248 -0.10093244
0.078385204 0.07134528 -0.10197527 0.12108289 0.021709202 0.020030579 0.12825558 -0.0718434
0.028431928 -0.15807119 0.096918754 0.09259003 -0.009182423 0.053908575 -0.07123111 0.08155286
-0.026677078 -0.05075664 -0.11875798 0.05948557 8.285783e-05 0.059878916 0.017145153 0.0016462242
0.1333971 0.050504223 -0.09433845 -0.0675346 -0.016575357 0.06476657 0.070517115 -0.11055108
0.14181934 -0.14515096 -0.10265129 -0.08171179 -0.09112063 -0.02739271 -0.07412693 0.14133695
-0.04333235 0.031129248 0.042572692 0.03207122 0.11032262 0.092604764 0.022531405 -0.13584086
0.051398076 -0.10645184 0.0921215 -0.101006985 0.016930373 -0.05741422 0.0966229 0.095109895
-0.024082892 0.09740701 0.12003044 -0.07222196 0.103584 0.10951526 0.0018592948 0.10728848
-0.09091289 0.095402375 -0.09487421 -0.00551771 -0.08277801 -0.04797982 -0.07600547 0.012820554
0.12530828 0.049419623 -0.081386395 0.09927223 0.08412573 -0.0806422 -0.029325597 0.020816999
-0.06424212 -0.10150221 0.084765315 0.12652807 0.026090272 0.10103874 -0.100747414 -0.16428861
-0.058795013 0.12000052 0.11416954 -0.08838415 -0.14675018 -0.07657399 0.049700428 -0.06571955
-0.071286716 -0.074736156 0.08902305 0.027152907 0.008713682 -0.079445034 -0.07312601 -0.0954371
-0.05543904 -0.12556769 -0.081723265 -0.12789018 0.016152622 0.049272485 0.042799495 -0.1378437
0.06996899 0.056278426 -0.077442534 0.07543413 0.10330544 -0.047628216 -0.058015052 0.10762065
0.059385017 0.063621506 0.07807015 -0.14752239 -0.034968045 -0.022512121 0.017199976 -0.0087179355
0.09510928 -0.002189911 0.11727024 -0.1061893 -0.13121209 0.05005246 0.097499825 -0.1371856
0.111744784 0.051232733 -0.048675377 -0.13175367 0.09504477 0.08242052 -0.010801135 -0.05929555
-0.030778661 -0.06979122 0.065987185 0.10848972 -0.069787666 -0.00023907359 0.092332445 0.025162593

post_layers.0.bias f4 [64]
00000000: cbd9 b73d 4da0 fd3d 1734 a4bb 6705 863c
00000010: f539 013c b26a e73d f3cb 013e b3ef fcbd
00000020: b1ce ce3d 16c5 cfbd 50de 98bd d562 413c
00000030: 2702 dfbc 2c5c 44bd 3fd9 c03d af66 f93d
00000040: 124b 38bd 3849 de3d da43 b03c 71f7 cfbc
00000050: c142 b6bd a435 103e c535 313d 605e 8a3d
00000060: 5219 a43c e1a8 463b 0880 8ebc 152d 83bd
00000070: 15a3 f43d 271e 8b3d 20d9 dabc ad3f 11bd
00000080: 98ad bebc 450f db3d c89a 923d 39af 3cbd
00000090: f065 fd3d a69a a1bd 0307 19bd 797a 033e
000000a0: f849 783d 6077 aabd 65f2 c4bc 5a51 363d
000000b0: 3551 92bd c045 483d c4e1 e73d 613b c5bc
000000c0: fb02 b6bc 5fb7 7ebc 701e 84bd d569 763d
000000d0: c943 123e 0415 213e 6619 5fbd 6b94 5b3d
000000e0: 150c cf3d d6bb 993d 6092 8fbd a34b 98bd
000000f0: f4ba cb3d 8501 743d 4393 adbd bb6a cebd
0.089770876 0.123840906 -0.0050110924 0.016359998 0.007887353 0.112996474 0.12675457 -0.123504065
0.10098017 -0.10145013 -0.07464278 0.011803349 -0.027222706 -0.047939464 0.094164364 0.121777885
-0.044993468 0.10853809 0.02151673 -0.025386544 -0.08899451 0.14082962 0.04326417 0.06756282
0.020031605 0.0030313062 -0.017395034 -0.06405083 0.11945168 0.067928605 -0.026714861 -0.035461117
-0.023276135 0.10696272 0.071584284 -0.046065543 0.12372959 -0.07890825 -0.037360203 0.12839688
0.060617417 -0.0832355 -0.024041364 0.044511177 -0.07144395 0.048894644 0.11322358 -0.024076166
-0.022218218 -0.015546649 -0.06451118 0.060159523 0.1428367 0.15730673 -0.05446758 0.05360834
0.10109726 0.0750653 -0.07010341 -0.074363016 0.09947768 0.05957176 -0.084753536 -0.10078951

post_layers.1.weight f4 [64, 64]
00000000: 1954 40bb cca7 f5bd 4f04 863c c384 863d
00000010: 6d43 d53d 27b2 183d 9dbb 783b d684 e53d
00000020: 165f 7e3d 0db3 083d 5285 9f3d 0115 173e
00000030: 484e 0e39 16b6 09be cbce 3a3b 917f d03d
00000040: 7bf3 d23d 5a88 82bd 2eae d73d 743e 8fbd
00000050: bd19 c83d 2368 ad3d df21 c43b 04c7 ca3c
00000060: 29f7 51be b587 373d 54f3 3f3d 2178 b53c
00000070: 6037 aebd e663 6abd 4247 b63d 7d79 debd
00000080: 7571 c23c 58fd f53d 7cfe 933d 8994 7f3d
00000090: 3db9 1e3d 4fa9 b73d bc66 babd c045 133d
000000a0: 46f3 27bd 5bfd 0cbe d281 dfbd 0e7e 5fbd
000000b0: e274 a23c 8130 053e 457d ff3c 7002 4e3d
000000c0: 5c48 acbd 84ad 803a e605 913d fd20 fdbb
000000d0: e07f 95ba d9c1 0fbe f71c 933d 338c 84bd
000000e0: e6d5 1abd 1bfe 9cbd ef54 703c 1d80 093e
000000f0: 2c94 c6bd 3814 c0bd 6e0a a33d 72aa c8bd
00000100: f65e 263d a0a6 e33b 5a36 76bc 0bbf a33c
00000110: 8fbf ea3d cfbf 99bd 6742 073e aee1 77bc
00000120: cc0f e73d c7b7 89bd d0bf d5bd 74d5 6e3d
00000130: 5fae b8bd 9241 82bd 5c26 cdbc 3a3b 1f3d
00000140: 481f 303d 911c ff3d b691 983d 8c19 9b3d
00000150: 37db 6e3d 36dd 703d c441 3ebd 4212 90bd
00000160: 53ae 903d d8d5 10bd 95f8 183c f686 0dbe
00000170: f61d f5ba 02b2 83bc 4180 8bbd d70f 97bc
00000180: a5fb 703d 02c4 ef3c b599 3c3d 3853 143d
00000190: 4ecd bcbd dc8f e7bd 48da c13d c70f 193d
000001a0: 1d1e 58bd ba89 6b3a 850d 25bd 1c3c 3d3b
000001b0: 0c80 acbd 5a1d acbd 10f5 743d e7c7 06be
000001c0: f5bc d03c 8513 cb3c 6e81 0c3d 9578 8e3b
000001d0: 529b 4a3d 9585 c03c 802f cdbd 1250 1b3c
000001e0: 7b45 8f3d 13e8 b33c e6c1 13bd 5438 8e3d
000001f0: 9399 013d 2bb0 693d b3fb bdbd 5e87 553c
00000200: b5f9 a73d 6fc3 c23d 1f2a 2d3d 1b68 053d
00000210: fdce 17bd 635d 92bd 54fd ed3d 83a8 85bb
00000220: a85c 503d 31e3 9cbd 2c74 c8bc fd01 103d
00000230: 71d0 fdbc 36ee 0b3e 5ed7 ed3d 4169 1c3e
00000240: 2543 893c f462 03bd 28e3 a03d 3da7 2c3d
00000250: fafe c33c f749 6fbd 98ce bcbd 442a a7bc
00000260: b2c8 763d d61a 02bc b9de a2bb 151f a2bd
00000270: c8ef 903d 7678 9abd be42 eb3d e2be 623c
00000280: dd79 943c 2136 8cbd 247c c33c a662 083e
00000290: fef8 143e 2574 abbd 7e6e 8bbd 178b 21bc
000002a0: d0a4 4ebd 16c7 833c 70a6 803d 5eec 693d
000002b0: f38a d63b 2436 1abe 1424 773c bb2b 1cbe
000002c0: 70fd 8f3d ac39 06bd 699d fc3d ad80 773d
000002d0: 77b9 66bd 49e0 22bc a25c c83d d5d5 a239
000002e0: 976e 40bd 5e39 973c 907b 66bd 3785 fc3d
000002f0: c5bb 81bd 92f7 74bd bbb5 8c3d d99a bfba
00000300: 0152 9b3d 29d5 453d e300 723b 9422 fb3d
00000310: a07c 55bb ca28 38bd be2b 2f3d 9aaa 1d3c
00000320: cc73 c03d 6ddc 8bbc 0e8d 8fbd 4d7a 77bd
00000330: ada5 fbbc 3045 d13d 5bb4 a4bd 0642 a3bd
00000340: 6d1a a23d a1eb c93d f3ad b33d 0050 3dbc
00000350: 56d4 fe3c f4a5 ec3d c861 eb3d 9b0c 7fbd
00000360: 0d5a 363d 02c5 3d3d 8c3b 1ebe 11fe abbd
00000370: 1b08 333c 9fdc 00bd 2ce5 a2bd 99c9 92bc
00000380: 15e4 823c 6072 a13d cb00 23bc cd3e ec3c
00000390: 46f9 4ebd 6fe1 9dbc 03be 903b af37 c9bd
000003a0: 5e89 583d 77d7 d4bd 5092 5cbc 76cd f83c
000003b0: 5fbb 0ebd baba d8bd e291 1a3e 8f97 6e3c
000003c0: 9e54 f13d bc21 efbc 62a5 a83c fdf8 913d
000003d0: 4c79 913d ad43 5c3d 1003 a73d 4f4b fe3c
000003e0: c12d f23d 8e6e 39bd 75a4 143e 1e00 75bc
000003f0: 1a0b 263d a12d f53c d6aa 70ba 7827 053d
-0.0029347 -0.11994895 0.016359476 0.06568291 0.10413251 0.037279274 0.0037953623 0.11206977
0.0621024 0.03337388 0.07789101 0.14754106 0.00013571337 -0.13448367 0.0028504606 0.10180581
0.103003465 -0.06373663 0.10531269 -0.06994334 0.09770534 0.08467128 0.005985483 0.024753101
-0.2050444 0.044807155 0.046862915 0.022152008 -0.08506656 -0.057224177 0.0890031 -0.10863016
0.023735741 0.12011212 0.072262734 0.062397514 0.038750876 0.0896784 -0.09101626 0.03595519
-0.041003488 -0.13768522 -0.10913433 -0.054563574 0.019831125 0.13006784 0.031187663 0.050295293
-0.08412239 0.0009817337 0.07081203 -0.00772488 -0.0011405908 -0.14038791 0.07183259 -0.064720534
-0.037801646 -0.07665654 0.014668687 0.13427778 -0.0969623 -0.093788564 0.07960974 -0.09798135
0.040617906 0.0069473535 -0.015027607 0.019988557 0.11462318 -0.07507288 0.13208924 -0.01512949
0.1128231 -0.06724506 -0.10436976 0.058309034 -0.09017634 -0.06360163 -0.025042705 0.038874842
0.042998582 0.124566205 0.07449667 0.07573232 0.05831453 0.058804713 -0.046449438 -0.070347324
0.070645 -0.035360187 0.00933661 -0.13821015 -0.0018700946 -0.016076092 -0.06811572 -0.01844017
0.058833737 0.029268268 0.046045024 0.036212176 -0.09218846 -0.11306736 0.09465462 0.037368562
-0.052763093 0.00089850614 -0.040296096 0.002887494 -0.084228605 -0.08404036 0.059804022 -0.13162194
0.025480727 0.024789581 0.03430312 0.0043478706 0.04946453 0.023501197 -0.100188255 0.0094795395
0.06995674 0.021961248 -0.036073588 0.069443375 0.0316406 0.057052772 -0.092765234 0.013032762
0.08201925 0.09509932 0.042276498 0.032569986 -0.037062634 -0.07146718 0.11620584 -0.004078926
0.050869614 -0.07660521 -0.024469458 0.035158146 -0.030983182 0.13665089 0.11613344 0.15274526
0.01675565 -0.03207679 0.078558266 0.04215168 0.023925293 -0.058420148 -0.09219092 -0.020405896
0.06024999 -0.0079409685 -0.0049703983 -0.07916085 0.07076985 -0.07542507 0.114873394 0.013839455
0.018124515 -0.06846262 0.023862906 0.13318881 0.14548108 -0.08371762 -0.06808184 -0.009859822
-0.050450146 0.016086143 0.062817454 0.057110183 0.0065473258 -0.15059716 0.015084285 -0.15251057
0.07030761 -0.032769844 0.12334711 0.06042545 -0.056329217 -0.009941169 0.09783293 0.00031058365
-0.046980467 0.018459972 -0.056270182 0.12330096 -0.06334642 -0.059806414 0.068706 -0.0014618292
0.075840004 0.04829899 0.0036926798 0.12262455 -0.0032575503 -0.044960774 0.042766325 0.009623194
0.093970865 -0.01707288 -0.07009326 -0.06041937 -0.030718649 0.102182746 -0.080422126 -0.07971577
0.079151966 0.09859396 0.087734126 -0.011554718 0.031107109 0.115550905 0.1149326 -0.06226788
0.044519473 0.04633046 -0.15452403 -0.08398069 0.010927225 -0.0314604 -0.07953867 -0.017918395
0.015977899 0.078831434 -0.0099489195 0.02883854 -0.050530694 -0.019272534 0.0044171824 -0.09825074
0.05286538 -0.10392659 -0.013462618 0.030371409 -0.03484666 -0.1058249 0.15094712 0.014562502
0.117837176 -0.02919089 0.020586673 0.07127569 0.07103214 0.05377548 0.08154881 0.03104177
0.11825133 -0.04527145 0.1451586 -0.014953641 0.04053793 0.029928984 -0.000918073 0.032508343

post_layers.1.bias f4 [64]
00000000: 692e 26bd 54bb 843c d15a d73d 830a b7bc
00000010: a4bf b3bd c370 0abd 7335 0b3e b57d fb3d
00000020: b8d8 0e3e d6c6 dc3d 62d8 623d 8666 9cbd
00000030: d1e3 173d ef2c 0a3e 722a 7cbd ae23 263d
00000040: 2a8e 15bd c8aa a33d 0118 58bb a133 663d
00000050: 3a1e 1dba 88e2 40bd 67cf 4cbd efd8 f83c
00000060: cba1 df3d da97 1dbd 0fdd e03b 104e 123e
00000070: 4644 ea3d 61d9 153d dba5 7e3d e630 063e
00000080: 6dc2 9c3d 253c 8b3d 8616 3a3d e19d 7c3d
00000090: 25db a6bd 6f9c d03d 67e5 923d 625a 9e3c
000000a0: 897f dfbd 49a6 d6bc f318 313d c54f a8bc
000000b0: a873 33bc 6d1f e63d c290 f73c a902 c43d
000000c0: c03f 573d f56f e93d 6635 c7bd 4bb7 f0bd
000000d0: bdc1 aebd a7e6 9d3d 833a d63c ac22 363d
000000e0: d2b5 c63d 58d3 8c3d 58f5 163e 5143 a5bc
000000f0: 65f0 583d db05 fc3c 2e61 0c3d 94b7 023e
-0.040571604 0.016202606 0.10515369 -0.02234388 -0.08776787 -0.033798944 0.13594608 0.12279836
0.13949859 0.107801124 0.05538214 -0.07636742 0.037082497 0.13493703 -0.061563917 0.04056137
-0.03651253 0.07991558 -0.0032973292 0.05620158 -0.0005993579 -0.047091037 -0.05000248 0.03037688
0.109195314 -0.038474895 0.0068622897 0.14287591 0.114388034 0.03658426 0.06216989 0.13104591
0.07654271 0.06798581 0.045431636 0.061674003 -0.08147267 0.10186087 0.07172661 0.019330207
-0.10912997 -0.026202338 0.043236684 -0.02054585 -0.010952868 0.11236463 0.030220393 0.0957082
0.05255103 0.11398307 -0.09726982 -0.1175371 -0.085330464 0.07710009 0.026150947 0.04446666
0.09702648 0.06876248 0.14742029 -0.0201737 0.052963633 0.03076451 0.034272365 0.12765342

post_layers.2.weight f4 [64, 64]
00000000: 4c73 83bc c994 d63d e416 0e3d faad d13d
00000010: 0f3c 1d3d a110 83be c6ce fa3d d40f e13b
00000020: 0285 383e 2707 993d fa26 d73d 3059 04be
00000030: 621b 16be 2fac e93c ead9 85bd 5899 ed3d
00000040: 3e20 a83c 4ef6 0f3e af89 073e b860 8a3d
00000050: 0f13 0dbe bc91 d93d cdd4 19be 4139 933c
00000060: 3e38 b6bd 80be 82bd 3572 c63d c1a5 883d
00000070: a79d 05bd 3eba 213e c88a b73d 6a17 1d3d
00000080: 270e 87bd b484 1dbd 875b 9d3d b386 65be
00000090: 9575 b33d dbec 923d d2fc d0bd 195a f439
000000a0: 8b0e e4bd 44c9 003d fea4 c63d 9649 49be
000000b0: b4cc 49bd dc63 8dbd feee 743c 1459 303d
000000c0: 8046 4b3d 9114 57bc 7354 203e d38a d6bd
000000d0: 810e 933d 8761 6e3d 598f 3bbc 8529 1d3e
000000e0: 4c0a a83d 2ba2 b5bd 0800 a23d 7b21 dbbd
000000f0: c6f3 d63d c259 a2bd 7736 59be 2d8f 843d
00000100: c9b2 85bd f172 523d a237 0a3e 415d a93d
00000110: 484b d1bd 400b 27be 0997 c9bd 2a86 adbb
00000120: 6004 043e ba87 093d cd5e ed3b 62d4 08be
00000130: c0bd 24be c5a9 ce3b 79a8 b9bc cc74 ccbd
00000140: 3296 91bd 9310 023e 9090 e738 82d9 8ebd
00000150: 9c20 0dbe 2895 42bd f90c 97bd 56df ccbd
00000160: b46f 833d 15b9 c2bc aade 3bbd bc37 a43c
00000170: 584b 013d 44e4 f13d a88a 1a3e 3354 dbbc
00000180: cc69 88bd 24dd 9dbd c6a6 873d 6bb7 30be
00000190: 5254 1c3d a6d4 d1bd 9240 de3b 92ae 91bc
000001a0: 6517 0cbe b17f 113e fe78 d33b b834 03be
000001b0: ad29 d83d 8a8a 0a3d 3797 8a3d f432 8c3b
000001c0: 7337 86bb 0531 993d 2084 2a3e 87c6 05bd
000001d0: b2c3 2d3d a3e0 f43d 7e1e 823c afb1 e53d
000001e0: 23e4 b6bc 0e0e c93c 62ca 81bc e8cd a53b
000001f0: e971 d13d ed38 df3c e31f 85be cfe1 aabc
00000200: 02f0 94bc a3d5 a83d 4d45 49bd 8385 023e
00000210: 83c2 10bc 2bc2 57be eb1a d5bd 073a a2bd
00000220: 849f 373e 9a2b 56bd c1dd bd3d a7a3 81bd
00000230: 8ba7 dc3c aeee c63d e874 3bbd 48ae d03c
00000240: a586 b23c 50ac ca3d bbbe f03d 3e8d 573c
00000250: bd47 51bd a09f e3bb ac01 d6bd 6552 c2bd
00000260: 2cdd 8dbc 0d87 083e 6a27 82bd d60e 523d
00000270: ec0b ae3d cfd0 023e 78ed 063e 722a cebd
00000280: db8b fd3d c7df 863d 8e16 4cbd ba57 a8bd
00000290: 86b4 c83d b5d0 a8bd 3549 ad3c dcbb b93d
000002a0: 2357 14bd ec06 813c 77cb 84bc d0dd 3abe
000002b0: ed78 b8bc affe 243e 39af f83d a008 1e3b
000002c0: f9e2 a73d 3b26 8b3d 9f3a 4e3d 3e25 cd3c
000002d0: 2c96 e23c ee2b 413d ffc1 dc3d 6ebf 103d
000002e0: 5fbb 703d d927 fd3d 95b6 603d 74a8 58bd
000002f0: b479 303e 18ca ba3c ec9b 6abe 35ee c7bb
00000300: cbc8 b33c 2d99 873c cbe3 f33d c781 8e3b
00000310: 94c3 d7bd a024 d9bd 286a 823b cdf8 1bbe
00000320: 34dc fb3d 8034 893d 4cf8 143e a39c 26be
00000330: 4929 a8bd 7cdf 0f3d 9d2f a43d 9560 61bc
00000340: e2b2 7a3d ea27 b4bb 514c 383a 8861 80bd
00000350: eefd c0bd 225e 48bd c0e9 32bd ddfa 05be
00000360: a3eb b73d 0b8b 023e eba2 04bc f983 aebd
00000370: d3cd b0bb 52aa bd3d 2445 be3d d25f 7dbd
00000380: d890 0bbd fa90 033e dd5d 933d 18d2 19be
00000390: 914c e73d 866a 083e cf04 b43d c626 cebd
000003a0: e883 d339 7850 923d 5c40 8d3d df0d a9bd
000003b0: f5e9 923d e1df 81bc 9a60 2a3e ddb5 82bc
000003c0: 4e42 9e3b 9aad b83d 400b a23d b519 7dbd
000003d0: cc64 113e 5425 413d 8b4f 983d 7294 af3d
000003e0: 4408 2b3e 2cfa 58bd 057c dd3d d34f cb3c
000003f0: 7df7 693c 85ac 593c 8a31 92be 0e38 c13d
-0.016046189 0.10477597 0.0346898 0.102382615 0.038387354 -0.25598624 0.1224647 0.006868342
0.18019488 0.07472067 0.10505481 -0.12924647 -0.14658883 0.028524486 -0.065357044 0.116015136
0.020523187 0.14058802 0.13236116 0.06756729 -0.13776802 0.106235 -0.15022583 0.017971637
-0.08897446 -0.06383991 0.09689752 0.0667224 -0.032621052 0.15793702 0.08962017 0.038352408
-0.06594496 -0.038456634 0.07683473 -0.22414665 0.08762661 0.07174083 -0.10204472 0.00046606435
-0.11135586 0.03144194 0.096994385 -0.19656977 -0.049267486 -0.06903812 0.014949558 0.0430537
0.04962778 -0.013127462 0.15657215 -0.10475697 0.07180501 0.058198478 -0.011447751 0.1534787
0.08205089 -0.08868822 0.07910162 -0.10699745 0.10495715 -0.07927276 -0.21212183 0.06472621
-0.06528241 0.051379148 0.13497785 0.0826974 -0.10219437 -0.16312885 -0.09843261 -0.0052955346
0.12892294 0.033576705 0.007243967 -0.13362268 -0.16088009 0.006306859 -0.022663342 -0.09983215
-0.071087256 0.12701635 0.00011041865 -0.0697508 -0.1378197 -0.047505528 -0.07375521 -0.100035354
0.0641779 -0.023769895 -0.045866646 0.020046107 0.031565994 0.11811116 0.15091956 -0.026773548
-0.06660804 -0.07708195 0.066236064 -0.17257468 0.03816635 -0.102456376 0.0067825997 -0.017783437
-0.136808 0.14208867 0.0064536324 -0.1281308 0.10554824 0.033823527 0.06767123 0.004278535
-0.0040959655 0.07480053 0.16651964 -0.032660034 0.042422958 0.119569086 0.01588368 0.11215531
-0.022325581 0.024542835 -0.015843574 0.0050599463 0.10226805 0.027248824 -0.2600089 -0.020859627
-0.01818085 0.08243873 -0.049138356 0.12746243 -0.008835438 -0.21070163 -0.10405525 -0.07921224
0.17931944 -0.052287675 0.09270812 -0.06330042 0.02693536 0.09713493 -0.045765787 0.025473729
0.02179272 0.09896147 0.11755129 0.013156233 -0.051093806 -0.006946519 -0.10449538 -0.09488372
-0.017317377 0.13332768 -0.06355174 0.05128368 0.08498368 0.12774967 0.13176525 -0.100666896
0.12380191 0.06585651 -0.049826197 -0.082198575 0.09800057 -0.08242933 0.021153072 0.090690345
-0.036215913 0.01575037 -0.0162103 -0.18248677 -0.0225186 0.16112779 0.12142796 0.0024114028
0.081975885 0.06794401 0.050348874 0.025042173 0.027659498 0.047161035 0.10779189 0.03533881
0.05877244 0.12361116 0.054861624 -0.052895024 0.17233926 0.022801444 -0.22911042 -0.0061013945
0.021946331 0.016552532 0.119086824 0.0043489668 -0.105353504 -0.10602689 0.00397994 -0.15231629
0.1229786 0.06699467 0.14547843 -0.1627069 -0.082109995 0.03512524 0.08016894 -0.013755937
0.061205752 -0.005497922 0.0007030415 -0.062686026 -0.09423433 -0.048917897 -0.043679953 -0.13083978
0.08980491 0.12748353 -0.008095483 -0.085212655 -0.00539563 0.09261002 0.09290531 -0.06185896
-0.03407368 0.12848273 0.071956374 -0.1502155 0.11293901 0.13321885 0.0878998 -0.10065989
0.00040343334 0.071442544 0.06897041 -0.08254599 0.0717353 -0.015853824 0.16638413 -0.01595586
0.0048296815 0.09017487 0.07912302 -0.061792094 0.14198607 0.04715474 0.074370466 0.085732356
0.16702372 -0.052972957 0.108146705 0.024818337 0.014280197 0.013285761 -0.2855342 0.0943452

post_layers.2.bias f4 [64]
00000000: 269f f7bc d36d 023e 9f6f 3cbd d8f6 0e3e
00000010: dd85 fc3d 1ea2 ae3d a518 29bd cdd0 8cbd
00000020: 1e56 92bd c07d 48bc a1f6 80bb 2754 e0bd
00000030: f0c2 3a3d 5609 9e3c 049b 91bc ca45 8cbd
00000040: 95a8 cabd 68b9 023d ffeb a03d 1d94 8e3d
00000050: b2ea 003d fdf4 7a3d f17c 153d b30a 4bbc
00000060: daad 873d 2d41 623d b3e9 8fbd 32e8 f83c
00000070: b985 dd3d fc16 30bd 5b77 f03d c056 e3bb
00000080: abb4 c23d 20a3 f5bd 6370 b13d 1871 f03d
00000090: e6f6 c13d 4bdc be3d 8776 dd3c addc 03be
000000a0: f002 043e 28b5 d2bd 9863 72bd 5e7b 793d
000000b0: b7dc debd 88a2 6c3d f969 0c3d 7b90 cabd
000000c0: 5efa 01bd 5291 a9bd bc58 f8bd fd6a bebc
000000d0: 20e3 62bd 3e4f 343d 0ba9 fa3c 5acb dd3d
000000e0: 175d 343b 9457 3f3c 6603 153e 3477 103e
000000f0: 388a b9bd c65a ffbd 0099 d53c 033e 323d
-0.030227255 0.12737207 -0.046004888 0.13961351 0.1233022 0.08527015 -0.04128327 -0.06875763
-0.07145332 -0.012237012 -0.0039356505 -0.10953551 0.045596063 0.019291561 -0.017774113 -0.06849249
-0.09895436 0.0319151 0.07857513 0.06961844 0.031473823 0.061268795 0.036496107 -0.012392688
0.066249564 0.055237938 -0.070269965 0.030384157 0.10816521 -0.04299067 0.11741515 -0.0069378316
0.09507116 -0.11994004 0.08664014 0.11740321 0.0947092 0.09319361 0.027034057 -0.1287715
0.12891746 -0.10288459 -0.05917701 0.060908668 -0.10881942 0.05777219 0.03428075 -0.09890839
-0.03173291 -0.08279671 -0.121263 -0.023244375 -0.055392385 0.044020884 0.030598184 0.10829802
0.0027521306 0.011678595 0.14552078 0.14107972 -0.09059566 -0.124684855 0.026073933 0.04351617

output_layer.weight f4 [1, 64]
00000000: e033 fd3d 1322 003e d6bd 973d 68f1 cb3d
00000010: 9d71 bd3d 3469 ffbc b92f c8bd 51f2 6e3e
00000020: 1646 0d3d 48eb acbd 42d0 253d f0f8 583d
00000030: ea97 6abe a6a9 6ebe b773 c63d 5fe5 123e
00000040: 3deb d73d cba2 e1bd b9e4 60bd 3bbf 65be
00000050: 105f 523d a3b5 e9bd b923 3f3d 43a1 033e
00000060: 83da c73d b2bd 3dbe 7aad 253e b374 5a3d
00000070: 4ecf ed3d 785d 913d 21d7 3f3d 802b 153d
00000080: 1d8c e0bd b61c 963b 6f04 953d f9c4 fb3d
00000090: 9693 18be b968 fcbc 306a 0a3e 3064 843d
000000a0: cf7c b63c 426b aabd 2861 84be 7881 ed3d
000000b0: 853f b8bd 042c 863d be59 07be fee0 693e
000000c0: 67e3 1cbe 2817 813d 8afa 23be 81bd 2a3d
000000d0: 5068 e43d 1e49 343d 05fe 08be 73e8 673d
000000e0: 328e 423e cb86 f33d d2c9 513d 33d8 7b3d
000000f0: 8d4b c1bd ee7f 1dbe 79b4 1a3e 4fd9 57be
0.1236341 0.12512998 0.07409255 0.09958154 0.09250186 -0.031178094 -0.097747274 0.23334624
0.034490667 -0.08443314 0.040481813 0.05297178 -0.22909513 -0.23306903 0.096900396 0.1434531
0.10542915 -0.110173784 -0.054905627 -0.2243623 0.05136019 -0.114115976 0.046664927 0.12854485
0.09758475 -0.18529394 0.16179457 0.05333395 0.11611806 0.07097906 0.046836022 0.036418438
-0.109642245 0.0045810593 0.07276236 0.12293429 -0.1490005 -0.030811654 0.1351707 0.06464422
0.02227631 -0.08321239 -0.25855374 0.1159696 -0.089964904 0.06551364 -0.13217828 0.22839734
-0.15321122 0.06303245 -0.16013542 0.04168463 0.111527085 0.044015042 -0.13378151 0.056618165
0.18999556 0.11890944 0.05121786 0.06148548 -0.09438238 -0.15380833 0.15107907 -0.2107899

gc_layers.0.lin_f.weight f4 [64, 160]
00000000: 95f7 dcbd 7ff8 85bd 4db8 5abd c9b1 053d
00000010: 738f 313d 313e 033d 1f39 53bd c812 57bd
00000020: 0961 683d d943 b8bd afa2 8b3d 5963 3e3c
00000030: a31b 0e3d 86e5 22bd f68f 24bd 8fa5 69bd
00000040: 8710 563c 8142 103d 8c03 b83d 4790 a6bb
00000050: 3dc4 d83d 47ff 50bd 6f56 30bd 42ed 49bd
00000060: f3cb 913d 83bc 013b 5b68 133d 5522 22bd
00000070: 84f0 2bbd ac7b 923d 5fd4 833d e160 51bd
00000080: 2f31 29bc 5571 2a3d f405 ce3b 4220 563d
00000090: e1b5 c23d bb70 4c3b 2dd8 803d b1b2 84bc
000000a0: b449 b43d 9c13 04bd 2517 093b d3b1 a63c
000000b0: 7903 a83d ffa4 753d 67e9 bb3d bcd4 09ba
000000c0: 1e57 a1bd 0122 0c3d a4e9 923c 8d17 aebb
000000d0: b176 623d d7aa 553d 654d 0abd 5970 26bc
000000e0: b064 5e3d 1b1b 693d 4a12 8b3d e0e4 0abd
000000f0: a296 5c3c 7413 693d 7348 ea3a c7dc a5bd
00000100: 296f 6d3c cddd 9f3c 1f23 2dbd 49c8 c23c
00000110: 7b7e 89bd 4a75 2abd efd7 613d 1d66 28bd
00000120: 5526 cb3b ce17 82bd df7b 703c f765 ac3d
00000130: d147 813c 4c6e 8a3b 1680 0bbd b9d1 da3c
00000140: 1aae 813d 99bf 563d c9e4 733d 0575 34bc
00000150: ea4c 38bc 1e68 8e3c d2e1 ad3d 449f b3b8
00000160: ccd5 16bd 1dac 783d 895a 5bbc 5bad dbbb
00000170: 80ba 04bc c329 36bd 2ca9 06bd 9368 89bd
00000180: 7238 cbbb 5c0b 923c 4b04 0abc c42a 7d3c
00000190: 0a3d 853d 97d2 9d3b 5e97 5abd 7ca0 0fbd
000001a0: b097 553d 3f78 a1bd 80b1 c5bd ac2a 1c3d
000001b0: 92d0 8b3d 3e21 4fbc caae c43d 7c4c b53d
000001c0: d549 e73c a7a4 1d3b 69fa 24bd 8955 0d3d
000001d0: 0133 35bd a3be 4a3d 3233 f33b 4da0 2bbd
000001e0: 8b50 053d a340 a53d f627 a7bd a271 343d
000001f0: 2214 633d b1c0 6abd d5e3 1d3d 4c6b 38bd
00000200: 35ab fd3c 4561 99bd 19da 3d3d 4de6 4a3c
00000210: f6b6 97bd c78a 39bd c6c5 8f3c 3356 c8bc
00000220: b8e2 ec3d 1c12 37bd 4297 64bd 0e14 a3bb
00000230: 062a 523d 7738 893d f516 82bd f22a c43c
00000240: 986d 003b 8d0c e23c 0b0e 99ba 4925 1d3d
00000250: 8f79 4ebb 2ba2 8b3b 6c57 90bd 91e1 043d
00000260: ae9a 8ebd d7a6 ce3b c9d2 d4bc e711 a3bc
00000270: 8127 b03d a23d 6a3d 9e7c b1bc e547 18bb
00000280: 29ad 693d f880 933d 6b3e f1bb 2f24 bebc
00000290: 5eba 8c3d dbb9 07bd 2860 3dbc 063e 913d
000002a0: 1195 9c3c 83c4 e43b 7f88 2fbd d45c 5b3d
000002b0: 29f5 bd3c f526 4ebd c0b8 813b a2d3 b5bd
000002c0: ad27 51bc aa19 c43b 2ece 8abd 1efc acbd
000002d0: a087 433c a92c c3bd fdbf 08bd b7a7 99bd
000002e0: ef22 1d3d 6b74 b6bc 3790 91bd 1f83 ba3c
000002f0: 6815 aabb b73a 9c3d 51a0 a43d da04 563c
00000300: 426b 203d bed9 ff3c 981d 263d c900 9ebc
00000310: 42c4 c7bd 1dba b83c a665 4bbd c906 29bd
00000320: e275 97bc ed0d 2b3d c720 55bd d012 803c
00000330: 02d1 38bd 19a0 11bd 22b1 933d 9667 933d
00000340: 5064 bebc bf12 2d3d 6e81 58bc 302f 5d3c
00000350: 2b8e c13d 2216 21bd 71f7 d3bc 0df2 933d
00000360: b218 3f3d 090d 8e3c 6364 773d 608a 1c3d
00000370: 7f17 38bd ac84 b2bd 037a debc a9d1 47bc
00000380: 2c95 353d 13de 2dbd 91a9 40bc c5dd 2c3c
00000390: 1d21 72bc 0dcd 2f3d aeeb 6bbd 2568 173d
000003a0: 8af8 3a3d a322 45bd 8228 a33d c38e 81ba
000003b0: e331 16bd bc73 aabc 32b3 b6bb e890 453d
000003c0: dbd4 61bc abf1 51bd 860e d03c 7cac 843c
000003d0: 2f9b 1cbd 82bb 8c38 dc76 47bd 48b5 e2bc
000003e0: 4c7c 573d 5031 943d 5fc0 b8bb 64cd 943d
000003f0: 6b99 c8bd 1689 873d 7be8 c5bc b6d5 52bd
-0.1078941 -0.065415375 -0.05339842 0.032640252 0.043349694 0.032041732 -0.051568147 -0.052508146
0.056733165 -0.08997316 0.06818139 0.011620366 0.034694325 -0.03976967 -0.040176354 -0.057042655
0.013065464 0.035219673 0.089850515 -0.005083117 0.105843045 -0.0510247 -0.04305118 -0.049298532
0.07118978 0.00197962 0.035988193 -0.039583523 -0.04197742 0.07152495 0.06436991 -0.05111778
-0.010326668 0.041611988 0.0062873308 0.052276857 0.09507347 0.0031195122 0.06291232 -0.016198488
0.0880312 -0.032245263 0.0020918336 0.020348465 0.08203787 0.059971806 0.09175377 -0.0005257835
-0.078779444 0.034212116 0.017933674 -0.005312866 0.055288974 0.05216488 -0.033765215 -0.010158622
0.05429524 0.056910615 0.06790598 -0.03390968 0.013463648 0.056903318 0.0017874375 -0.080987506
0.014491835 0.019514943 -0.042269822 0.023777144 -0.06713577 -0.04161576 0.05513757 -0.041113008
0.006199638 -0.06352197 0.014677971 0.08417886 0.015781315 0.004224574 -0.0340577 0.026711332
0.06332035 0.052428816 0.05954436 -0.011014228 -0.0112488065 0.017383631 0.084903374 -8.565051e-05
-0.036824986 0.060711015 -0.0133882845 -0.006704015 -0.008101106 -0.04447342 -0.03287618 -0.06709399
-0.006201797 0.017827682 -0.008423875 0.015452091 0.06505783 0.004816364 -0.05336701 -0.03506516
0.052146614 -0.07884263 -0.09652996 0.038126633 0.06826891 -0.012642203 0.09603651 0.08852479
0.028233448 0.002405444 -0.040277872 0.0345054 -0.044238094 0.04949821 0.0074218744 -0.04190092
0.032547515 0.08068969 -0.08161919 0.04405368 0.055439122 -0.05731267 0.038547356 -0.0450242
0.030965427 -0.07489256 0.046350572 0.01238401 -0.07407944 -0.045298364 0.01755036 -0.024455165
0.11566681 -0.044695005 -0.055808313 -0.004976756 0.051309608 0.06700223 -0.06352035 0.02394626
0.0019596573 0.027593875 -0.0011677159 0.038365636 -0.003150556 0.0042612753 -0.070479244 0.03244168
-0.069630966 0.00630651 -0.025979416 -0.019905997 0.08601285 0.057187684 -0.021665867 -0.0023236212
0.057049904 0.07202333 -0.007362177 -0.023210613 0.06871484 -0.03313623 -0.01155857 0.07091908
0.01911405 0.006981434 -0.042854782 0.053555325 0.02318819 -0.05033012 0.0039587915 -0.088782564
-0.012765807 0.0059845047 -0.06777607 -0.08446525 0.011934191 -0.095300026 -0.03338622 -0.07502692
0.038363393 -0.02227231 -0.07107585 0.022767602 -0.00519054 0.076283865 0.080383904 0.01306268
0.03916479 0.031231757 0.040555567 -0.019287484 -0.0975423 0.022549683 -0.049657486 -0.041266236
-0.018488828 0.041761328 -0.052033212 0.01563397 -0.0451212 -0.03555307 0.0721152 0.07197492
-0.023241192 0.042254206 -0.013214452 0.01350002 0.094509445 -0.039327748 -0.025874825 0.07223902
0.04665441 0.0173402 0.06039847 0.038217902 -0.044944283 -0.087167114 -0.02715779 -0.012195983
0.044331715 -0.042448115 -0.011759178 0.010550921 -0.014778403 0.04292016 -0.05759781 0.036964554
0.04564718 -0.048128735 0.079667106 -0.0009884465 -0.03666867 -0.02080714 -0.005575561 0.048233896
-0.013783659 -0.051255863 0.02539755 0.016195528 -0.038233932 6.710646e-05 -0.048697338 -0.027674332
0.052608773 0.07235968 -0.005638167 0.07265738 -0.09794887 0.06617944 -0.024158707 -0.051473342

gc_layers.0.lin_f.bias f4 [64]
00000000: c0f8 843d 6b8f 813d 2851 cd3d 78c2 c9bb
00000010: 1476 063d 3e1c cebc 135a b13c 2113 1f3d
00000020: 1254 313c 25f6 1e3d 5bcb 96bb f7c4 1dbc
00000030: bced 423d 2d2a 81bc 7293 55bd 5229 d13d
00000040: 302e a83c 6d42 1a3d 8284 6e3d 3ed1 663d
00000050: c38d 433b 2848 223c c61d 9bbc c7f7 86bb
00000060: 4433 1e3d db05 5e3c 74c4 70bd b31d 19bd
00000070: c8af 343d f2bd 5cbd dab9 26bc fd8c 003d
00000080: 5a6f 5cbd f660 a63d 7ce7 16bd 00af cdbb
00000090: e4aa 333d 144b 3bbd 7599 3cbd 99e3 363d
000000a0: ac99 95bb 96e3 d83c b54d dc3d eaf0 3dbc
000000b0: 48de b73c 48fc 01bd aabd 5c3d f8fb 613d
000000c0: 5453 1e3d 7d48 c4bc c589 a63d 652d 5d3d
000000d0: c65a a23d baef 0439 ee13 023e 1444 323d
000000e0: 270a c2bc 0b97 bbbc d914 6e3d 9a74 223d
000000f0: 71b3 183d ce11 813c 8212 2ebd aca5 473c
0.06492758 0.06326183 0.10025245 -0.0061572157 0.03282745 -0.025159951 0.021649396 0.038836602
0.010823267 0.03880896 -0.0046018786 -0.00962948 0.047590002 -0.015767181 -0.052142568 0.10212959
0.020529836 0.037661005 0.058231838 0.056351893 0.0029839135 0.009904899 -0.018935096 -0.004118893
0.03862311 0.013551201 -0.058781102 -0.03738184 0.04411295 -0.053892083 -0.010176146 0.031384457
-0.05381713 0.081239626 -0.036841854 -0.006276965 0.043864146 -0.045725897 -0.046044786 0.044650648
-0.0045654383 0.026475709 0.10757009 -0.011593083 0.02244486 -0.031734735 0.053891815 0.055171937
0.038653687 -0.023960346 0.08131746 0.05399837 0.0792747 0.00012677806 0.12702915 0.043521956
-0.023686482 -0.022899171 0.05812535 0.03966198 0.037280504 0.01575556 -0.04249812 0.012185495
