saved_models/2023-04-19_23-33-20/model.pth (torch, 811622 bytes, 76 tensors)

type_embedding.weight f4 [100, 100]
000000 37 b8 1a 3e 25 5f 95 3d a9 89 27 3c fa 30 2a be
       0.15109335 0.07293538 0.010225692 -0.16620246
000010 4b d0 4b 3f 36 0d 16 3f 46 11 99 3e 12 43 f4 3e
       0.79614705 0.5861391 0.2989599 0.4770742
000020 ae 17 df be 16 bc b2 3f 1a d9 11 bf 4c 89 df bd
       -0.43572754 1.3963649 -0.56971896 -0.10914859
000030 fe 39 80 3e a5 86 6d 3e a5 ed b3 bf 54 14 39 3f
       0.25044245 0.23195894 -1.4056898 0.72296643
000040 1a 5e 27 3f 6a 28 72 bf d8 ea 7c bf 17 c3 85 bf
       0.6537796 -0.94592917 -0.98795843 -1.0450162
000050 14 4f 5b be bc 2a 0e 40 2a 24 1d 3f d0 10 9d bd
       -0.21416885 2.2213583 0.61383307 -0.07669222
000060 b4 a6 8c 3f 69 a5 2a be ac 22 0a bf 93 c7 8c bf
       1.0988374 -0.16664661 -0.53959155 -1.0998405
000070 ad 65 83 3e 1d 08 3b bf c8 8d ce be 02 86 59 3e
       0.2566351 -0.73059255 -0.40342546 0.21242526
000080 fe c4 7b 3c f3 a9 0c c0 9f b6 e7 3e 5f de 9e bf
       0.015366791 -2.1978729 0.45256516 -1.2411612
000090 75 6d d2 bf ef c1 54 3e 28 6c c8 3d 9a c6 ea be
       -1.6439654 0.20777105 0.09786254 -0.45854646
0000a0 b5 28 d7 3e 2a 56 f7 3e 49 36 0f 3f e0 7b 6b bf
       0.42023245 0.48307925 0.5594221 -0.91985893
0000b0 09 d6 51 bf a6 c6 05 40 05 b6 5a 3f c0 1d 6f 3f
       -0.81967217 2.0902495 0.8543399 0.9340477
0000c0 ea 19 3f bf c0 c1 3c bd 78 bd 32 bf 7a 58 af 3f
       -0.74648917 -0.046083212 -0.69820356 1.3698876
0000d0 a0 3d 88 bf 37 02 0b bd 72 16 07 bf 94 7d 8e bf
       -1.0643806 -0.03393766 -0.52768624 -1.1132073
0000e0 1a 48 0a bf 83 01 00 c0 5a 29 7b 3f e8 82 ce bf
       -0.5401627 -2.0000923 0.9810997 -1.61337
0000f0 b0 72 86 3f 67 cc 81 bd ef 8a c5 be 5d 66 d4 bf
       1.050375 -0.06337815 -0.3858256 -1.6593739
000100 88 ac ce 3e 3f 4b 10 bf 3c 6f 2d bf 0f a4 0a bf
       0.40366006 -0.56364816 -0.67747855 -0.54156584
000110 71 0e b4 be 39 01 e0 3e 25 d6 bf 3f b6 95 89 be
       -0.35167268 0.43750933 1.4987227 -0.26872033
000120 5b 5c 5a 3e 8f 74 07 c0 59 26 55 bf 93 f4 c4 be
       0.21324293 -2.1164892 -0.8326164 -0.38467845
000130 4b de 88 be 51 1f 86 be 39 7c cf 3e e9 14 bc 3f
       -0.26732096 -0.26195768 0.40524462 1.4693881
000140 7a cd 68 3f 1a 9e 2d 3d 78 8e 11 3f 71 61 b9 bf
       0.9093853 0.042387106 0.56858015 -1.4482862
000150 77 3b c9 bd db 37 7f 3f 10 d0 cf be 02 0c fe bf
       -0.09825795 0.99694604 -0.40588427 -1.9847414
000160 26 5c c7 bf 5a 7e 58 3f fa 75 1b bf 03 b6 f2 3f
       -1.5574996 0.845678 -0.6072689 1.8961796
000170 c0 c3 99 3f 3f 8e c4 3e a3 0c 71 bf 3a e9 aa 3f
       1.2012863 0.38389775 -0.9415991 1.3352425
000180 7f f2 60 be 09 29 8d 3f 7b fc 64 3c af a4 44 3f
       -0.21967505 1.1028148 0.013976212 0.7681379
000190 bc 93 1a bf fe a5 f1 be 6b 4a 3a bf cb 20 10 3f
       -0.60381675 -0.47196954 -0.727698 0.5630004
0001a0 05 d9 4c 3e ff 96 84 3e e3 03 4e 3f e8 b4 bc 3d
       0.20004661 0.2589645 0.8047468 0.09214193
0001b0 7f 37 27 3e de 5a 78 bd bb f4 a5 3d 8d 2a b4 be
       0.16329764 -0.060633533 0.08103319 -0.35188714
0001c0 ce f6 2f bf 11 8c 76 bf e6 b3 ea 3e cc 43 be 3f
       -0.6873597 -0.96307474 0.45840377 1.486444
0001d0 a2 84 aa 3e b3 08 75 3f 4f 8f 28 3f 13 cf 11 3f
       0.33304316 0.957164 0.6584367 0.56956595
0001e0 e6 69 1a 3f 3b 79 30 bf ff d8 ec bd 83 ba ac 3e
       0.6031784 -0.68934983 -0.11564826 0.33736047
0001f0 6c 32 97 3f d3 af 39 be fe 2c b4 3f c2 2b 31 3f
       1.1812263 -0.18133478 1.407623 0.69207394
000200 02 93 0c 40 cd e1 40 be db 2c ef 3f d3 ef 30 bd
       2.1964726 -0.18836136 1.8685564 -0.043197464
000210 9d 6d d2 3f 45 eb 0e 3f eb dd 32 bf ec ec 80 3e
       1.6439701 0.5582774 -0.6986987 0.25180757
000220 c0 0b 4b be bf 10 7d 3f c0 61 a8 3d 5f 0e 43 bf
       -0.19828701 0.9885368 0.08221769 -0.76193804
000230 e3 9e aa bf 5b 19 25 40 d4 c2 03 c0 5b 54 a3 3e
       -1.3329738 2.5796726 -2.0587664 0.31900296
000240 f4 b2 b5 bd 80 e8 c3 3c a8 4f 87 be 6f be 0a bf
       -0.08872023 0.023914576 -0.2642796 -0.5419683
000250 09 d2 b6 bd 0b ba d9 bf c8 45 6f 3f a9 e4 70 3f
       -0.0892678 -1.7009901 0.9346585 0.9409891
000260 b6 76 fc 3f 30 c9 85 3f 24 64 80 3e bc 82 15 3f
       1.9723728 1.0452023 0.250764 0.5840261
000270 71 c8 4d bf 98 3f 4a bf b4 69 cd 3e d4 ae aa be
       -0.80383974 -0.79003286 0.40119708 -0.33336508
000280 f5 60 9a be 11 f3 93 3f 67 44 ca bf cf c2 db bf
       -0.30152097 1.1558553 -1.5802125 -1.7168826
000290 f4 41 44 3f d7 d4 29 bf f1 2e 01 bf ec 51 f7 be
       0.76663136 -0.6634039 -0.5046225 -0.4830469
0002a0 28 f2 9c 3e 78 77 7d 3d 61 88 fa 3c bb 6e c7 3e
       0.306535 0.061881512 0.030582609 0.38951668
0002b0 5c 5f 80 bf 7c 2d 00 3f 45 69 8a bd e2 71 11 3f
       -1.0029101 0.50069404 -0.0675836 0.56814396
0002c0 28 0a 7e 3d 05 7b bd 3d 29 bc 99 bf 60 98 52 bf
       0.062021405 0.0925198 -1.2010547 -0.82263756
0002d0 a9 3f bd bd 38 64 bf 3f c8 42 fa 3e de c9 8e 3e
       -0.09240658 1.4952459 0.48879075 0.27888387
0002e0 69 88 75 3d 8f 7c 9c bf 8a 14 5a 3e 10 d6 0e bd
       0.059944544 -1.2225512 0.21296898 -0.034872115
0002f0 f5 72 b1 3f f0 50 52 3f 0a 08 f4 bf 31 80 83 3f
       1.3863207 0.8215475 -1.9064953 1.0273496
000300 8c 1e 17 3f 2f b4 d1 3f fe a9 c0 3d e9 0e 9e 3e
       0.59030986 1.6383113 0.094074234 0.3087075
000310 9f c9 d8 3e cc a7 c6 3e b7 47 49 bf af 8f 85 3f
       0.42341325 0.38799894 -0.78625053 1.0434474
000320 4c 33 ed bf af cf 78 bf 68 26 14 3f cc 3c 98 3f
       -1.853128 -0.971919 0.57871103 1.1893554
000330 ce 0a d8 be 47 a6 12 40 f7 76 9b 3f 7b 52 15 c0
       -0.42195743 2.2913988 1.214568 -2.3331592
000340 e7 0b 59 bf c0 03 d8 3f 5f c5 cb 3e e7 13 c3 3f
       -0.84783787 1.6876144 0.3979902 1.5240449
000350 b5 79 a2 bf 9c f2 3b 3f 8c b4 0d 40 46 16 80 bf
       -1.2693392 0.7341707 2.2141447 -1.0006797
000360 61 b8 95 bf c4 3a 41 3f 45 46 8e 3e ae 3d 2e bf
       -1.1696893 0.75480294 0.27787986 -0.68062866
000370 ab cf 51 bf 4c 37 e1 bd 3a a2 45 3f 37 cf bc bf
       -0.819575 -0.10996875 0.77200663 -1.4750737
000380 10 73 b2 bf 61 e7 e9 3d c8 0e 84 be be 87 06 bf
       -1.3941364 0.11421085 -0.25792527 -0.52550876
000390 2a 7d e7 3e 2f ef a5 3f 60 1d 3c bf ca eb 31 40
       0.4521268 1.2963618 -0.7348232 2.7800164
0003a0 38 82 03 3e 09 aa fa 3e 7d 44 2b 3f 3d 33 09 40
       0.12842643 0.48957852 0.6690138 2.1437523
0003b0 a6 29 90 bd 1e 1f 3d bf 2a c9 78 3f 09 54 a0 bf
       -0.07039194 -0.73875606 0.9718195 -1.2525645
0003c0 06 6f ce 3e d0 54 c6 bf a2 d3 1e 3f ff db c0 3f
       0.4031908 -1.5494633 0.62041676 1.5067137
0003d0 61 99 07 3f df 38 a4 3f e9 0f c1 be d5 9c 34 40
       0.5296841 1.2829856 -0.3770745 2.8220723
0003e0 52 94 46 3f da 27 66 bf ff b4 16 bf 36 96 ec bc
       0.7757007 -0.8990456 -0.5886993 -0.02888022
0003f0 45 40 85 3e af 5e 53 3f a3 74 2f 3f f6 fb 8d be
       0.26025596 0.8256635 0.6853735 -0.27731293

distance_expansion.means f4 [32]
000000 c4 04 a1 3c 3c 92 94 3d 7c b4 c3 3d 4f 9e be 3d
       0.019655593 0.072544545 0.09555909 0.09307539
000010 c8 38 d2 3d 6e 82 09 3e 9c 18 2a 3e 21 f0 4a 3e
       0.102647364 0.13428661 0.1661095 0.19818164
000020 5d eb 76 3e e1 e2 8a 3e 02 fb 95 3e 06 f3 a3 3e
       0.24113221 0.2712622 0.29293066 0.3202135
000030 1f 74 b5 3e 36 2c c5 3e 06 78 d3 3e c5 d2 e6 3e
       0.35440156 0.38510293 0.41302508 0.4508268
000040 de 24 f3 3e e6 3f 0b 3f 66 b1 0f 3f a1 85 1f 3f
       0.47489065 0.54394376 0.56130064 0.62313277
000050 23 8b 22 3f b6 de 2a 3f 7f 93 37 3f 84 0a 3c 3f
       0.63493556 0.6674608 0.71709436 0.73453546
000060 05 9f 43 3f 49 3c 48 3f 59 37 6d 3f 55 dc 77 3f
       0.7641452 0.7821699 0.9266258 0.96820575
000070 74 8f 7c 3f 60 fe 7f 3f 20 00 80 3f 11 00 80 3f
       0.9865639 0.9999752 1.0000038 1.000002

distance_expansion.betas f4 [32]
000000 11 c0 81 43 4c bf 81 43 9a ca 81 43 81 c8 81 43
       259.50052 259.4945 259.58282 259.56644
000010 a7 bf 81 43 0b bd 81 43 6e bb 81 43 69 b5 81 43
       259.49728 259.4769 259.4643 259.41727
000020 8b b6 81 43 a1 b8 81 43 e6 b6 81 43 6b b5 81 43
       259.42612 259.4424 259.4289 259.41733
000030 ee b4 81 43 24 b4 81 43 94 b4 81 43 38 b7 81 43
       259.4135 259.40735 259.41077 259.4314
000040 38 b8 81 43 9e ba 81 43 3a ba 81 43 6e bd 81 43
       259.4392 259.45795 259.4549 259.47992
000050 05 be 81 43 61 bd 81 43 99 bd 81 43 ec bd 81 43
       259.48453 259.47952 259.48123 259.48376
000060 fc bd 81 43 d1 bd 81 43 8f b5 81 43 8e b3 81 43
       259.48425 259.48294 259.41843 259.40277
000070 b0 b5 81 43 28 b9 81 43 ef bb 81 43 1d be 81 43
       259.41943 259.44653 259.46823 259.48526

pre_layers.0.weight f4 [64, 100]
000000 94 b1 d6 bd 18 0b 25 bc 4b 30 af 3c d9 83 a7 bd
       -0.10483089 -0.010073446 0.021385333 -0.08179445
000010 ec 49 aa bd 0e e6 b8 3b f5 94 b4 bd be dc 49 3d
       -0.08314881 0.005642659 -0.08817474 0.04928278
000020 46 75 af bc 9f de 9f bc 6b 60 29 bd 6a 5d 73 3d
       -0.021418225 -0.019515334 -0.041351717 0.05941526
000030 6f 3c 87 bd 7b fd 38 3d 17 c5 54 bd 5d 02 9f 3d
       -0.06603324 0.045163613 -0.051945772 0.07764123
000040 97 a5 12 3d 3c 0c f6 bc d8 7e 1b 3d 9d a8 6c 3d
       0.03580245 -0.03003513 0.037962765 0.05777799
000050 5a eb b2 ba 78 e9 57 3c d8 ca 99 bd 3e e3 b3 3b
       -0.0013650462 0.013178222 -0.075093925 0.005489736
000060 c3 1e 90 bd e9 a8 d1 3d cd cf 8a 3d 30 52 69 bd
       -0.07037117 0.10237295 0.06777916 -0.056963146
000070 68 41 96 3d 1a b1 8b bb 57 85 cd 3d 09 bd 25 bd
       0.07336694 -0.0042630555 0.10035198 -0.04046348
000080 fc b0 72 bd bc b1 ea 3c a7 ee 69 3d 93 c6 db bc
       -0.059250817 0.028649203 0.057112362 -0.026828086
000090 55 2d 95 bd 34 69 89 3c 3d 98 9a bc 3a 58 6d bd
       -0.07284037 0.016773798 -0.018871421 -0.057945468
0000a0 02 18 6f 3c 2c 77 a0 bd fe fd ce bd 24 12 ca bd
       0.014593126 -0.0783523 -0.10107039 -0.09866741
0000b0 f3 47 e0 bc 00 b3 73 3d 9f e6 da bb d2 e0 46 3d
       -0.027378058 0.05949688 -0.006680324 0.04855425
0000c0 b1 b3 46 3d 3b e5 2f bd d4 fd 32 3d 4c 3d ba 3c
       0.04851121 -0.04294322 0.0436991 0.022734307
0000d0 40 7a 7a 3d a3 35 11 bd 9b 96 a7 bd e9 7b 20 3d
       0.061151743 -0.035451543 -0.081830226 0.03918067
0000e0 6a 21 89 bb e6 aa d4 bc d5 3c 06 3d 43 07 c6 3c
       -0.0041848915 -0.025960397 0.032772858 0.024173385
0000f0 73 69 c5 bd 1d be 59 3d 89 5c 2d 3b 94 18 0f bd
       -0.096392535 0.05315982 0.002645286 -0.03493555
000100 1f 7d 81 bd 46 1a b7 3d 8b 87 8c bd 14 3c 32 bd
       -0.06322693 0.08940558 -0.0686179 -0.043514326
000110 79 05 3b 3c d8 da 53 3d 56 b9 e3 3d 05 2e 1e 3c
       0.011414879 0.051722378 0.111193344 0.009654527
000120 8e 6c 51 bd 2c 03 8a 3d 0a 59 b8 3d 0b a0 e1 3b
       -0.051128916 0.06738886 0.09001358 0.0068855337
000130 db b3 77 3c 56 34 eb bd 91 87 c3 3d 04 77 76 bd
       0.0151185645 -0.11484592 0.095473416 -0.060172096
000140 43 ad 24 bd 41 84 d3 bb d3 dd ff bc e5 6e c9 bd
       -0.040204298 -0.006454975 -0.031233704 -0.098356046
000150 9b 7d 2e bd 31 91 66 bd b8 dd ba 3d ee 8b 3c bd
       -0.042600255 -0.05629081 0.09124321 -0.046031885
000160 34 30 74 3d aa ba 48 bd 73 f3 ce bc 0a f4 ff bc
       0.059616283 -0.04900614 -0.02526257 -0.031244297
000170 78 f8 a7 3d 30 0c 82 bd 5b 33 cc 3d 92 6a 0c 3d
       0.082016885 -0.06349981 0.09970733 0.03428132
000180 dc 0d a4 3d d4 fc 01 bc eb 12 94 3c fd fb 38 3d
       0.08010456 -0.007933814 0.018075427 0.04516219
000190 55 9a 2e bd e9 65 51 bc c3 be e0 bc 0d 28 98 3b
       -0.04262765 -0.012780645 -0.027434712 0.0046434463
0001a0 f3 6c a3 bd e4 e6 9a bd e7 9c 9f 3d 60 13 47 bd
       -0.07979765 -0.0756357 0.077935986 -0.04860246
0001b0 8c 7e 8d 3d 61 bc 0b bd da 40 7f 3c 13 21 86 bc
       0.069089025 -0.0341152 0.015579427 -0.016373193
0001c0 14 68 8d 3d ed 66 74 3c 6e 19 e8 bd 49 70 12 3d
       0.06904617 0.014917118 -0.11332975 0.035751615
0001d0 9b 6f 03 bd c1 9e 8e bd 87 74 bb 3d 76 fa 0f bd
       -0.032088857 -0.06963874 0.09153085 -0.035150968
0001e0 f1 5b 75 3d 27 8f ab bd 84 d5 11 bd f5 a5 bd bd
       0.059902135 -0.083769135 -0.035604015 -0.092601694
0001f0 fd 10 63 bd 75 8d d3 bc 95 24 c9 3a c0 1f 43 bc
       -0.055436123 -0.025824288 0.0015345985 -0.011909425
000200 1e 63 96 bd 96 50 06 bc 49 df 17 bb fa d5 a5 3d
       -0.07343124 -0.008197924 -0.002317386 0.080974534
000210 94 aa bd bd ea eb 73 bd 72 f0 9d bd 44 4e e8 3d
       -0.09261051 -0.059551157 -0.07711877 0.11343053
000220 88 2f ea 3d 24 e2 b8 3a ab 2b e2 3d 3f e5 b3 bd
       0.11434847 0.0014105481 0.11043485 -0.087839596
000230 70 77 2f 3b bf fd 01 bd ee 77 78 bd 28 7a d5 3d
       0.002677407 -0.03173613 -0.06066125 0.1042369
000240 67 74 65 bd 4e bc 66 3d 60 d0 35 3c dc d5 69 3c
       -0.056019213 0.056331925 0.011097044 0.014272179
000250 7d 13 50 bd f4 ff 0c bd 32 24 87 bd 4e 6b 74 3c
       -0.050799835 -0.034423783 -0.065987006 0.014918162
000260 69 bc c4 bd 8b dc c7 bd 30 00 89 bd 2c 06 59 3d
       -0.09606249 -0.09758862 -0.06689489 0.0529844
000270 2f 3c 40 3d 6e 2c 26 bb 8b 68 ae bc d6 2f ee bd
       0.046932396 -0.0025356072 -0.021290084 -0.11630218
000280 bf 31 46 3b cd c9 57 bd 2e 9d 63 3d 4d b2 fe 3c
       0.0030242053 -0.052682687 0.05556982 0.03109088
000290 2a 3f 8a 3d 55 88 2c bd af dd 4c 3b aa 19 38 3d
       0.06750329 -0.042122204 0.0031260063 0.04494635
0002a0 ae 7d a8 3c 96 53 56 3d e7 0f d2 bd 30 7c 83 bd
       0.020567741 0.052325808 -0.102569394 -0.06420171
0002b0 93 ae 0a bd f3 c3 65 3d 4f e9 87 3d 29 6c b7 bc
       -0.033857893 0.056095075 0.06636297 -0.022390442
0002c0 4a ac a9 bd e5 9d c3 bd bc 8a 3e bd 96 f5 c0 bc
       -0.08284815 -0.095516 -0.046519026 -0.023554605
0002d0 38 19 00 3c 41 5f 03 bc ba 29 a6 bc 2a 87 89 bd
       0.007818513 -0.008018316 -0.020283569 -0.067152336
0002e0 1d f5 b8 bd bf 4e 3a 3c 17 1d 67 3d 98 5f 77 bd
       -0.09031127 0.011371314 0.056424227 -0.0603939
0002f0 e4 6c c5 bd 65 95 dd bc 53 4b 62 3c 3b fd 9d ba
       -0.0963991 -0.027048776 0.013811904 -0.0012053618
000300 4a ef cc 3c ae 06 af bd e2 24 4f bd 37 ce e4 bc
       0.025016446 -0.08546196 -0.050572284 -0.027930362
000310 aa 6a 3c 3d c3 17 4a bd 31 21 de bd 65 45 a6 bd
       0.04600016 -0.049339067 -0.108461745 -0.08118705
000320 6f 58 b3 bd eb e6 3f bc 46 ed 64 bc 29 75 ee 3c
       -0.08757102 -0.01171277 -0.013972586 0.0291086
000330 4b 4a e5 bd 53 2f 9d 3d 20 f0 08 3a f0 b4 b8 bd
       -0.11195811 0.07675042 0.00052237697 -0.09018886
000340 e9 c8 bc bd 7b b4 96 3c b2 e3 a1 bd a6 ed b9 3d
       -0.09218008 0.018396607 -0.079047576 0.09078531
000350 90 c3 3e 3d 2c 92 36 bd e2 74 9d bd ad df 54 bd
       0.04657322 -0.044572994 -0.07688309 -0.051971126
000360 45 9a 9c 3d 2f 14 f2 3c 4c 19 f5 3c 17 06 39 bd
       0.07646612 0.02955064 0.029919289 -0.045171823
000370 63 8e 6f 3c 6d 12 4e 3d 79 c5 a8 3d 86 2e 7f 3d
       0.01462135 0.05031054 0.0824079 0.062300228
000380 49 87 a7 bd 06 63 af bd 10 ff b0 3c 2b f9 da bc
       -0.081801005 -0.08563809 0.021605998 -0.02673014
000390 3e 9e 85 3c c3 db 3f bb b9 fd aa 3d ca 5e 9b bd
       0.016310807 -0.0029275275 0.08349175 -0.07586439
0003a0 c4 8e a1 bd c7 c4 8d 3d 05 c3 1c bd 55 ad 5b bd
       -0.078885585 0.06922298 -0.038271923 -0.0536321
0003b0 47 6a 8f bc 8b bf be bb c0 0d c6 3c 88 ab 29 bd
       -0.017506732 -0.0058211735 0.024176478 -0.04142335
0003c0 77 4c 14 3d d9 bf 05 3d d2 51 9e 3d 36 16 44 3d
       0.036205735 0.032653663 0.0773045 0.047872745
0003d0 5e 92 96 bd 2b 62 d4 bd 69 2c 78 bd a0 56 44 bd
       -0.07352136 -0.103702866 -0.060589228 -0.047934175
0003e0 e5 27 9d 3c 69 62 bf bd 4c d1 64 bd 5f 6c 2d bc
       0.019184062 -0.09344942 -0.055863664 -0.01058492
0003f0 6a d9 8f 3d 89 18 8f bd 78 09 d9 3b db 22 8e 3c
       0.0702389 -0.069871016 0.006623443 0.017350605

pre_layers.0.bias f4 [64]
000000 3a bf 54 bb b9 54 e5 3d 9b 1f 56 3d 4b b1 e2 3c
       -0.0032462613 0.111978 0.052276235 0.02767243
000010 b9 6c fb bd cb a8 24 bd cb aa 9b bd 33 b4 78 3c
       -0.122765966 -0.040200036 -0.076009355 0.015179682
000020 5e 1a 21 3d 9e e2 59 3d c5 28 12 bc d8 83 b5 bd
       0.039331786 0.053194635 -0.008920853 -0.08863038
000030 9f f3 26 bd ad d4 56 3d 9f 45 a9 3d 38 91 fd 3c
       -0.04075968 0.052448917 0.08265232 0.030953035
000040 5a d1 aa bd 3f 98 15 bd e2 34 5b bb 72 b7 b2 3d
       -0.08340712 -0.036522146 -0.0033448269 0.08726396
000050 20 5e 82 bd d1 4c cc bc 73 d9 b1 bd 8d b9 98 bd
       -0.06365609 -0.024938973 -0.08684053 -0.07457266
000060 da e0 3c bd bb 22 e0 3c 40 93 8e 3d b6 6d f6 3b
       -0.046112873 0.02736031 0.069616795 0.007520403
000070 fe 69 58 3b 2b 39 46 bd df 38 e0 3d 9c a7 ac bb
       0.003302216 -0.048394363 0.10948347 -0.005269004
000080 14 90 81 3d a8 d9 57 3c a9 92 97 bd 27 31 84 bd
       0.06326309 0.013174452 -0.0740102 -0.064546876
000090 64 4e aa 3d cf 7a 07 3d c2 e5 02 bd 38 79 52 bd
       0.08315733 0.033076104 -0.031957395 -0.051385134
0000a0 e0 c8 72 3c f7 18 4d 3d 98 bd 8f bc 9f c6 89 bc
       0.0148184 0.050072636 -0.01754646 -0.016818343
0000b0 03 50 4d 3d 88 fa 5b 3d 74 0b b9 bd 38 f1 43 3c
       0.050125133 0.053705722 -0.09035388 0.0119593665
0000c0 e0 e7 3d bd b7 37 1f 3a 59 2c d8 bc db a5 ae bd
       -0.04636371 0.0006073671 -0.026388334 -0.08527728
0000d0 9b 8e 0f 3d c7 3c d7 3d 4a 61 1e 3d 65 2f 4b bd
       0.03504811 0.10509639 0.038667 -0.049605746
0000e0 47 3c cb 3b 70 9f e4 3b 3a 43 24 3d b4 81 0f 3b
       0.006202254 0.0069770142 0.040103175 0.0021897377
0000f0 bc 5f 7f bd e6 07 db 3d 5c 2d 62 bd 3f 51 5a bd
       -0.06234716 0.10694866 -0.05521904 -0.05330014

post_layers.0.weight f4 [64, 64]
000000 9e 98 dc 3b 7b 79 d2 3d c1 44 33 3c bc 15 01 be
       0.0067320606 0.10277077 0.010941685 -0.12605947
000010 1f cb 67 3d 2b 9f 43 3d 3a bb ca bc dc 18 d8 3d
       0.056590196 0.047759216 -0.02474748 0.105516165
000020 62 64 d2 3d 70 9c 4f bd ce 51 88 bc b5 37 fa bd
       0.10273053 -0.0506863 -0.01664057 -0.122176565
000030 ad df be 3d 0e fe 99 3d f5 1b 07 3d 79 3f df 3d
       0.093200065 0.0751916 0.032985646 0.10900778
000040 01 5d 93 3d 6d 13 c9 39 03 54 26 3d e0 c5 6f 3d
       0.071954735 0.0003835218 0.040607464 0.058538318
000050 7d 86 32 bd 5e ed d6 3c 3c c3 d5 3d bb ac 27 bd
       -0.04358529 0.026236232 0.104376286 -0.040936213
000060 e0 87 f1 3d ac 9b a3 3c 20 9c c9 3d 19 79 6d bd
       0.11793494 0.019971691 0.098442316 -0.057976816
000070 65 41 cb 3d db 2e 19 3d 6e f0 b3 bd 8c 64 4a bc
       0.099245824 0.0373982 -0.08786093 -0.012353074
000080 91 c6 81 bd a1 a9 a4 3d 7a a3 3c bb a4 98 63 bd
       -0.06336702 0.08040167 -0.0028783963 -0.05556549
000090 6b d5 d4 3d 22 a9 ad bd 2a 88 91 bc 23 ad 9c 3d
       0.10392269 -0.08479525 -0.017765123 0.07650211
0000a0 14 59 e1 ba b3 62 01 3d 9e dd 30 3d e8 0b 02 3e
       -0.0017192685 0.031588268 0.0431801 0.12699854
0000b0 6d f8 bd 3d bb 62 47 bd 01 45 dd bd 3f 7b bc 3d
       0.09275899 -0.04867814 -0.10804177 0.09203195
0000c0 da 8c ad 3c 95 4c 0a 3e 0d 0e 37 3d 54 67 84 3d
       0.021185327 0.13505776 0.044691134 0.06465021
0000d0 ff 78 6d 3d c3 d9 ac bd e4 1b 09 3e 0f cb 1c 3a
       0.05797672 -0.08439972 0.13389546 0.0005981186
0000e0 d4 67 04 3e d3 6b 96 3d 19 63 fe 3c d0 a3 10 3d
       0.12930232 0.073447846 0.031053113 0.035312474
0000f0 6f cf 9d bd bd e3 81 3c d8 4e da 3c bf bf dd bd
       -0.077055804 0.015855664 0.026648924 -0.10827588
000100 53 f5 1a 3c a5 0a cf bd 66 45 9a 3c 40 b5 9d 3d
       0.009457904 -0.10109452 0.01883192 0.07700586
000110 79 49 d1 3d 74 cf ae bd 62 a9 7a bc 2b 82 8a 3b
       0.10219092 -0.08535662 -0.015299173 0.004226943
000120 92 a5 46 3d 53 eb 12 3e 14 fd 71 bd 4a 33 1d 3c
       0.048497744 0.14347582 -0.059079245 0.009594748
000130 99 5c b3 bd 3a 95 85 bc 94 ba a1 bd c2 fe 03 3c
       -0.08757896 -0.016306508 -0.07896915 0.008056344
000140 84 9c e1 bd 42 17 98 3d 52 34 98 3d 50 a8 94 bd
       -0.11016181 0.07426311 0.07431854 -0.072586656
000150 89 d3 79 3d 32 8e e7 bd 08 9d 9b bc e9 5e c3 bc
       0.06099275 -0.113064185 -0.018995777 -0.023848968
000160 90 ef 1d 3d 8d 9a 92 3d 78 96 fe 3c 5f 9c 20 bd
       0.038558543 0.071583845 0.031077608 -0.039211627
000170 47 67 4e bc fd 39 91 3d d7 2f ad 3d 37 a4 20 bd
       -0.012597865 0.070911385 0.0845639 -0.039219107
000180 5f 54 d7 bd 8a 64 04 be 56 d7 f5 bc 1f ac fe bc
       -0.105141394 -0.12928978 -0.030009907 -0.031087933
000190 3e 3f c8 3d 6d 47 22 bd a7 ba b7 bd 4d 06 3a 3d
       0.097776875 -0.0396189 -0.08971148 0.045416165
0001a0 6b 82 62 3d 7a 72 9f bc 87 08 3c bd 26 1a 82 3d
       0.055300158 -0.019463766 -0.04590657 0.06352644
0001b0 7d e4 df bd 04 d1 71 3d 58 9f a3 bd 38 d2 25 3d
       -0.109322526 0.059037223 -0.07989377 0.040483683
0001c0 3f d9 d7 3c de 44 13 bd 00 20 5e bc d6 4d b0 bd
       0.026348708 -0.03595435 -0.013557434 -0.08608596
0001d0 70 99 54 3d 6e 04 01 be a8 cf 99 3d 15 26 c5 bd
       0.051904142 -0.12599346 0.075103104 -0.09626404
0001e0 3a aa d2 bd d0 fd 62 3d 21 30 c8 bd 18 2c b0 3d
       -0.102863744 0.055417836 -0.09774805 0.0860216
0001f0 86 d6 ac bd 23 fd 9d bd 3a 67 01 3d 05 02 3c 3c
       -0.084393546 -0.077142976 0.031592585 0.011475091
000200 88 3f c5 3d 40 54 eb 3d 47 94 a3 3a 68 d5 fc 3d
       0.09631258 0.11490679 0.0012480103 0.123453915
000210 62 61 c7 3d 70 a8 84 3d 85 c7 4c 3c a4 65 c8 3d
       0.09735371 0.064774394 0.012498741 0.097850114
000220 0d a3 e4 bd 5d 97 8d bd 6d 8d 7c 3b d5 a2 95 3d
       -0.11163912 -0.06913636 0.0038536445 0.07306448
000230 5b 8e f8 bc 89 42 00 3e d4 f2 08 be 40 13 56 bc
       -0.030341318 0.12525381 -0.13373882 -0.013066113
000240 10 89 8d bc 42 e7 46 bd 60 d6 3a 3c c3 35 09 bd
       -0.01727727 -0.04856039 0.01140365 -0.033498537
000250 ca 3d 89 bb 39 ae e2 3d 45 a7 3c 3e 42 43 2c bd
       -0.004188274 0.110683866 0.18423183 -0.04205633
000260 57 24 fe 3d d4 b2 a5 3d ef fd 0a 3d a5 51 75 3d
       0.12409275 0.080907494 0.033933576 0.059892315
000270 25 b6 80 bc 3e 1c 87 bc 40 40 9f 3c c4 4a b4 3d
       -0.015711853 -0.01649296 0.019439816 0.08803323
000280 d0 4a 81 3c b1 ec f2 bc 94 c0 4b 3d 80 02 ad 3d
       0.015782744 -0.029653879 0.049744204 0.084477425
000290 b0 09 8c 3d 7f d6 81 3d e7 6d c6 bd aa 7a c2 3d
       0.06837785 0.0633974 -0.09688931 0.094960526
0002a0 5a 60 96 bd aa 1a ae 3d 4f 59 e1 bc 3b 1a 5e 3c
       -0.07342596 0.085011795 -0.027508406 0.0135560585
0002b0 24 d4 fd bc 60 ce c2 bc f9 64 75 bd 05 e6 bc bd
       -0.030984946 -0.023780048 -0.05991075 -0.0922356
0002c0 0e f9 ea 3d 99 d2 6a 3d cc f3 73 3d 77 ca af bd
       0.11473285 0.057329748 0.059558675 -0.08583539
0002d0 e4 cf 94 3b 8d 6c a5 bd 55 63 0f bd 14 87 8f bd
       0.004541384 -0.08077345 -0.03500684 -0.07008186
0002e0 75 b4 de 3c a9 42 af 3c 00 5e 0e be a1 5d 77 bd
       0.027185658 0.02139409 -0.13903046 -0.060392026
0002f0 8d b2 91 3d ef 1a f2 bd db 19 85 3c f3 8c 02 be
       0.07114134 -0.118215434 0.01624768 -0.1274908
000300 90 1d 8c 3d b9 0c 5a 3d ea 78 a6 3d 0a 03 f0 bd
       0.06841576 0.05323479 0.08128531 -0.1171933
000310 9c 85 39 bc 6e 76 ae 3d 75 69 63 bd 48 e8 17 3c
       -0.011323359 0.085186824 -0.055520494 0.009271689
000320 d3 2e ed bc 49 56 20 bd 93 0d e3 3c f1 28 12 3e
       -0.028952992 -0.039144788 0.027716434 0.1427343
000330 b6 48 f8 bd b7 3e 88 bd bb d2 0d 3e 2a af 64 bd
       -0.121232435 -0.06652587 0.13849919 -0.055831112
000340 fc f9 70 3d 2f 99 5b 3b fa 0c a6 3c 21 1b aa bd
       0.058832154 0.0033508053 0.02026986 -0.08305956
000350 e1 b1 28 bd 78 22 ae 3d 80 56 09 3d 9d a4 96 3d
       -0.041185264 0.08502668 0.03352976 0.07355616
000360 e7 13 e8 bd fe b1 fd bd d8 3b 16 bd fa 46 04 3e
       -0.11331921 -0.12387465 -0.036678165 0.129177
000370 5f a5 01 3d 44 14 a6 3d f2 79 c7 3d 7c 10 94 3c
       0.03165185 0.08109334 0.09740056 0.018074267
000380 61 6b f2 bc 4e ef f3 3c 4c 14 31 bd 54 20 c4 bd
       -0.029592218 0.029777195 -0.043232247 -0.095764786
000390 1a 11 0b bc 17 77 91 3d 6e 8f a0 3c 88 65 c5 bd
       -0.008487964 0.07102793 0.019599643 -0.09638506
0003a0 99 71 06 3d cd bc 6a bd 5b b2 84 3d 60 3b 92 3d
       0.03282318 -0.05730896 0.06479331 0.07140231
0003b0 35 f2 b3 bc 36 15 91 bc cf cd 6f 3d f3 2d a4 3d
       -0.02196608 -0.01771031 0.058545884 0.080165766
0003c0 49 ed 4d bd b8 33 80 3d bf ec dd bd a6 29 cd bd
       -0.05027512 0.062598646 -0.10836171 -0.100177094
0003d0 ca 74 b4 bd 8a 70 58 bd 6e 6d 82 bd 72 6d 1a 3d
       -0.08811338 -0.0528417 -0.06368528 0.03770203
0003e0 61 fc 6b bd 2f 6e 09 be fa 7d 09 be c5 c0 f2 bd
       -0.057613734 -0.13420938 -0.13426962 -0.11853174
0003f0 33 b7 4f bd a5 92 16 3d 14 aa 1d 3d 0c 7d 09 be
       -0.05071182 0.036760945 0.038492277 -0.13426608

post_layers.0.bias f4 [64]
000000 98 02 92 3d 34 05 cb 3d 09 1e cb bc 06 3f 64 3d
       0.07129401 0.09913102 -0.024794595 0.055724166
000010 dc da 8a 3d 01 50 12 3b 22 85 9c bd 6f 97 83 3d
       0.06780025 0.0022325518 -0.076425806 0.06425368
000020 98 65 0d bd 27 0b f5 bc 7b 69 a8 3d df 28 cb 3c
       -0.034520715 -0.029912544 0.08223244 0.024799762
000030 e2 0c 86 bd 03 15 e1 bd e6 8b b6 3a 02 66 88 bd
       -0.06545426 -0.10990336 0.0013927191 -0.066600814
000040 0a 8f c7 3a 7e 2f 2d 3d 69 00 b6 bc ff 51 b3 3d
       0.0015225124 0.04228162 -0.022216992 0.08755874
000050 71 24 a0 3d ac 93 cf bc 3a 28 a3 bd 34 a5 d5 bc
       0.07819451 -0.02533897 -0.07966657 -0.026079752
000060 12 b8 8a 3d 65 f2 7e bd 47 e0 b0 bd ca 93 90 bd
       0.0677339 -0.062242884 -0.086365275 -0.070594385
000070 83 bc a4 3c e1 f1 26 3d 6c 81 38 bd f2 c2 30 3c
       0.02010942 0.040758017 -0.0450453 0.010788666
000080 2f 51 e0 bd 6e 33 7b bc cf b4 45 bd 84 ea a0 3c
       -0.109529845 -0.015332086 -0.048268136 0.019643076
000090 05 62 ec 3d 03 f3 ad bd 25 b4 60 bd 80 e3 95 3d
       0.11542133 -0.084936164 -0.0548593 0.07318783
0000a0 2d 6b 85 bd 5c af 8f bd 0f d0 91 bd 7f 36 25 3d
       -0.06514583 -0.07015869 -0.07119762 0.040335175
0000b0 d6 02 e4 3c 4e 70 c7 3d a2 89 0a 3d b1 7c 08 3d
       0.027833384 0.09738217 0.033822663 0.03332204
0000c0 7a 58 95 3d 91 d8 c9 3d 1b 86 46 3b 84 5c aa bd
       0.07292266 0.0985576 0.0030292335 -0.08318427
0000d0 fd 05 54 bd 9b 9a 86 3d 37 ce 96 bd 44 b3 f3 3d
       -0.051763523 0.065724574 -0.07363551 0.118994266
0000e0 5c 2e 00 3e 51 0f e1 bc 73 cf d3 bc 9a a5 d7 3d
       0.12517685 -0.027473124 -0.025855755 0.10529633
0000f0 4d b5 5f bd 5d 94 94 3d 07 fb d3 3d 3b bc 10 3d
       -0.05461626 0.072548606 0.10350614 0.03533576

post_layers.1.weight f4 [64, 64]
000000 ad 12 80 3c 37 33 12 bd 76 07 b9 3c 71 30 c7 3d
       0.015633905 -0.035693374 0.022586565 0.09726036
000010 4f be d6 bc 5e 2d 2d bd 38 e0 91 bd 9a 62 f6 3d
       -0.026213793 -0.042279594 -0.071228445 0.120305255
000020 14 b4 b4 3d ab 6a 04 bd b6 85 86 3d 2c 64 86 bd
       0.0882341 -0.03232829 0.06568472 -0.06562075
000030 6c 46 04 bd 6e aa 0e be 47 1d cf bd 08 9d cb bd
       -0.032293722 -0.13932201 -0.10113006 -0.09942061
000040 42 59 52 3d e7 dd d8 3d 4d 06 56 bd 70 a5 ee 3d
       0.051354654 0.105891995 -0.052252103 0.116526484
000050 66 72 63 3d 6a b9 66 3c 7c 9d db 3d 8d 91 82 bd
       0.05552902 0.014082292 0.10723397 -0.06375418
000060 b0 14 1f 3d c7 8b 0b 3e 4f ca 66 bd ea 1f 26 bd
       0.03883809 0.1362754 -0.05634528 -0.04055778
000070 0f 7d 58 bd 0f 39 02 bd 76 3d 5d 3b 44 9e cc 3d
       -0.05285364 -0.031792697 0.0033758557 0.09991124
000080 dd cc e6 3c 1e 3f d8 bd 83 0e 00 3c 85 ab f8 3c
       0.028173858 -0.10558914 0.00781596 0.030355224
000090 ef e6 24 bd 4d 3c 35 3d 1d cc 46 bd 35 33 66 3c
       -0.040259298 0.04424696 -0.0485345 0.014050295
0000a0 dd de 80 3d bf 6f 8d bd f0 b5 b0 3d aa 5d 81 3c
       0.06292508 -0.069060795 0.08628452 0.015791733
0000b0 c6 29 e2 3d 7d 8d 66 bd 73 16 84 bd 74 e5 75 3d
       0.11043124 -0.056287277 -0.06449594 0.060033277
0000c0 25 bf 0e bd 21 e0 ea bc 2d 61 d3 3d 60 e8 f3 bd
       -0.03485026 -0.028671326 0.10321269 -0.119095564
0000d0 24 22 90 bc bf f9 bd bd 89 4b 97 bd 3c 1a 9f bd
       -0.017594405 -0.09276151 -0.07387454 -0.07768676
0000e0 4f a7 2f 3d 23 d8 f5 bc 21 86 a5 bc 42 5a eb 3d
       0.042884167 -0.030010289 -0.02020556 0.11491825
0000f0 5d 37 1a bd cb 16 15 3e f8 f4 ac 3d 6a 01 e6 3d
       -0.037650455 0.14559476 0.084451616 0.112307385
000100 3a 4d f6 bd 11 13 99 3d 81 b0 60 bd 1e cb e8 3d
       -0.120264485 0.0747434 -0.054855827 0.113668665
000110 44 8a da bd 46 9c f9 bb 7e 0a e4 3d e8 fe 52 bd
       -0.10670903 -0.007617506 0.11134814 -0.05151263
000120 c8 63 f8 bd 08 81 12 be c5 78 e4 bd a3 95 0d be
       -0.12128407 -0.14307034 -0.111558475 -0.13826613
000130 37 42 ae 3d 65 de 06 be 6d 2f ef bd 53 e6 f1 3d
       0.08508723 -0.13170774 -0.116789676 0.11811509
000140 ea 33 62 3b d4 35 55 3d 92 cb 6a bd fc a7 22 3d
       0.0034515806 0.052053288 -0.057323046 0.039710984
000150 f5 17 da bc 85 e0 ef 3d e7 37 00 be 00 62 bc bc
       -0.026622752 0.117127456 -0.12521325 -0.022995949
000160 65 22 4e 3d e7 78 a5 3d 46 88 00 3e 7b 9d 91 3d
       0.05032577 0.08079701 0.12551984 0.07110115
000170 64 3e e1 bb 6a af c6 bc 1f 70 9c bd 33 f9 99 bd
       -0.0068738926 -0.024253566 -0.07638573 -0.07518234
000180 95 da 5a bc 86 e8 86 3d 74 5d c2 3d f1 19 83 bd
       -0.013357778 0.06587319 0.09490481 -0.06401432
000190 1e de be 3d fa 3b fa bd 11 ce b3 bd 2b 27 1d be
       0.09319709 -0.12218471 -0.087795384 -0.15346973
0001a0 cc 8c cb 3d 7f c4 8d 3d 37 30 b2 bc 07 ed 34 3d
       0.09938964 0.06922244 -0.021751506 0.04417136
0001b0 8b 19 bd 3d 84 2d 59 bd 46 24 d4 3d 50 f8 53 bd
       0.092333876 -0.053021923 0.10358481 -0.05175048
0001c0 9e 49 00 3e c7 2a 01 3e 01 fd 72 bd c2 36 8c bd
       0.12528083 0.12613975 -0.059323315 -0.06846382
0001d0 af d7 2e 3c bb ad 37 3d fe 40 42 bd 05 08 e4 3c
       0.01067154 0.044843417 -0.047425263 0.027835855
0001e0 0d 5c 4c bc fd 19 93 3d a1 ee b6 3d 08 57 95 3d
       -0.0124731185 0.07182691 0.089322336 0.072919905
0001f0 e7 c4 50 3d 89 32 ae 3d 2e f9 0d 3e f2 06 b1 3d
       0.05096903 0.085057326 0.13864586 0.08643903
000200 08 68 8d 3b dc ca b1 3d 09 19 1f bd a0 64 2a bd
       0.00431538 0.086812705 -0.038842235 -0.04159987
000210 2b 52 68 3d a5 ea 80 bc cc 5b dd 3d 22 f6 5f bd
       0.056718986 -0.015736887 0.108085245 -0.05467809
000220 67 dd c7 3d c2 30 e0 3d d4 3a d9 bd db 90 88 bd
       0.09759026 0.109468 -0.10606924 -0.06668254
000230 c6 8d 6b 3c ac 72 a3 3c de 15 e4 3d 52 70 c2 bc
       0.014377063 0.01995214 0.11136983 -0.0237352
000240 92 91 b4 b9 c9 c1 43 bd d2 98 28 3d 3b 34 3a ba
       -0.00034440734 -0.04779223 0.041161366 -0.000710312
000250 7a ea c7 bd 69 b4 10 3e c7 79 a7 3c e5 37 a2 3d
       -0.0976152 0.14131321 0.02044381 0.07920817
000260 23 88 02 3e 1a 42 03 3e 30 3a e5 3d b1 e9 83 3c
       0.12747245 0.12818184 0.11192739 0.016102644
000270 25 a8 76 3d 8b 5b bf 3d 5a dd 59 3d 06 f0 e4 bd
       0.06021895 0.09343632 0.053189613 -0.11178593
000280 10 6a 3d 3d 8f be cb 3d a7 05 29 3c e1 ae 23 3d
       0.046243727 0.099484555 0.010316289 0.0399617
000290 fa 3a f9 3c ee 99 67 3c 5b 3a 7a bd 55 56 c7 3d
       0.03042363 0.014135821 -0.06109081 0.097332634
0002a0 f4 1d 42 bc 2f 10 9b bd 16 d3 69 bc 86 32 16 be
       -0.011847962 -0.07571446 -0.014271518 -0.1466771
0002b0 84 fe 08 3e 22 b9 63 bd 86 af 83 3d 62 66 0d 3d
       0.1337834 -0.05559648 0.06429963 0.034521468
0002c0 ac f4 89 3d 95 de 11 3e 4b 95 96 bd de 03 35 3d
       0.067361206 0.14245065 -0.07352694 0.04419314
0002d0 f4 4f b9 bd 2a 31 b9 3d bc f8 5f 3c 47 9c 38 3c
       -0.09048453 0.090425804 0.013670143 0.011267728
0002e0 69 78 84 3d 10 d6 18 3d cb 4e a3 3d e0 44 8b bd
       0.06468279 0.03731352 0.07974013 -0.06800246
0002f0 1a b8 c0 bd 5f 52 84 3d ac 07 cd bd 86 51 e1 bd
       -0.094101146 0.064610235 -0.10011229 -0.110018775
000300 39 af af 3d 68 ee ca 3c 51 39 d6 3c 41 0d 7b bd
       0.08578343 0.024771884 0.026150377 -0.061291937
000310 49 6c 00 3e f8 8b cc 3d 1b 47 49 3d 78 e6 cf bd
       0.12541308 0.099876344 0.049140077 -0.1015138
000320 20 85 d7 3c ac 9b 63 3d 48 40 f8 bd cb 85 c6 bc
       0.026308596 0.055568382 -0.12121636 -0.02423372
000330 e9 d5 94 bd a0 87 dd bd 53 d2 f2 3d 28 7f 40 bd
       -0.072673626 -0.10816884 0.118565224 -0.046996266
000340 43 34 5a 3b e9 8c bf bd ad d0 20 bd 15 a3 dc 3d
       0.003329531 -0.09353048 -0.03926151 0.10773293
000350 c6 1e ad 3d 01 92 b5 bd 1f 87 ea 3d 66 90 7a bc
       0.08453135 -0.08865739 0.114515536 -0.015293216
000360 94 8a 42 3c 3c 70 c0 3d 9f 4c 13 3e 29 f5 ef 3a
       0.01187386 0.09396407 0.14384697 0.0018307316
000370 47 8d a2 bd 57 fe 03 bd 4c 8c 81 3d 82 e6 d9 bd
       -0.07937103 -0.03222498 0.06325588 -0.10639669
000380 19 21 d2 3d ef 2d 49 bd 23 ce cb bc fc 29 87 3c
       0.10260219 -0.04911607 -0.024878567 0.016499512
000390 44 99 f2 bd 31 d2 15 bc d7 c3 b1 3d 25 ad bf 3d
       -0.11845639 -0.009144352 0.086799316 0.093591966
0003a0 c2 d6 2f 3d 6d 22 8a bd 66 8f aa bd 5c 81 f1 bc
       0.04292942 -0.067448474 -0.08328132 -0.029480629
0003b0 f4 ea 82 3d 8a 78 07 3e e8 7b a5 bd 40 34 bb bd
       0.0639247 0.13229576 -0.08080274 -0.09140825
0003c0 ea 6f c9 3d 6d 09 86 3b 09 4c a9 bd be 75 65 3d
       0.09835799 0.004090479 -0.08266456 0.05602049
0003d0 83 5e 5e bd 5c 9d a6 3d ec 91 06 be cf ae b4 3d
       -0.054289352 0.08135483 -0.13141602 0.088224046
0003e0 60 62 65 bd 05 61 ce bd 72 64 1b bd c4 3d bb 3d
       -0.05600202 -0.10077099 -0.03793759 0.0914264
0003f0 06 f2 d1 3d 68 7b 1f bb 29 52 92 bd d9 58 46 3c
       0.102512404 -0.002433503 -0.07144577 0.012106144

post_layers.1.bias f4 [64]
000000 26 1c 02 bd f0 37 bf bd a0 cd 96 bd 1c 1e 07 3e
       -0.031765126 -0.09336841 -0.073634386 0.1319508
000010 d7 55 f6 3d e7 e4 3b 3d 30 3f fc 3d 0f ec ad bd
       0.120280914 0.045872595 0.123167396 -0.0849229
000020 7c 9f d2 3d e5 c8 c2 3d 83 58 fa bc 53 90 96 3d
       0.102843255 0.09510974 -0.030559784 0.073517464
000030 62 5f 09 3e a8 e7 ce 3d a1 11 d1 3d aa ba e8 3d
       0.13415292 0.10102779 0.102084406 0.11363728
000040 f4 0b 12 be da f7 81 bd 8f 07 8f bd 4d f8 9c bd
       -0.14262372 -0.06346102 -0.069838636 -0.07664547
000050 05 70 9d bc 1e f1 56 bd 1b 7f a2 3d eb 4d ff bc
       -0.019218454 -0.05247604 0.079344 -0.031165084
000060 71 a9 0e 3e 93 75 b6 3d 3e 69 66 bd 52 46 a2 bd
       0.13931824 0.08909144 -0.05625271 -0.07923569
000070 70 8f 47 3d 1f d4 c8 3d 3d 6b 37 bd 3b 84 e3 3d
       0.048720777 0.09806084 -0.044780005 0.11109205
000080 7e 59 ba bd bb b1 d5 bd b9 eb 98 3d d5 a7 94 bb
       -0.090991005 -0.1043429 0.074668355 -0.0045366087
000090 ee 21 64 bd a0 a0 58 3d cf ea 51 3c 27 ec a6 bd
       -0.05569642 0.05288756 0.01281233 -0.08150511
0000a0 5f c3 9d 3b c5 18 a2 bd bb d5 b1 3c 60 3b 48 3d
       0.00481455 -0.07914881 0.02170836 0.04888475
0000b0 c8 14 ee bc 11 90 38 bd 85 81 87 bb 2b b6 9b bd
       -0.029062644 -0.045059267 -0.004135313 -0.07603105
0000c0 aa 2b 74 3d 1b cf a5 3d da e7 2b bd fa d3 01 3e
       0.059611954 0.08096143 -0.041969158 0.12678519
0000d0 78 f6 f7 bb 82 b2 af 3c d7 17 c0 3d 1d cd 7f bb
       -0.007567223 0.021447424 0.09379547 -0.003903217
0000e0 51 e2 04 bd 8d bd e3 bc 43 15 7c bd e8 94 de 3d
       -0.032442395 -0.027800346 -0.061543714 0.10868245
0000f0 05 77 9a bd 1c d4 bd bd 82 82 aa bc c6 0a dc 3d
       -0.075422324 -0.09268972 -0.020814184 0.10744242

post_layers.2.weight f4 [64, 64]
000000 89 30 e9 3d 9d 00 90 3d a6 33 ad 3d 4f 3b 11 3e
       0.113862105 0.07031367 0.08457117 0.1418278
000010 d1 4c 13 3d 0f f8 22 bc 22 53 dd bc ee 18 a4 3d
       0.03596193 -0.009946837 -0.02701718 0.080125675
000020 42 ce 42 3c db ad 9e 3d c5 40 16 be b9 c5 d7 3c
       0.011889996 0.07748004 -0.14673145 0.026339399
000030 e8 40 e6 3d 55 41 33 bd ba 90 89 bd 65 b9 73 bd
       0.11242849 -0.043763477 -0.067170575 -0.059502978
000040 28 ee 08 be 13 32 90 3c a8 dc 13 bd 60 2e 2c bd
       -0.133721 0.017602002 -0.036099106 -0.042036414
000050 08 4a 04 3e 1e d3 33 bd 1a 59 59 3d 89 c3 ef 3c
       0.12918866 -0.04390251 0.05306349 0.029268043
000060 42 01 ea 3d 57 1e c2 bd 46 2d 69 3c e6 92 2b be
       0.11426021 -0.09478443 0.014231985 -0.16755256
000070 dd 61 a8 bd a3 08 0c be 69 8d 17 3c 6e ac 04 3e
       -0.08221791 -0.1367517 0.009250023 0.12956402
000080 6a 7d b9 3d 9e 58 4c be d7 a7 1c 3d 03 47 80 3c
       0.09057124 -0.1995568 0.038246002 0.015658861
000090 fd 46 c3 3d 2c 06 a1 bd 34 70 89 bd 75 35 a3 3d
       0.09535024 -0.07862505 -0.06710854 0.079691805
0000a0 fc f6 8b bd e5 c2 98 bd ef cd b2 bd 97 6a f5 3d
       -0.06834218 -0.07459048 -0.08730685 0.11983221
0000b0 d6 24 b8 3d f4 d4 a1 bd 21 ca c9 3d d7 e4 01 bd
       0.08991401 -0.07901946 0.09853006 -0.03171238
0000c0 2a d3 28 3d 0c b6 07 3e 7c c7 e9 3d 67 3d ba 3d
       0.041217007 0.13253039 0.11415002 0.09093743
0000d0 e8 6d 8f 3d 20 7d 83 3d bf aa cb bd 68 bc c5 bd
       0.07003385 0.0642035 -0.099446766 -0.09655076
0000e0 b7 ba d8 3c 29 26 25 bd 02 d7 79 3d 30 bd 44 3d
       0.02645622 -0.040319595 0.060996063 0.048031986
0000f0 26 69 db bb dc fd bc 3d a2 7c 19 bd cb 34 14 bd
       -0.0066958843 0.09228107 -0.037472375 -0.03618316
000100 74 ad ef bd 91 93 15 bc 88 f9 ad bd 50 d4 06 be
       -0.117030054 -0.009129421 -0.0849486 -0.13166928
000110 62 26 01 be 83 03 9b bd ae 75 98 3c 98 b0 e6 bd
       -0.12612298 -0.07569029 0.018610802 -0.11264151
000120 c5 51 39 3d e1 11 d2 bd 56 eb 1f be 7d f9 a1 3c
       0.045243997 -0.102573164 -0.15617117 0.019772286
000130 7d ce 4c bc b0 01 b6 bd 2c be 22 3d 7a ed f1 bd
       -0.0125004025 -0.088870406 0.039732143 -0.11812873
000140 ae 68 f0 bc f9 3e 9e 3d e8 c0 19 bd e8 25 81 bd
       -0.02934679 0.07726855 -0.037537485 -0.06306058
000150 cd c3 1e 3d dc d6 0a bd 1c b0 bd 3d bd 70 ba 3d
       0.03876095 -0.033896312 0.09262106 0.09103534
000160 e5 78 02 3d 14 bb 17 bd 9f eb c3 3d 7c 1b 8a 3d
       0.031853575 -0.037043646 0.095664255 0.067435235
000170 26 30 2f be c3 c2 81 bd fe dd eb 3c c4 66 c2 bc
       -0.17108211 -0.06335976 0.028792378 -0.023730643
000180 97 94 c5 bd 98 dc 00 be ac 0a f5 3d f2 71 0f 3d
       -0.09647482 -0.1258415 0.11964926 0.035020776
000190 2b b8 6c bd 1a 7f a9 bd 1e 4b 03 bd bf c8 84 bc
       -0.057792824 -0.08276196 -0.03205406 -0.016209004
0001a0 86 65 04 3e 1e 01 1a 3c 48 01 28 3d 82 46 01 be
       0.12929353 0.00939968 0.041016847 -0.12624553
0001b0 58 48 2f 3d 9d 1d 15 3d 48 91 e6 3d 7d e3 e0 3d
       0.0427936 0.036405195 0.11258179 0.1098089
0001c0 07 f8 68 3c a9 77 92 3d 00 e0 7a 3d a7 4f 00 bc
       0.014219291 0.071517296 0.06124878 -0.007831491
0001d0 11 2b 34 3c 9f 92 d0 bd ac 5c a6 bc 8b 46 85 3d
       0.010996596 -0.10184216 -0.020307861 0.06507596
0001e0 f4 30 1b 3d 82 b1 16 3d 77 19 34 be 60 91 cd 3c
       0.037888482 0.03679038 -0.17587839 0.025093734
0001f0 d4 2f d8 3c 67 2b 03 be 69 b3 76 bb 83 84 24 3d
       0.026389994 -0.12809525 -0.0037643558 0.040165436
000200 23 b4 0d bd 9f 2f 0e 3c 2a 6e 12 bd 2c 98 f9 bd
       -0.03459562 0.008678346 -0.035749592 -0.121872276
000210 3f 79 d0 3c c1 85 ef bd 8e 49 03 3d 80 d9 4e bc
       0.02544844 -0.116954334 0.03205257 -0.012625098
000220 9e 2c 32 ba 02 24 6f bd 26 7f cd 3d eb 99 90 bd
       -0.00067968096 -0.05838395 0.10034017 -0.070606075
000230 06 e2 bf 3d 2d a6 cf bd f6 3f 69 3d 51 7c a0 3d
       0.093692824 -0.101391174 0.056945764 0.078362115
000240 4c 7e 28 bd 97 c4 9e bd da f0 05 bd d7 3b aa bd
       -0.04113607 -0.0775234 -0.032700397 -0.08312195
000250 93 51 81 3c a0 a4 5f 3c 3f 98 18 bd e9 7e 7a bd
       0.015785968 0.0136500895 -0.03725457 -0.061156187
000260 71 5a c2 bd 1c b1 7c bd fc 7a ef bd 1c e8 84 bd
       -0.094899066 -0.061692342 -0.11693379 -0.06489584
000270 17 26 8c 3d 34 7f 8f bc aa dc b7 bd 3f bb 29 3d
       0.068432026 -0.01751671 -0.08977635 0.041438337
000280 67 71 00 3d 48 6f 2f 3d 25 82 c8 bd 85 83 9f 3d
       0.03135815 0.042830735 -0.09790448 0.07788757
000290 fd 23 e1 bd 3b 3a e4 3d 6e c7 bb 3d cc 0e b4 3b
       -0.10993192 0.11143919 0.091688976 0.005494928
0002a0 53 7a ae 3d 54 61 26 3d fc e5 2d bd 51 1a 5b 3d
       0.08519425 0.040620163 -0.04245566 0.053491894
0002b0 6b 3d 74 3d 51 58 00 bd cb f0 23 3d 66 d7 17 3c
       0.059628885 -0.031334225 0.04002456 0.009267664
0002c0 f3 ed df bd 5d 08 a9 bd 60 b8 44 3d ce 3c f9 bd
       -0.10934057 -0.08253548 0.048027396 -0.12169801
0002d0 12 fb be bd 7f a8 a9 3d 4c dd d2 bc 08 6d 5a 3c
       -0.093252316 0.08284091 -0.025740288 0.013331659
0002e0 0f 54 dd bb 9e bf 58 bc 93 71 a9 3d 4a 5b cc 3d
       -0.0067544053 -0.013229279 0.08273616 0.099783495
0002f0 1e 2d 04 be 8e ce 42 bd 7a 9f ed bd 02 99 77 bd
       -0.12907836 -0.047560267 -0.11602683 -0.060448654
000300 09 bd 36 be d9 e9 bb bd 7b ba 0a 3d 19 14 92 bd
       -0.17845549 -0.09175462 0.033869248 -0.071327396
000310 61 ed 9c bd 49 7e cf 3d b7 98 88 bd dd 84 fc bd
       -0.07662464 0.10131509 -0.06669753 -0.12330029
000320 ff d4 8a 3d f2 86 19 3d 30 f6 93 bd 35 d4 a0 bd
       0.06778907 0.03748221 -0.07224691 -0.07852975
000330 50 7c 1d 3d 2b 11 2e 3d 98 b8 ff 3b bc 6d a8 3d
       0.03844863 0.04249684 0.0078039877 0.08224055
000340 9f 29 38 bd 89 bc a1 3d fe 12 a2 3d 64 91 ca 3d
       -0.044961568 0.07897288 0.07913779 0.09891012
000350 8c 18 b3 3d 88 67 b5 3c 6a 42 d5 3d 66 fc 28 bd
       0.08744916 0.022144094 0.10413058 -0.04125633
000360 f6 e2 79 3d a1 61 44 3d ef e3 0b be 09 3b 19 3e
       0.061007462 0.04794467 -0.13661169 0.14963926
000370 07 28 bf bd c0 2f 19 3e c0 1d c0 bd 89 47 9f 3c
       -0.093338065 0.14959621 -0.09380674 0.01944329
000380 d5 64 be bd 45 aa d0 bc ba c6 9a bd 56 e7 5c bd
       -0.09296576 -0.025471816 -0.07557435 -0.053931557
000390 86 c7 c9 3d 96 ff f5 3d 36 ca 4a 3d 36 1f ff bd
       0.09852509 0.1201164 0.04950925 -0.12457125
0003a0 d5 72 81 3d af d5 86 3c 58 25 94 3c ec b2 5b bd
       0.063207306 0.016459314 0.018084213 -0.05363743
0003b0 cc 84 55 be 61 8a 5e 3b 78 62 50 bd fa 30 25 3e
       -0.20851439 0.0033956992 -0.050875157 0.16131964
0003c0 ad 8e 8f bd 9b 8d 4d 3b 70 19 77 bd 70 e2 83 bc
       -0.07009635 0.003136492 -0.060326993 -0.016099185
0003d0 13 1c 66 3d bd f7 20 bd 63 2a ff bd 86 73 8e bc
       0.056179117 -0.03929876 -0.124592565 -0.01738907
0003e0 dd 95 0f bd 66 03 aa 3d 23 64 80 3d d8 95 8d bd
       -0.03505503 0.083014295 0.062690996 -0.06913346
0003f0 46 1a 0b bc c9 7c 11 3e 15 8b 0d 3e 5e 27 27 3d
       -0.008490151 0.14207758 0.13822587 0.040809028

post_layers.2.bias f4 [64]
000000 ef 3b 6b 3d 2b c3 22 3d f3 9b f1 bd dc 49 ed 3c
       0.057430204 0.039736908 -0.11797323 0.028965883
000010 3d e9 d9 3d 0a 7b 8d bd 97 4b 16 bd 1f c6 7b 3c
       0.1064019 -0.069082335 -0.03669318 0.01536706
000020 af c8 ee bd e1 bd 93 3d c1 ff 66 bd 02 dc 0c 3c
       -0.11659371 0.07213951 -0.05639625 0.008597376
000030 8a ce e1 3d a7 5d d4 b9 8e 75 ac 3c 30 29 b4 bd
       0.11025722 -0.00040505567 0.021052148 -0.087969184
000040 6b a2 c7 bd 60 16 93 3d ea 81 76 3d 05 f5 87 bd
       -0.09747776 0.07182002 0.06018249 -0.06638531
000050 f5 58 9c bd 3f 3e 29 3d f7 e7 91 3d 01 54 bb 3d
       -0.07634155 0.041319128 0.07124322 0.09146882
000060 d7 ab 9c 3d a8 ad f2 3d 3f e5 76 bd 99 83 c8 3d
       0.07649963 0.118495286 -0.06027722 0.09790725
000070 39 0d 4a 3d 66 45 6d 3c af 5a 68 bd 2d f7 ad 3d
       0.049329016 0.014481878 -0.056727108 0.08494411
000080 ab 69 69 bd e0 8a 8f bc 72 11 7f 3d 0e e1 64 3b
       -0.05698554 -0.017522275 0.062272497 0.0034924182
000090 34 76 79 3c a8 af a9 3d 40 dd e1 bd 61 89 e0 3d
       0.015225936 0.08285457 -0.11028528 0.10963703
0000a0 20 d6 d5 bb ba 81 ad bd 5d 86 85 3d 04 dc df 3c
       -0.00652577 -0.08472009 0.065197684 0.027326591
0000b0 1a bd 92 bd 0e dd 9d 3d 0b 7d c1 bd ac 8e 49 3d
       -0.071649745 0.077081785 -0.09447678 0.049208328
0000c0 00 91 1b 3d 15 ab f7 bc 7c 9a 43 3d 26 1f 23 3c
       0.03798008 -0.030232945 0.04775475 0.009956157
0000d0 94 50 a3 3b 4e 78 17 bd 50 80 bf 3d 55 e8 b8 3d
       0.004983971 -0.036979966 0.093506455 0.09028689
0000e0 dc 75 bb bd 73 a4 9d 3d 9c 36 5a bd ac 1e 88 bd
       -0.09153339 0.07697382 -0.053274736 -0.06646475
0000f0 e2 e7 f9 bc 5d e0 01 3e 7f 7f 8b 3c fe 66 3f 3d
       -0.030506078 0.12683244 0.017028568 0.04672908

output_layer.weight f4 [1, 64]
000000 07 d2 0b 3e 3d 23 03 be 57 b4 3f bd 17 ed 97 bd
       0.13654338 -0.12806411 -0.046802845 -0.07418268
000010 65 68 05 3e d6 33 fa bd c7 b5 e2 3d 76 e7 e0 bd
       0.13028105 -0.12216918 0.110698275 -0.10981648
000020 82 5d f2 bd c0 d3 0d 3e 0e ec cf bd 9a c6 53 be
       -0.118342414 0.13850307 -0.10152446 -0.20681229
000030 83 aa 54 3d 42 4c 89 3d 60 9e 95 3d c5 39 ed bd
       0.051920425 0.06703998 0.07305598 -0.11583284
000040 17 90 84 bd 6e 8a 2c bd a4 52 07 3e b2 01 dd 3d
       -0.064727955 -0.042124204 0.13215119 0.10791339
000050 8f 6c 8f bb 77 6a 04 3e 0d 8c 31 be ae 6b a7 bc
       -0.004376955 0.12931238 -0.17338581 -0.020437088
000060 09 64 9e 3d d0 ad fc 3d 58 b4 62 bd 2a 08 f8 3d
       0.07733924 0.123378396 -0.05534777 0.12110932
000070 1d 35 f4 bd b2 d1 83 3d c7 45 92 3d 53 9c aa 3d
       -0.11924193 0.064364806 0.07142215 0.08330598
000080 fa 9e 87 3d 9e f6 44 be ff 25 0e 3d 60 0c 05 3e
       0.06622119 -0.19234702 0.034704205 0.12993002
000090 65 b6 c9 3d a0 2d da 3d 0e 85 9a bd 21 b1 b0 bd
       0.09849242 0.106532335 -0.075449094 -0.08627535
0000a0 8d 3f 06 3e 51 ce d3 bd 53 13 b5 3c 26 38 bc bd
       0.1311018 -0.10342086 0.022103941 -0.09190397
0000b0 80 0a 03 be a4 c3 04 3d ba 5b 81 bb a8 f9 a1 3c
       -0.12796974 0.03241314 -0.0039477022 0.019772366
0000c0 59 1e cc 3d 0e 5a af 3d 52 1f dd 3d ab 47 d0 bd
       0.09966726 0.085620984 0.107969895 -0.101699196
0000d0 0a cd 1d be 4f 38 44 be 80 22 27 be b2 3c a1 bd
       -0.15410247 -0.19162105 -0.16321754 -0.07872905
0000e0 01 0a f3 bd 45 2e 1e bd 0a f8 01 be d0 3a 36 be
       -0.118671425 -0.038618345 -0.12692276 -0.17795873
0000f0 85 41 5e 3d 5f 5a 58 3d 41 cd 4a 3d 53 5f 12 3e
       0.054261703 0.05282056 0.04951215 0.14294176
