saved_models/2023-04-19_00-04-11/model.pth (torch, 465682 bytes, 44 tensors)

type_embedding.weight f4 [100, 100]
0	0xbf5dcc1f	-0.8663959
1	0x3e367076	0.17816338
2	0xbef0628c	-0.46950185
3	0xbf8cc5c5	-1.0997854
4	0x3ee6dc0a	0.4508975
5	0xbfa75765	-1.3073546
6	0xbdb5edda	-0.08883257
7	0xbe1ca31c	-0.15296596
8	0x3f9af1cb	1.2105039
9	0xbf933fe9	-1.1503879
10	0x3f1a6ce0	0.6032238
11	0x3fda02ef	1.7032145
12	0x3fc5004a	1.5390713
13	0x3f82813f	1.0195693
14	0x3e9444bb	0.28958687
15	0xbe04d743	-0.12972741
16	0xbfc2b629	-1.5211841
17	0x3ea991c5	0.33119026
18	0xbf83a795	-1.0285517
19	0x401fcbcb	2.4968135
20	0x3f438bca	0.76385176
21	0xbf1c6be3	-0.6110212
22	0x3db64bf7	0.08901208
23	0x3f0fdebe	0.5619925
24	0xc00b5efe	-2.1776729
25	0x3f814279	1.0098411
26	0x3e6c851d	0.23097654
27	0x3f0ec883	0.55774707
28	0x3f17c664	0.59287095
29	0xbede892c	-0.4346403
30	0x3f4067d0	0.75158405
31	0xbf2c579c	-0.6732118
32	0x3e481ed6	0.19543013
33	0x3f8cfe3c	1.1015086
34	0x3cb13e61	0.02163619
35	0xbd537ae3	-0.051630866
36	0x3f0cb4f4	0.5496361
37	0x3f9aa680	1.2082062
38	0xbfb6c587	-1.427903
39	0xbf0bff32	-0.5468627
40	0x3f2d6bf5	0.67742854
41	0xbe8a3eef	-0.2700114
42	0xbff1d844	-1.8894124
43	0xbebf165d	-0.3732175
44	0xbf3db620	-0.74106026
45	0xbeb1ec51	-0.34750608
46	0xbf97ee05	-1.1869513
47	0x3faebcd2	1.3651373
48	0x3e27554c	0.16341132
49	0x3ec649f0	0.38728285
50	0xbfee15a3	-1.8600353
51	0x3f4ccf94	0.8000424
52	0x3ff80b20	1.9378395
53	0xbd3f750b	-0.04674248
54	0x3f4f9719	0.8108993
55	0xbee74a8e	-0.45174068
56	0xbe4ebc53	-0.20189027
57	0xbf1f48f1	-0.62220675
58	0xbfb8f211	-1.4448873
59	0xbfa117ca	-1.2585385
60	0x3e59c6be	0.2126722
61	0xbf213497	-0.6297087
62	0xbd90bc47	-0.07067161
63	0x3f08d6b0	0.5345259
64	0xbfa51c60	-1.2899284
65	0x3c4d3583	0.012524965
66	0xbf16d1f7	-0.5891413
67	0x3fc89f5c	1.5673633
68	0xbf8479a9	-1.0349628
69	0x3df6031b	0.12012311
70	0x3eae73d9	0.3407276
71	0x3f05be5d	0.52243596
72	0x3f92422d	1.1426445
73	0xbdc3a354	-0.09552637
74	0x3f1186c7	0.5684628
75	0x3f583cbe	0.84467685
76	0x3f1d9a7e	0.6156386
77	0xbcadabbc	-0.021200053
78	0x3f4213bd	0.7581137
79	0xbda79d44	-0.08184293
80	0x3f5b6edb	0.8571603
81	0xbddc4bb0	-0.10756624
82	0xbfcbc67a	-1.5919945
83	0xbf83aa98	-1.0286436
84	0xbeb22e20	-0.34800816
85	0x3f7baf67	0.9831452
86	0xbfa93566	-1.3219421
87	0xbf13cd8d	-0.5773552
88	0xbe0255ac	-0.12727994
89	0x3f9dc3d1	1.2325383
90	0x3f3a54aa	0.7278544
91	0xbf65bad0	-0.8973818
92	0x3fa6bc04	1.3026128
93	0xbf4f513f	-0.80983347
94	0xbe10f3da	-0.14155522
95	0x3f92ea38	1.1477728
96	0x3f8ea97a	1.114547
97	0xbeb5afb9	-0.35485628
98	0x3fb8bc9e	1.4432561
99	0x3ef66e8a	0.4813121
100	0xbeba8b9c	-0.36434639
101	0xbf4e255f	-0.80525774
102	0xc01036ea	-2.2533517
103	0xbf671331	-0.9026366
104	0x3e9011ff	0.2813873
105	0x400367af	2.0532033
106	0x3e569bb2	0.2095783
107	0x3f628358	0.88481665
108	0xbe2707e2	-0.16311601
109	0xbf80874f	-1.0041293
110	0x3fa3af18	1.2787809
111	0x4004bc53	2.0739944
112	0x3f0f6e72	0.560279
113	0x3e2bb64b	0.16768758
114	0xbf51c8a5	-0.81946784
115	0x3ecd1525	0.40055194
116	0x3f59d4d6	0.85090387
117	0x3fbd3d39	1.4784309
118	0xbeabd84b	-0.33563456
119	0xbea9f5e9	-0.33195427
120	0x3f515dd3	0.8178379
121	0x3f0d5209	0.552033
122	0x3ea828ef	0.3284373
123	0x3f09f43d	0.53888303
124	0xbe2ed35a	-0.17072812
125	0x3f863da5	1.0487562
126	0xbf0ce467	-0.55036014
127	0xbf6671b6	-0.9001726
128	0x3ff0a55c	1.8800464
129	0x3c405a64	0.011740301
130	0x3f94fbb7	1.1639317
131	0x3ed32235	0.41237035
132	0xbe846a90	-0.2586255
133	0x3e857d91	0.26072362
134	0xbf930352	-1.1485388
135	0x3e1264fa	0.14296332
136	0x3e11e002	0.14245608
137	0xbf3ff379	-0.74980885
138	0xbedcbf28	-0.4311459
139	0xbfcf9369	-1.6216861
140	0xbf8551c9	-1.0415584
141	0xbfd58c76	-1.668349
142	0x3cb9c750	0.022678047
143	0xbf30b249	-0.6902204
144	0x3f63e83c	0.89026237
145	0x3f94c35f	1.1622123
146	0xbf0ac031	-0.5419951
147	0xbf83af0f	-1.0287799
148	0xbf97e80b	-1.1867689
149	0xc043d12c	-3.0596418
150	0xbfb1d2e3	-1.3892483
151	0x3fe9b257	1.825755
152	0x3f7a2f13	0.9772808
153	0xbe3c2069	-0.18371738
154	0xbd6ecee4	-0.058302775
155	0xbee71293	-0.45131359
156	0xbf415aa1	-0.75528914
157	0x3f346d72	0.704795
158	0xbfa2d3bc	-1.2720866
159	0x3f60a4c2	0.877514
160	0xbed4b310	-0.41542864
161	0x3ef8dc74	0.48605692
162	0x3fa7c077	1.3105611
163	0x3f16f0d7	0.5896124
164	0xbff451bb	-1.9087442
165	0x3ec4b104	0.38416302
166	0xbf4c875b	-0.79894036
167	0x3e3e42ef	0.1858022
168	0x3efc8f95	0.49328294
169	0x3f02905f	0.5100154
170	0xbddb948b	-0.10721692
171	0xbe72f2ab	-0.23725383
172	0xbf4b08be	-0.79310215
173	0x3e1df303	0.15424733
174	0xbff14112	-1.8847983
175	0x3f216e25	0.6305869
176	0xbf81b960	-1.0134697
177	0x3f31071f	0.6915149
178	0xbeace46c	-0.33768022
179	0x3ec63904	0.38715374
180	0x3f10d784	0.5657885
181	0xbf8ab822	-1.0837443
182	0xbf0d367d	-0.5516127
183	0x3f7c9663	0.9866697
184	0x3ec0afa9	0.37634018
185	0x3ec3fdcc	0.3827957
186	0xbf0aaab3	-0.54166716
187	0xbf46dc19	-0.7767959
188	0xbdd4472b	-0.10365137
189	0xbf16dc1c	-0.5892961
190	0x3c955f46	0.018233906
191	0x3f5df220	0.8669758
192	0xbfa809e3	-1.3128017
193	0x3f9840fc	1.1894832
194	0x3e9e24f1	0.3088756
195	0xbf96bc0a	-1.1776135
196	0xbed1ced5	-0.40978113
197	0x3eedbe13	0.46434078
198	0xbf4449b7	-0.7667498
199	0xbef08913	-0.4697958
200	0x3f2d0760	0.6758938
201	0xbd8eb514	-0.06968132
202	0xbf0980c5	-0.5371211
203	0x3ff396e6	1.9030426
204	0xbe3ea0e7	-0.18616067
205	0xbf180f46	-0.59398305
206	0xbf42cc70	-0.76093197
207	0xbfc9adc4	-1.5756154
208	0xbededbde	-0.4352712
209	0x3ff869cf	1.940729
210	0xbd8e21d4	-0.06940046
211	0x402c1511	2.6887858
212	0xbf3f068d	-0.7461937
213	0x3eec68a5	0.46173587
214	0xbeb0b2d4	-0.34511435
215	0xbfa8dc3e	-1.3192213
216	0x3cb043c2	0.021516684
217	0xbfb35961	-1.4011651
218	0x3fcc3bae	1.5955713
219	0xbe2e9932	-0.17050627
220	0x3fcd1e3b	1.6024851
221	0x3e89a20d	0.26881447
222	0x3f6a864a	0.9161116
223	0xbf1fa628	-0.6236291
224	0x3e25b104	0.16180807
225	0x3f9141ca	1.1348202
226	0x3f6c09cf	0.92202467
227	0xbeeaa520	-0.45829105
228	0x3fed43e3	1.8536342
229	0xbea99750	-0.33123255
230	0xbf0e3afc	-0.55558753
231	0xbf23a56a	-0.63924277
232	0x400bcc8b	2.1843593
233	0xbf85487c	-1.0412745
234	0xbe7a953a	-0.24470988
235	0x3ea76560	0.3269453
236	0xbf8f0402	-1.1173098
237	0x3e8c704e	0.27429432
238	0xbfc0829f	-1.5039862
239	0x3f2c54e4	0.6731703
240	0x3e843470	0.25821257
241	0x3f2964d3	0.6616947
242	0xbf2dbf6a	-0.678702
243	0xbeba2655	-0.3635737
244	0x3f166f56	0.58763635
245	0x3e0414c8	0.12898552
246	0xbf06afea	-0.52612174
247	0xbee49845	-0.44647422
248	0xbf05db9a	-0.5228821
249	0x3f879eca	1.0595334
250	0x3c871be8	0.016492799
251	0x3f650854	0.8946583
252	0x3fcc8e42	1.5980914
253	0x3ee5b64e	0.4486565
254	0xbec5743a	-0.38565236
255	0xbf80ad4e	-1.0052888

distance_expansion.means f4 [32]
0	0x3da4e6dd	0.08051846
1	0x3d28568f	0.041098174
2	0x3dc2a621	0.09504343
3	0x3dd7be4d	0.10534344
4	0x3e0cb360	0.13740301
5	0x3dd44279	0.10364241
6	0x3e320110	0.17383218
7	0x3e55fa86	0.20896348
8	0x3e758a43	0.23978524
9	0x3e86a46e	0.26297325
10	0x3e9cb0cb	0.30603632
11	0x3ea6d244	0.32582295
12	0x3ead42f8	0.33840156
13	0x3ec5d7f6	0.38641328
14	0x3edac7e0	0.42730618
15	0x3ee8268b	0.45341906
16	0x3efe6290	0.49684572
17	0x3f09e662	0.5386716
18	0x3f149c68	0.58051157
19	0x3f193033	0.5983917
20	0x3f22604f	0.63428205
21	0x3f2b97af	0.67028326
22	0x3f311913	0.69178885
23	0x3f3e0e4b	0.7424056
24	0x3f431738	0.76207304
25	0x3f4d7ee4	0.80271745
26	0x3f623a8e	0.883706
27	0x3f70c810	0.9405527
28	0x3f74184b	0.9534957
29	0x3f7be5c2	0.9839746
30	0x3f7f494c	0.9972122
31	0x3f801477	1.0006245

distance_expansion.betas f4 [32]
0	0x4381bfcf	259.4985
1	0x4381bf4c	259.4945
2	0x4381c480	259.53516
3	0x4381bc6b	259.47202
4	0x4381bc80	259.47266
5	0x4381be6d	259.4877
6	0x4381bca2	259.4737
7	0x4381b9d7	259.45187
8	0x4381b9a9	259.45047
9	0x4381b944	259.4474
10	0x4381ba3c	259.45496
11	0x4381b9bd	259.45108
12	0x4381b73c	259.43152
13	0x4381b879	259.4412
14	0x4381b8cc	259.44373
15	0x4381b9c5	259.45132
16	0x4381b985	259.44937
17	0x4381bbe6	259.46796
18	0x4381bcf8	259.47632
19	0x4381bd2f	259.478
20	0x4381bd1e	259.47748
21	0x4381bd5f	259.47946
22	0x4381bd4d	259.4789
23	0x4381be27	259.48557
24	0x4381be3e	259.48627
25	0x4381be1c	259.48523
26	0x4381ba38	259.45483
27	0x4381b6db	259.42856
28	0x4381b888	259.44165
29	0x4381b966	259.44843
30	0x4381bc1e	259.46967
31	0x4381be8f	259.48874

pre_layers.0.weight f4 [64, 100]
0	0x3d743646	0.05962207
1	0xbc390b09	-0.011294135
2	0x3cbd2f47	0.023093833
3	0x3d0e21e7	0.0347003
4	0x3df5f65d	0.12009881
5	0xbd8d32bd	-0.06894443
6	0x3d9f0260	0.07764125
7	0xbb73284b	-0.0037102874
8	0xbdb247d8	-0.08705109
9	0x3dd70942	0.10499813
10	0xbd3980b5	-0.04528876
11	0x3d9de66f	0.07709967
12	0x3def7202	0.11691667
13	0xbdb886bb	-0.09010073
14	0xbc4ee3a6	-0.012627518
15	0x3d7843b6	0.06061145
16	0xbd66e616	-0.05637177
17	0xbd01ca98	-0.03168735
18	0xbd8e0abf	-0.069356434
19	0xba0718b6	-0.00051535235
20	0xbd1a0087	-0.03759816
21	0x3d468aa4	0.04847206
22	0xba189c78	-0.00058216555
23	0xbdcf1860	-0.10112071
24	0x3dba70b8	0.09103531
25	0x3cd23fd1	0.025665196
26	0x3dc5a42a	0.096504524
27	0xbd341318	-0.04396352
28	0xbd40d532	-0.04707832
29	0x3cc65655	0.024211088
30	0xbd73d55c	-0.059529647
31	0xbd97edb2	-0.07418384
32	0x3d97f740	0.07420206
33	0x3ba59608	0.0050532855
34	0x3d118176	0.035523854
35	0xbc3ba95f	-0.011453955
36	0xbd8bc517	-0.06824701
37	0xbd99a80f	-0.07502758
38	0xbd9228fb	-0.07136723
39	0x3c6bb318	0.014385961
40	0xbda7f895	-0.0820171
41	0x3d93683b	0.07197615
42	0x3d53edca	0.051740445
43	0x3cb9b0d6	0.02266733
44	0x3c82da72	0.015973303
45	0xbdbb5a45	-0.09148077
46	0xbca317f1	-0.019908877
47	0xbae8ee07	-0.0017771133
48	0xbdbb5d94	-0.09148708
49	0x3d8ad7c9	0.06779439
50	0x3cabcd55	0.020971933
51	0xbd43f2bf	-0.047838923
52	0x3daf5c1a	0.08562489
53	0xbd54e466	-0.05197563
54	0x3de1ddef	0.110286586
55	0xbbc6819e	-0.006057932
56	0xbd74cc7c	-0.059765324
57	0x3da609e3	0.081073545
58	0x3dacdf4a	0.084410265
59	0xbce05e89	-0.027388828
60	0x3dbbcc0c	0.09169778
61	0xbd21e36d	-0.03952353
62	0xbcc210c6	-0.023689639
63	0x3c01f18e	0.007931126
64	0x3cac83b5	0.021058897
65	0xbc203d18	-0.009780191
66	0x388cb2e8	6.709044e-05
67	0x3d562a84	0.05228664
68	0x3db0a85f	0.08625864
69	0x3b5127af	0.0031914522
70	0xbd29877f	-0.041388985
71	0xbd538b3b	-0.051646452
72	0x3d0f66d5	0.035010178
73	0x3d502d0a	0.050824203
74	0xbd1168e8	-0.035500437
75	0x3d819807	0.06327825
76	0x3d55b219	0.0521718
77	0xbd397f0b	-0.045287173
78	0xbd9aa1a4	-0.07550362
79	0x3d9f1829	0.0776828
80	0x3d2a1c13	0.04153068
81	0x3daa2d4f	0.08309423
82	0x3d8d11ba	0.06888147
83	0xba1e0826	-0.0006028436
84	0xbd26f7f7	-0.04076382
85	0x3d44dbd9	0.048061226
86	0xbc11b19e	-0.008892445
87	0x3db78b6e	0.08962141
88	0x3d875976	0.0660886
89	0x3d82ed6f	0.06392943
90	0x3d494d43	0.04914595
91	0x3b751417	0.0037396008
92	0xbc9d8e85	-0.019232998
93	0x3d369d2c	0.044583485
94	0xbd848cc5	-0.06472162
95	0xbd03495e	-0.03205239
96	0x3d90a49e	0.07062648
97	0x3aed56b6	0.0018107507
98	0x3d9fd1f4	0.07803717
99	0xbd58fb16	-0.05297383
100	0x3c2884fe	0.010285614
101	0xbd14a5e9	-0.036291037
102	0x3d2a3513	0.04155452
103	0x3d125b6f	0.03573173
104	0x3d1b8e55	0.037977535
105	0xbd8ef36d	-0.069800235
106	0x3d806653	0.06269517
107	0xbc1bc999	-0.009508514
108	0xbd7c62f7	-0.061617818
109	0x3c1393e3	0.009007427
110	0x3d256068	0.040375143
111	0xbcbc9161	-0.02301854
112	0x3c679402	0.014134409
113	0x3cf6ac49	0.030111449
114	0x3c3c84a8	0.011506237
115	0xbc9024f3	-0.017595744
116	0x3daaf7e9	0.08348066
117	0x3d0cad7c	0.034345135
118	0x3dcdb9af	0.10045182
119	0xbb852a14	-0.004063854
120	0xbc581308	-0.013188131
121	0xba624a4b	-0.00086322863
122	0xbca7ad8e	-0.0204685
123	0xbdaa1def	-0.08306491
124	0xbd570cd8	-0.052502483
125	0x3c9d91ed	0.019234622
126	0x3d488c20	0.04896176
127	0xbaaa2c41	-0.0012983159
128	0xbda057fc	-0.07829282
129	0x3da1c8bd	0.07899616
130	0x3cd5a462	0.02607936
131	0x3daf06ee	0.085462436
132	0x3d52dafb	0.051478367
133	0x3da82590	0.082102895
134	0xbdcacd3b	-0.09902426
135	0x3d343ea4	0.04400505
136	0x3c5f89e9	0.01364372
137	0x3bd02e5d	0.006353183
138	0x3c0f264f	0.008737161
139	0xbcc07033	-0.023491
140	0xbd34c413	-0.044132303
141	0xbd9aff5d	-0.07568238
142	0x3d6efb87	0.058345344
143	0x3db86460	0.0900352
144	0xbd991ae8	-0.07475835
145	0x3da7cae0	0.08192992
146	0xbbe84886	-0.0070887236
147	0x3d7e8ee6	0.062147997
148	0x3d0f8a5a	0.03504405
149	0x3da5b987	0.08092027
150	0x3b920390	0.004455991
151	0xbdb19616	-0.08671205
152	0xbc1975d0	-0.009366468
153	0x3db58ff0	0.088653445
154	0xbd2031c0	-0.039109945
155	0x3d9beaf0	0.0761317
156	0x3c583322	0.013195785
157	0xbd4098a4	-0.04702057
158	0xbcc058e6	-0.02347989
159	0xbc125a84	-0.008932713
160	0xbd30e083	-0.04318286
161	0xbd22327f	-0.039598938
162	0x3dc59812	0.09648146
163	0x3b659d96	0.0035036555
164	0xbda10e74	-0.07864085
165	0x3d944324	0.072393686
166	0xbdab677f	-0.0836935
167	0xbd07e1c2	-0.033174284
168	0x3db92439	0.09040112
169	0x3cbea1e7	0.02327056
170	0x3cc3665d	0.023852522
171	0x3ae21075	0.0017247336
172	0x3dd7dbd6	0.10539977
173	0x3cd5ee9a	0.02611475
174	0xbc6f5430	-0.014607474
175	0x3a3a6bf8	0.00071114255
176	0xbc8b97ee	-0.01704022
177	0x3a355bc2	0.0006918275
178	0x3de03136	0.10946886
179	0x3cd844a3	0.026399916
180	0xbd3159ff	-0.043298718
181	0xbd09b317	-0.03361806
182	0xbd8d451b	-0.068979464
183	0xbcf8637d	-0.030320877
184	0xbd3a33eb	-0.04545967
185	0xbac37553	-0.0014912285
186	0x3d9a6486	0.075387046
187	0xbc18393e	-0.009290991
188	0x3d8e9b8a	0.069632605
189	0x3c3177ea	0.010831812
190	0x3daae41d	0.083442904
191	0x3be767bb	0.007061926
192	0x3d6b2997	0.05741271
193	0xbda29e23	-0.079403184
194	0xbcd10aa8	-0.025517777
195	0x3d28a237	0.041170325
196	0x3cecb4ba	0.02889477
197	0xbd4fc885	-0.05072834
198	0x3d273a95	0.040827353
199	0xbdb05d3b	-0.08611532
200	0xbdf51630	-0.119671226
201	0x3d4e62e4	0.05038728
202	0x3c8d084c	0.01721587
203	0x3bdd57c9	0.0067548496
204	0xbd186f69	-0.037215624
205	0x3c766504	0.015038732
206	0x3bb01bbf	0.0053744013
207	0xbd0567ac	-0.032569572
208	0x3d793903	0.060845386
209	0xbd22b68e	-0.03972488
210	0xbd95bd61	-0.07311512
211	0xbcbafd3e	-0.022825833
212	0xbd367a10	-0.04455
213	0xbd13cb22	-0.036082394
214	0xbc845567	-0.016154004
215	0xbdcf0945	-0.1010919
216	0xbd8512aa	-0.064977005
217	0xbdad8575	-0.084727205
218	0x3dcda3a0	0.100409746
219	0x3d4de6d5	0.050268967
220	0xb9cd5aeb	-0.00039168386
221	0xbd53b0d1	-0.051682297
222	0x3dab41ab	0.083621345
223	0x3d78e955	0.060769398
224	0xbd03b9d0	-0.032159626
225	0xbd978f24	-0.07400349
226	0xbd1c1db0	-0.03811425
227	0xbd90b793	-0.07066264
228	0xbd0f8aab	-0.035044353
229	0xbd79273d	-0.060828436
230	0x3db48eaa	0.088162735
231	0xbdaaeecf	-0.083463304
232	0xbd31e372	-0.0434298
233	0xbd9f8acf	-0.077901475
234	0xbd815196	-0.063143894
235	0xbdb015d0	-0.085979104
236	0xbdaf304f	-0.08554136
237	0xbcea3a60	-0.028592288
238	0x3de888ba	0.113542035
239	0xbd0219fb	-0.03176306
240	0x3c735e3b	0.014854009
241	0x3bac259e	0.0052535078
242	0xbda05483	-0.07828619
243	0xbda14ea5	-0.078763284
244	0x3d8b7c89	0.068108626
245	0x39c6d88a	0.00037926837
246	0x3d834def	0.06411349
247	0x3d7e8b3e	0.06214451
248	0x3dbc4a81	0.09193898
249	0xbd3dea82	-0.046366222
250	0xbc9aafe3	-0.018882697
251	0xbce2e751	-0.02769819
252	0x3db241c4	0.0870395
253	0x3d3120b5	0.043244082
254	0xbd8fa6b9	-0.07014222
255	0x3db0d156	0.08633678

pre_layers.0.bias f4 [64]
0	0xbd4c7873	-0.049919557
1	0x3d7a54e3	0.06111611
2	0x3c2c2131	0.01050596
3	0xbc926b90	-0.017873555
4	0x3dba4afc	0.090963334
5	0x3cc61246	0.024178635
6	0x3c85356e	0.016260829
7	0xbb804523	-0.0039144917
8	0xbd0fe4a9	-0.035130177
9	0x3db6e8be	0.08931111
10	0x3cf49266	0.029854964
11	0xbd7a8460	-0.0611614
12	0xbd9512f4	-0.07279006
13	0xbd55f5e3	-0.05223645
14	0xbc24678f	-0.010034456
15	0x3db2c479	0.087288804
16	0x3d8e9651	0.06962264
17	0x3d971419	0.0737688
18	0x3d499f7f	0.049224373
19	0x3db3deed	0.08782754
20	0xbd99c9b6	-0.075091764
21	0xbdf23e03	-0.11828234
22	0x3db38dbf	0.0876727
23	0xbd288315	-0.041140635
24	0xbca19701	-0.019725325
25	0xbc06b202	-0.008221151
26	0x3d3c4d1e	0.045971982
27	0x3dca1f04	0.09869197
28	0xbda74354	-0.08167139
29	0x3d2fb7da	0.042899944
30	0xbbd3c6bb	-0.0064628995
31	0x3d2de6f0	0.042456567
32	0xbd71a031	-0.05899066
33	0xbdc814a9	-0.097695656
34	0xbdaf4cae	-0.08559547
35	0x3bbf83bc	0.0058445614
36	0xbdd7dcad	-0.105401374
37	0xbd781e51	-0.060575787
38	0xbdb829f9	-0.08992381
39	0xbdb7903b	-0.08963057
40	0xbbb7f23e	-0.0056135943
41	0xbcaa3753	-0.020778334
42	0xbdcc612b	-0.09979471
43	0xbd708e93	-0.05872972
44	0xbcc16b28	-0.023610666
45	0xbd33c5fc	-0.043889984
46	0x3d0b0935	0.033944327
47	0xbd4ecfd7	-0.05049118
48	0x3d748e48	0.059706002
49	0xbda58a33	-0.08083
50	0x3d0629c4	0.032754675
51	0x3b9f7538	0.0048662685
52	0xbd375eb4	-0.04476805
53	0x3dec5370	0.11539352
54	0xbd7b7d23	-0.061398637
55	0x3c62b145	0.01383621
56	0xbda62839	-0.081131406
57	0xbdaf518f	-0.08560478
58	0xbd207ea5	-0.039183278
59	0xbd9df84c	-0.077133745
60	0x3c215d83	0.009848955
61	0xbe12d357	-0.14338432
62	0x3d3dcabb	0.046335917
63	0x3ae4c2f4	0.001745312

post_layers.0.weight f4 [64, 64]
0	0x3e086d79	0.1332301
1	0xbaf4fe84	-0.0018691574
2	0xbda9d81d	-0.082931735
3	0xbcb21139	-0.021736728
4	0xbe19a6c0	-0.15005016
5	0x3cc07228	0.023491934
6	0x3dad5e57	0.084652595
7	0x3da75c15	0.0817186
8	0x3d662674	0.056189016
9	0x3b36d94c	0.0027900515
10	0xbd2fa326	-0.0428802
11	0x3c03327e	0.008007644
12	0x3d8dde32	0.06927146
13	0xbba732fe	-0.0051025143
14	0x3d14bea6	0.03631463
15	0xbdb5ce11	-0.08877195
16	0x3d86fa44	0.06590703
17	0x3dfe71b3	0.1242403
18	0x3bd9daf7	0.006648417
19	0xbdeda7cb	-0.116042696
20	0xbc95f202	-0.018303875
21	0x3dba2f10	0.09091008
22	0xbda49363	-0.08035924
23	0xbd137c0b	-0.03600697
24	0xbdb0d617	-0.086345844
25	0xbb91647e	-0.0044370284
26	0xbd603e66	-0.054747008
27	0xbd5a3649	-0.053274427
28	0x3d87bb47	0.06627517
29	0xbd915512	-0.07096304
30	0xbe0b4f7d	-0.13604541
31	0xbd6d406a	-0.05792276
32	0xbd45a694	-0.048254564
33	0xbd79f050	-0.061020195
34	0x3d056a6e	0.032572202
35	0x3dd039fc	0.1016731
36	0xbcda4659	-0.026644873
37	0xbde91817	-0.11381548
38	0xbc8c9a8e	-0.017163541
39	0xbd5549a8	-0.052072197
40	0xbe0a17e8	-0.13485682
41	0xbdd57253	-0.10422196
42	0xbe22353e	-0.15840623
43	0x3dc6445d	0.09681008
44	0x3d23f74c	0.040030763
45	0xbc891d1b	-0.016737511
46	0x3d85b02a	0.06527741
47	0xbc3e0c6a	-0.011599639
48	0x3d29b338	0.041430682
49	0x3dbd126d	0.0923203
50	0xbdf38f87	-0.1189261
51	0xbd06a15c	-0.032868728
52	0x3dc1e48f	0.09467422
53	0x3d8d98a5	0.0691388
54	0x3db155ff	0.086589806
55	0xbc4e9bdb	-0.012610401
56	0x3d9edfb1	0.077575095
57	0xbd570573	-0.05249543
58	0xbd013a42	-0.0315497
59	0xbdc7839a	-0.09741898
60	0x3bb0a019	0.005390179
61	0x3c8b3c4f	0.01699653
62	0x3dbc0ec2	0.09182502
63	0x3d028ddb	0.031873565
64	0xbd26f9c2	-0.04076553
65	0x3dc8ade9	0.09798796
66	0xbd9b8023	-0.075927995
67	0x3d091275	0.033464868
68	0x3dea7bfb	0.11449429
69	0xbc5e9480	-0.01358521
70	0xbcf3fe17	-0.029784245
71	0xbd8d3319	-0.06894512
72	0x3d84a240	0.06476259
73	0xbd1ff521	-0.039052133
74	0x3d44063c	0.047857508
75	0x3da65a66	0.08122711
76	0x3d8e1286	0.06937127
77	0x3df0fe71	0.11767281
78	0x3db948c7	0.09047084
79	0xbdeb96db	-0.11503383
80	0xbd35219d	-0.04422151
81	0x3dc82d5e	0.09774278
82	0xbdf2bb79	-0.11852164
83	0xbcad6bad	-0.021169508
84	0xbad77d23	-0.0016440492
85	0xbdc60b54	-0.096701294
86	0x3d6c63d7	0.057712402
87	0x3d1f894e	0.038949303
88	0x3c1ea52c	0.009682935
89	0xbd415218	-0.04719743
90	0xbcc6dad1	-0.024274262
91	0xbd4a721d	-0.049425233
92	0x3dd1d7f8	0.10246271
93	0xbd9843c7	-0.074348025
94	0xbd7d7741	-0.061881308
95	0x3da19270	0.07889259
96	0x3dc49775	0.09599201
97	0xbd9a1911	-0.07524312
98	0x3e201341	0.15632345
99	0xbc3b4fcc	-0.011432599
100	0xbcaf222a	-0.021378595
101	0x3d266df8	0.040632218
102	0xbdf02ffc	-0.11727902
103	0xbdc93e2a	-0.0982631
104	0x3c2f4c76	0.010699382
105	0x3dd307f4	0.10304251
106	0xbe0025f5	-0.1251448
107	0x3c59d610	0.013295665
108	0xbdeb18b4	-0.11479321
109	0xbd8545c1	-0.06507445
110	0x3c42a94c	0.011881184
111	0xbda3246b	-0.079659306
112	0x3da75227	0.08169966
113	0x3defc4bb	0.11707445
114	0x3dcf9c8c	0.10137281
115	0x3e044520	0.12916994
116	0xbd9449fc	-0.07240674
117	0x3b7cacac	0.003855507
118	0xbc9a8812	-0.018863712
119	0x3c4120ac	0.011787575
120	0xbdcc7311	-0.09982885
121	0xbac17186	-0.0014758564
122	0xbc9e0102	-0.01928759
123	0xbdc9f24d	-0.09860668
124	0x3de0bba7	0.10973292
125	0x3d81b662	0.06333615
126	0x3ddf56d3	0.10905232
127	0x3d460133	0.048340987
128	0x3dfaea35	0.12251703
129	0xbdae54a9	-0.085122414
130	0x3db6a97e	0.08919047
131	0xbbdff744	-0.0068348963
132	0x3c884192	0.016632829
133	0x3d232177	0.039826836
134	0xbda2e4e4	-0.07953814
135	0x3c135cc7	0.008994288
136	0xbda0e620	-0.07856393
137	0x3bb811be	0.0056173494
138	0xbe21716f	-0.15765928
139	0xbc475aef	-0.012167676
140	0xbdbe16ad	-0.09281669
141	0x3cd553b5	0.026040891
142	0xbd75e922	-0.060036786
143	0xbd97e6b4	-0.0741705
144	0x3db4b5ca	0.08823736
145	0x3d5bab4a	0.05363015
146	0x3df852e9	0.12125189
147	0xbe056de7	-0.13030206
148	0xbb608d4c	-0.0034263907
149	0x3cd32ad8	0.025777265
150	0x3cd3e558	0.025866196
151	0xbb9a48eb	-0.0047083995
152	0xbe19c1df	-0.15015362
153	0xbdf14d6e	-0.11782347
154	0x3d93e0e4	0.07220629
155	0xbd850bd9	-0.064964004
156	0xbb292665	-0.0025810238
157	0xbb3a0382	-0.0028383438
158	0xbdec04fd	-0.11524389
159	0xbc867dfd	-0.016417498
160	0xbdd52c6e	-0.10408865
161	0xbe02eec4	-0.12786394
162	0xbdaad50e	-0.08341418
163	0x3d470720	0.04859078
164	0xbdb0e540	-0.08637476
165	0x3dc21766	0.09477119
166	0xbda934fc	-0.08262059
167	0xbbdc02ce	-0.0067142015
168	0xbdd14165	-0.10217551
169	0x3d55f537	0.05223581
170	0xbd6b731b	-0.05748282
171	0xbe0b2e34	-0.13591844
172	0xbda4ef7f	-0.08053493
173	0xb902833d	-0.00012446656
174	0xbe0dc33c	-0.13844007
175	0xbe035597	-0.12825619
176	0x3c8a9487	0.016916526
177	0x3d23504a	0.03987149
178	0x3db8765a	0.09006949
179	0x3d86d5ff	0.06583785
180	0xbde833ab	-0.1133798
181	0xbd9837e9	-0.07432539
182	0xbe070cb1	-0.13188435
183	0x3d5be5b8	0.053685874
184	0x3da8aa6d	0.08235631
185	0xbd4292d3	-0.047503304
186	0xbddf322b	-0.10898241
187	0xbd6f9c1b	-0.058498483
188	0x3d148f43	0.036269438
189	0x3d66c1a2	0.056337006
190	0xbd990a9b	-0.07472726
191	0x3dee0f67	0.116240315
192	0x3d3c444c	0.04596357
193	0xbc9b8e0c	-0.018988632
194	0x3d509378	0.050921887
195	0xbd513f89	-0.051085982
196	0xbc63117f	-0.013859152
197	0xbdb06342	-0.08612682
198	0xbbdafd14	-0.0066830013
199	0x3d02b326	0.03190913
200	0x3b93b7cd	0.0045079947
201	0xbcadc89e	-0.021213826
202	0xbcb0a69c	-0.02156382
203	0xbcc0b1c3	-0.023522263
204	0xbe012ac7	-0.12613975
205	0xbda84001	-0.08215333
206	0x3c882594	0.016619481
207	0x3b3ba988	0.0028634984
208	0x3d210c37	0.03931829
209	0x3dbfb14e	0.0935999
210	0x3e02eb00	0.12784958
211	0xbd149392	-0.036273547
212	0xbddc3e32	-0.1075405
213	0x3b9c70f9	0.0047742096
214	0xbd4a2abd	-0.049357165
215	0xbd94d66e	-0.07267462
216	0x3dd18e59	0.10232229
217	0xbdd42796	-0.10359113
218	0x3d1f0fee	0.03883355
219	0xbd9ce0ce	-0.076600656
220	0xbddfa0de	-0.10919355
221	0x3d2ab847	0.041679647
222	0xbcb1fd85	-0.021727333
223	0xbd83fb0a	-0.06444366
224	0x3d0c4b39	0.034251425
225	0x3d147867	0.036247637
226	0xbaa1dab2	-0.0012348501
227	0xbd69de91	-0.05709702
228	0xbd9e6368	-0.07733804
229	0xbc1d093d	-0.009584722
230	0xbb9c3695	-0.004767249
231	0xbe0d850f	-0.13820289
232	0x3cfab39d	0.030603224
233	0xbe207453	-0.15669374
234	0xbdc0f834	-0.09422341
235	0xbdaf137f	-0.085486405
236	0x3d2b4460	0.041813254
237	0x3d4ce83b	0.05002616
238	0xbda9d7c3	-0.082931064
239	0xbd450b6c	-0.048106596
240	0xbd5a1d7b	-0.05325077
241	0x3d2f792b	0.042840164
242	0x3de0306d	0.109467365
243	0xbd86d7b2	-0.06584109
244	0x3de4a8d6	0.111650154
245	0x3de9b482	0.11411382
246	0x3dce81b7	0.10083335
247	0xbdbae6e7	-0.091260724
248	0xbd9545af	-0.07288682
249	0x3e28494b	0.16434209
250	0x3df056e7	0.11735325
251	0xbdf6fe0a	-0.12060173
252	0x3dd6f171	0.1049527
253	0xbd4ac344	-0.049502626
254	0x3de52515	0.111887135
255	0x3e262b40	0.16227436

post_layers.0.bias f4 [64]
0	0x3d8f1726	0.06986837
1	0x3da73ca6	0.08165865
2	0x3d7d2ad3	0.06180842
3	0xbd54ee7c	-0.05198525
4	0xbd9922f8	-0.07477373
5	0x3c206e95	0.00979199
6	0xbc207858	-0.009794317
7	0xbd679e61	-0.056547526
8	0x3bf4a852	0.0074663544
9	0x3e010e46	0.12603101
10	0x3dbede28	0.09319717
11	0x3d00cc93	0.031445097
12	0x3c7d8459	0.015473449
13	0x3e1188a0	0.14212275
14	0xbdaa7b43	-0.083242916
15	0x3cd44fe9	0.02591701
16	0xbd54aa88	-0.051920444
17	0x3d7d6771	0.061866228
18	0xbc0c45a0	-0.008561522
19	0xbdcf9b7f	-0.101370804
20	0xbd704109	-0.058655772
21	0x3e004501	0.12526323
22	0x3d43e5d7	0.047826614
23	0x3b82e94c	0.0039950963
24	0x3dd4e2c6	0.10394816
25	0xbdae83d9	-0.08521242
26	0x3d165c9b	0.03670941
27	0xbd550b2b	-0.052012604
28	0xbdadf395	-0.08493725
29	0x3e09ae8a	0.13445488
30	0x3d886a9e	0.066609606
31	0xbdcca0a6	-0.09991579
32	0x3d30a958	0.04313025
33	0x3df977a7	0.12181025
34	0x3d8c90f4	0.06863585
35	0x3c3ca0fd	0.011512992
36	0xbd666093	-0.056244444
37	0x3e0889f4	0.13333875
38	0xbc0e9da8	-0.00870458
39	0x3b8a1b73	0.004214698
40	0x3cef31e5	0.029198596
41	0x3ddfd507	0.109293036
42	0xbd8f6324	-0.070013314
43	0x3d36b0aa	0.044602074
44	0x3d920b8c	0.07131109
45	0x3e056148	0.13025391
46	0x3dfd76ed	0.12376199
47	0x3dbf7a0a	0.09349449
48	0x3cd08831	0.025455566
49	0xbdd2cba7	-0.1029275
50	0xbdaf2e22	-0.08553721
51	0xbce614b4	-0.028086044
52	0x3dc04dfa	0.09389873
53	0x3d32b9c6	0.0436342
54	0xbd28c2bd	-0.041201342
55	0x3daf126d	0.08548436
56	0x3e0cbfc9	0.13745035
57	0xbdcdbfce	-0.100463495
58	0x3e01eb66	0.12687454
59	0x3bfb1a1f	0.007663026
60	0x3de4ad5b	0.111658774
61	0xbd67d529	-0.05659977
62	0x3d4b0eeb	0.049574774
63	0xbcf2b9d1	-0.02962962

post_layers.1.weight f4 [64, 64]
0	0x3d154297	0.03644046
1	0xba58751e	-0.0008257198
2	0x3d0903e2	0.03345097
3	0x3bb4851b	0.0055090315
4	0x3db13945	0.086535014
5	0xbde658fd	-0.11247442
6	0xbd832a68	-0.06404573
7	0x3d8cc8a3	0.06874206
8	0xbc367241	-0.011135639
9	0xbdfab14a	-0.122408465
10	0xbc82586c	-0.015911303
11	0xbd0e7520	-0.034779668
12	0xbc04f48f	-0.008114948
13	0x3de64035	0.11242715
14	0xbdc78047	-0.09741264
15	0xbdc528d7	-0.0962693
16	0x3d8e6bfd	0.06954191
17	0xbd83c1fc	-0.06433484
18	0xbcc3c377	-0.023896916
19	0xbcbc3f3b	-0.02297937
20	0x3d93b9b4	0.072131544
21	0x3ae7da75	0.0017689007
22	0xbd212ff8	-0.039352387
23	0xbd54a158	-0.051911682
24	0x3cc8cf67	0.02451296
25	0xbe08c338	-0.1335572
26	0x3d9b300c	0.075775236
27	0xbd0b2177	-0.03396746
28	0x3bd61fa9	0.006534536
29	0xbd1f0748	-0.038825303
30	0xbd68ab95	-0.05680426
31	0xbdfec317	-0.12439554
32	0x3dacecab	0.08443578
33	0x3d903f77	0.07043355
34	0x3d2d83ff	0.04236221
35	0x3dce6d88	0.10079485
36	0x3db715a9	0.08939678
37	0xbd280bba	-0.04102681
38	0xbd56278e	-0.052283816
39	0x3d66cbd5	0.056346733
40	0xbd2acde8	-0.041700274
41	0xbdd6d035	-0.10488931
42	0x3d8ef9de	0.06981252
43	0x3d953aa2	0.07286574
44	0xbdf96163	-0.12176778
45	0xbc8ee43f	-0.01744282
46	0x3b4e8759	0.003151378
47	0xbdfc643f	-0.12323808
48	0x3d99587d	0.07487581
49	0x3caa0852	0.02075592
50	0x3c41bcec	0.011824828
51	0x3c904097	0.017608924
52	0x3ce7c2e1	0.028291168
53	0xbd84dd93	-0.064875744
54	0xbb2605c0	-0.0025333017
55	0xbd821d9f	-0.06353306
56	0x3db075cb	0.08616217
57	0x3d94d594	0.07267299
58	0x3d951967	0.07280236
59	0xbdff515e	-0.124666914
60	0x3c812bdc	0.015767984
61	0xbdb15605	-0.08658985
62	0xbddfdba7	-0.10930567
63	0xbc7c4c5a	-0.015399063
64	0xbd6cee27	-0.057844307
65	0x3e0254fd	0.12727733
66	0x3da2af1d	0.079435565
67	0x3d955d1f	0.07293152
68	0xbd44e9d1	-0.048074547
69	0x3d86da40	0.06584597
70	0x3dc54920	0.09633088
71	0xbd03898d	-0.0321136
72	0x3c093fd5	0.008377035
73	0xbd0c0e67	-0.034193423
74	0x3dc703ab	0.097174965
75	0xbd4558e9	-0.048180494
76	0x3dbe14c1	0.09281302
77	0x3e11f542	0.14253715
78	0x3da82b3f	0.082113735
79	0x3cac3b7e	0.021024462
80	0x3da308b0	0.079606414
81	0xbd867f5a	-0.06567259
82	0xbcab76ef	-0.020930735
83	0x3dcaed12	0.09908499
84	0xbcf33e70	-0.029692858
85	0x3dd71d42	0.10503627
86	0xbde06b15	-0.10957924
87	0x3c5fe451	0.013665275
88	0xbd90240e	-0.07038127
89	0xbd4ae14a	-0.04953126
90	0xbb487976	-0.0030589974
91	0x3c49e983	0.01232374
92	0xbbb77efd	-0.005599855
93	0x3cd9e58a	0.02659871
94	0xbc387741	-0.011258901
95	0xbdf42c44	-0.119225055
96	0xbdc2c180	-0.095095634
97	0x3dae1f7c	0.08502099
98	0xbca4ad7d	-0.020102257
99	0x3df63dfe	0.12023543
100	0xbdc2a15c	-0.09503433
101	0x3e0c8bb0	0.13725162
102	0xbd69ad03	-0.057049762
103	0x3d9be58c	0.07612142
104	0x3bb476b2	0.0055073136
105	0xbc50f7ee	-0.012754424
106	0x3d20486e	0.039131574
107	0xbd9638bc	-0.0733504
108	0xbdaf375c	-0.08555481
109	0x3d960b54	0.073263794
110	0xbc2aeb0d	-0.010432017
111	0x3d0f8735	0.035041053
112	0x3c28cc62	0.010302635
113	0x3d7c3874	0.061577275
114	0x3de7f2eb	0.1132563
115	0x3d2a6fe3	0.04161061
116	0x3dbc5c82	0.09197332
117	0x3c27f8c5	0.010252182
118	0xbcc6c7c5	-0.02426518
119	0xbd85794e	-0.06517278
120	0x3d2afe75	0.041746575
121	0x3da2b33a	0.07944341
122	0x3dfb7c60	0.12279582
123	0x3d945bce	0.07244073
124	0x3cfa9404	0.030588157
125	0xbcd93f8d	-0.026519561
126	0xba513e37	-0.0007981988
127	0x3d58e80a	0.052955665
128	0x3dda6356	0.10663478
129	0xbcf3e0a7	-0.029770209
130	0x3dff9a5b	0.12480613
131	0x3d3e03fb	0.046390515
132	0x3ba7cb2a	0.0051206546
133	0xbd6d7645	-0.05797412
134	0xbd8dd3a7	-0.06925135
135	0x3d8279a1	0.06370855
136	0x3bf48472	0.007462078
137	0x3cee7a48	0.029111043
138	0x3d887fff	0.06665038
139	0x3df56e4d	0.11983929
140	0x3dfc375d	0.12315247
141	0xbc5de5af	-0.01354353
142	0xbd137629	-0.03600136
143	0xbccf508a	-0.025306959
144	0x3dc6d9ce	0.09709512
145	0xbc3bfdaa	-0.011474052
146	0xbdb1d0c7	-0.08682399
147	0x3e18ca5b	0.14920942
148	0x3daadd8c	0.08343038
149	0x3d4eaa6f	0.050455507
150	0xbd642374	-0.055697873
151	0x3d3fcbd9	0.046825264
152	0xbdc279c5	-0.09495882
153	0x3d8346a3	0.06409957
154	0x3d127cc6	0.035763524
155	0xbb9cf4dc	-0.0047899317
156	0xbcd7418e	-0.026276376
157	0x3da474b5	0.080300726
158	0x3c14cca5	0.009081994
159	0xbdeb0e71	-0.11477364
160	0xbc0a4735	-0.008439829
161	0x3e0bf275	0.13666709
162	0x3d8834d1	0.06650699
163	0x3dc9ff88	0.09863192
164	0xbde72f2a	-0.11288293
165	0x3df07963	0.11741903
166	0x3cc41739	0.023936855
167	0xbd20e9d8	-0.03928551
168	0xbd89c290	-0.06726563
169	0xbd97ada1	-0.07406164
170	0x3db16bfd	0.08663175
171	0x3d94a5c1	0.072581775
172	0xbcbb499e	-0.022862252
173	0x3e087ee4	0.13329655
174	0x3dbbe31e	0.091741785
175	0xbc85205b	-0.01625078
176	0x3d9c9aa7	0.07646685
177	0xbdb50e65	-0.08840636
178	0xbd630df3	-0.055433225
179	0x3d27b2f3	0.040942144
180	0xbdd5443f	-0.104134075
181	0x3dbdc275	0.09265605
182	0xbe0ac04e	-0.13549921
183	0x3da45ae8	0.080251515
184	0x3c1164c5	0.008874123
185	0xbd9b8018	-0.07592791
186	0x3e0147c7	0.12625037
187	0xbcc71d87	-0.024306072
188	0x3e022741	0.12710287
189	0x3e01f18f	0.12689804
190	0x3df33420	0.118751764
191	0xbb9cca97	-0.004784893
192	0x3e07e355	0.13270314
193	0x3ddb8fe6	0.10720806
194	0xbdb75d10	-0.08953297
195	0xbe135032	-0.14386061
196	0xbdd2179e	-0.10258411
197	0xbcd4306e	-0.025902
198	0x3df296b7	0.11845153
199	0xbdee7e09	-0.11645133
200	0xbd574789	-0.052558456
201	0xbd37444e	-0.044742875
202	0xbda4e274	-0.08051005
203	0x3d9881ae	0.074466094
204	0xbc25ead6	-0.01012679
205	0xbdbacbb7	-0.09120887
206	0xbe0ac29e	-0.13550803
207	0xbe2acb01	-0.16679002
208	0xbe0c8ebc	-0.13726324
209	0x3dfeb220	0.124363184
210	0xbd96b176	-0.07358067
211	0xbdc66079	-0.096863694
212	0xbd6cb086	-0.057785533
213	0x3c821c66	0.015882682
214	0x3db0a496	0.08625142
215	0xbdc827d3	-0.09773221
216	0xbc979247	-0.018502368
217	0xbd3bab6f	-0.04581779
218	0xbcb9fcd3	-0.022703564
219	0xbdefc5e8	-0.117076695
220	0x3d875cb6	0.0660948
221	0xbd89c07b	-0.06726166
222	0x3c47183c	0.012151774
223	0xbe323adb	-0.17405264
224	0xbd943147	-0.072359614
225	0xbca0c63f	-0.019625781
226	0xbb0958fe	-0.0020957584
227	0xbd28230b	-0.041049045
228	0xbd6fcd47	-0.058545377
229	0x3c28f8a7	0.01031319
230	0xbd74d776	-0.059775792
231	0x3dc0b8df	0.09410261
232	0x3d15d9c3	0.036584627
233	0x3d17cfd9	0.037063453
234	0x3e05c730	0.13064265
235	0xbd7c28ff	-0.061562534
236	0xbc4b739a	-0.012417698
237	0xbdf32614	-0.11872497
238	0xbe02818b	-0.12744729
239	0x3d1654b9	0.03670189
240	0xbd9fe1b5	-0.07806722
241	0xbd5c976c	-0.053855345
242	0xbe2fc2dd	-0.17164178
243	0x3c7086b8	0.014680557
244	0xbc022f5b	-0.007945861
245	0x3e0dfb04	0.13865286
246	0x3e2ee80a	0.17080703
247	0xbda9abff	-0.08284759
248	0xbd9c1fd9	-0.07623262
249	0xbd48c4c8	-0.04901579
250	0xbcd34aba	-0.025792468
251	0x3d5f785d	0.054558147
252	0xbd804aab	-0.06264242
253	0xbcb9b424	-0.022668906
254	0xbcef7ca9	-0.029234247
255	0xbd884e38	-0.06655544

post_layers.1.bias f4 [64]
0	0xbc96d719	-0.018413113
1	0x3dffe40d	0.12494669
2	0xbd51c487	-0.051212814
3	0x3d9b5918	0.07585353
4	0xbdb31897	-0.087449245
5	0x3d8ae405	0.067817725
6	0xbdb28d46	-0.08718352
7	0x3d674350	0.05646068
8	0x3c24303a	0.010021264
9	0xbac91627	-0.0015341685
10	0x3db73d72	0.08947267
11	0x3d7af123	0.061265122
12	0xbda01692	-0.07816805
13	0x3d9d4a0d	0.0768014
14	0xbdb27864	-0.08714369
15	0xbdcb94b7	-0.099404745
16	0x3d0ff8c3	0.035149347
17	0xbdd814cf	-0.10550844
18	0xbdc606c2	-0.09669258
19	0x3dfc6aa7	0.1232503
20	0xbded7382	-0.11594297
21	0xbdd3af94	-0.10336223
22	0x3e095cde	0.13414332
23	0xbdb33142	-0.087496296
24	0x3c880afe	0.016606804
25	0xbd1a82af	-0.037722286
26	0xbd902baa	-0.07039578
27	0x3dda5e85	0.106625594
28	0x3c8d9c88	0.017286554
29	0x3df65873	0.12028589
30	0x3e0e2979	0.13883008
31	0xbc89c815	-0.01681904
32	0x3d98172d	0.074262954
33	0xbd3806fd	-0.04492854
34	0x3da4e242	0.08050968
35	0x3e14c32a	0.14527574
36	0xbd97ab05	-0.07405666
37	0xbc6d981a	-0.014501596
38	0x3db2f955	0.087389626
39	0x3dbb8dbe	0.091578946
40	0x3cf7e755	0.030261675
41	0xbdaf8cb6	-0.0857176
42	0xbe0218ba	-0.12704745
43	0x3e1f1383	0.15534787
44	0x3db68898	0.08912772
45	0xbdd14515	-0.102182545
46	0x3cadba4d	0.021207
47	0x3da651df	0.081210844
48	0x3d9842bf	0.07434606
49	0x3d910515	0.070810474
50	0x3dded6d3	0.10880818
51	0x3d2a7b9e	0.041621797
52	0xbcba8cdd	-0.022772247
53	0xbdb22124	-0.08697727
54	0xbdc3f02e	-0.09567295
55	0x3daa67d5	0.08320586
56	0x3bcdee00	0.0062844753
57	0x3d87722f	0.06613576
58	0xbdc8b985	-0.0980101
59	0xbd47a317	-0.04873952
60	0xbb5cc702	-0.0033687954
61	0x3db2727f	0.08713245
62	0xbcd4078e	-0.025882509
63	0x3e0ce2ca	0.13758388

post_layers.2.weight f4 [64, 64]
0	0xbdc1f435	-0.09470407
1	0xbd574daa	-0.0525643
2	0xbd312447	-0.043247487
3	0xbd60992b	-0.054833572
4	0x3db918b1	0.09037913
5	0x3df63ac3	0.12022927
6	0x3d83a54d	0.06428013
7	0x3d0b9ad4	0.034083202
8	0x3db967bb	0.09052988
9	0xbcd27809	-0.025692003
10	0xbcd99aed	-0.026563132
11	0xbd0670e3	-0.0328225
12	0x3c514a54	0.012774069
13	0x3d536430	0.051609218
14	0x3db3110f	0.08743488
15	0x3d419365	0.047259707
16	0xbde26454	-0.11054292
17	0x3d86140f	0.065467946
18	0x3dfd8ed9	0.12380762
19	0xbd8a7385	-0.06760315
20	0xbddcc6f0	-0.10780132
21	0xbd998541	-0.07496119
22	0xbccc319a	-0.024925996
23	0xbd3f9194	-0.046769693
24	0x3d8aa756	0.06770198
25	0xbc1c1f5f	-0.009528964
26	0xbbd85099	-0.006601405
27	0x3df99171	0.12185944
28	0xbd001d23	-0.031277787
29	0xbdb40cf9	-0.08791537
30	0x3cf725e0	0.030169427
31	0xbdeaa077	-0.114563875
32	0xbd81f53a	-0.063456014
33	0x3ccdf8fb	0.025143137
34	0xbd2c160c	-0.042013213
35	0x3d1ab860	0.03777349
36	0xbd9c355f	-0.07627367
37	0x3de7357d	0.11289499
38	0x3daab431	0.0833515
39	0x3d86fd0b	0.06591233
40	0x3d3ab44b	0.045582097
41	0xbdbe9e22	-0.09307505
42	0x3ddcb1c8	0.107760966
43	0xbe04b377	-0.12959085
44	0x3db4a46d	0.08820424
45	0xbe07524d	-0.13214989
46	0xbd9fbf4c	-0.07800159
47	0x3de6b386	0.1126471
48	0xbdc8f761	-0.09812809
49	0xbdeeb0d9	-0.11654825
50	0xbc93f097	-0.018059058
51	0xbdd56bf9	-0.10420985
52	0xbd822dde	-0.06356405
53	0xbd85b91a	-0.06529446
54	0x3de58062	0.11206128
55	0x3a56df2b	0.0008196707
56	0xbda41958	-0.080126464
57	0x3ddde9fc	0.108356446
58	0x3d17e75c	0.037085876
59	0x3de32c92	0.110924855
60	0x3dd2e2e0	0.10297179
61	0xbdedca16	-0.116108105
62	0x3df54443	0.119759105
63	0x3dbf6410	0.09345257
64	0x3e0a9e89	0.13537039
65	0x3c81612d	0.015793407
66	0x3dde4ae2	0.108541265
67	0xbd589086	-0.052872203
68	0x3d4526ab	0.04813258
69	0xbd8e79c5	-0.069568194
70	0x3d2a4b54	0.041575745
71	0xbd08e734	-0.033423617
72	0x3e1817f6	0.1485289
73	0x3ccc6f43	0.024955397
74	0x3c55fd7b	0.013060923
75	0x3dbc4b05	0.09193996
76	0xbd4dd067	-0.050247576
77	0x3daca537	0.0842995
78	0xbd96d783	-0.07365324
79	0xbdab56a3	-0.08366134
80	0x3d17c7fc	0.037055954
81	0x3d5893d1	0.052875344
82	0x3ca96838	0.020679578
83	0xbc66b087	-0.014080173
84	0xbd081987	-0.03322747
85	0x3cef5ee0	0.029220045
86	0x3dcb86f3	0.09937849
87	0x3c5e3dbb	0.013564522
88	0xbc714451	-0.014725761
89	0xbd8002dc	-0.062505454
90	0x3e0dfaaa	0.13865152
91	0xbe09a6ff	-0.1344261
92	0xbcadee62	-0.021231834
93	0xbd82ebe7	-0.06392651
94	0x3d7a41d4	0.061097935
95	0x3d10abe0	0.035320163
96	0xbdbc81cf	-0.092044465
97	0xbe0eb1d0	-0.13935018
98	0xbda51692	-0.080609456
99	0x3d9edffb	0.07757565
100	0x3d5b63b5	0.053561885
101	0xbdd17c4c	-0.10228786
102	0xbc073ce6	-0.008254265
103	0x3daadeab	0.08343252
104	0xbdbf01f0	-0.093265414
105	0xbb89d417	-0.0042061913
106	0xbdaab4c9	-0.08335263
107	0x3e0b7cc4	0.13621813
108	0x3d92e6c5	0.07172922
109	0xbd73b4e5	-0.059498686
110	0x3d74b633	0.05974407
111	0xbdb098d5	-0.086229004
112	0x3df0355d	0.11728928
113	0x3b9c33a0	0.0047668964
114	0x3da8a710	0.0823499
115	0xbd56ae36	-0.052412234
116	0x3d42c6d3	0.047552895
117	0xbdab1b1d	-0.08354781
118	0x3cb175dd	0.021662647
119	0xbd95e3de	-0.07318853
120	0x3d0ce2f6	0.034396134
121	0x3ddd61ee	0.10809694
122	0xbd262937	-0.04056665
123	0xbcd99eff	-0.026565073
124	0x3d6a2715	0.057166178
125	0xbcda3842	-0.026638154
126	0xbd441620	-0.047872663
127	0xbd9ff8ac	-0.07811102
128	0x3d89272b	0.06696924
129	0xbdee347d	-0.11631105
130	0x3d032bbc	0.03202413
131	0x3dfa9885	0.12236122
132	0x3d9e3891	0.07725633
133	0x3c59d1bb	0.013294633
134	0xbd9757e4	-0.07389811
135	0x3de7f436	0.113258764
136	0xbce627de	-0.028095182
137	0x3debdb96	0.11516492
138	0xbd6be618	-0.05759248
139	0xbc465f84	-0.012107734
140	0x3d7c2a9e	0.06156408
141	0x3bb7f840	0.0056143105
142	0x3e0ea5f9	0.13930501
143	0xbd44a242	-0.048006304
144	0x3d9aac31	0.07552374
145	0xbdbf6be3	-0.0934675
146	0x3da6f4bc	0.08152148
147	0xbd81f7c6	-0.06346087
148	0xbdda536a	-0.10660441
149	0xbcd76dbe	-0.026297446
150	0xbd029963	-0.031884562
151	0xbcf4968c	-0.029856943
152	0xbdac4945	-0.084124126
153	0xbe0ddbd9	-0.13853396
154	0x3c9e2f3e	0.019309636
155	0x3d1d0a46	0.038339876
156	0xbda6522f	-0.08121144
157	0x3d43587c	0.047691807
158	0x3d82b0bc	0.06381366
159	0x3d6552c8	0.05598715
160	0x3de444f0	0.11145961
161	0xbd364a8a	-0.04450468
162	0xbd24cf70	-0.04023689
163	0xbde4574c	-0.11149463
164	0x3da33838	0.07969707
165	0xbc4ce4cb	-0.01250572
166	0x3c4d76fb	0.012540574
167	0xbd4fd559	-0.050740574
168	0x3d30d240	0.04316926
169	0xbd34d0f7	-0.044144597
170	0x3a48b2d3	0.00076560414
171	0x3dbf670f	0.09345829
172	0xbc4c60b8	-0.012474231
173	0x3ae3f65f	0.001739215
174	0xbce5d8fa	-0.028057564
175	0x3dba067c	0.09083268
176	0x3da01a28	0.07817489
177	0x3dd7e381	0.1054144
178	0xbd57c7aa	-0.05268065
179	0x3dabeb40	0.0839448
180	0x3d6f5dcc	0.05843906
181	0x3a924ddc	0.001116212
182	0x3d30580f	0.04305273
183	0x3bc342ac	0.0059588756
184	0x3de4749a	0.111550525
185	0x3c34bc57	0.011031232
186	0xbd6f314e	-0.05839663
187	0xbdabf69a	-0.08396645
188	0xbdbe7053	-0.09298768
189	0xbd2a339b	-0.04155312
190	0x3d855bfa	0.06511684
191	0xbdfd93be	-0.12381695
192	0x3d014775	0.031562287
193	0xbc5fcd68	-0.0136598125
194	0xbb91fe6d	-0.0044553787
195	0x3c1033e3	0.008801433
196	0x3d10f429	0.0353891
197	0x3d44e25d	0.04806744
198	0x3db67187	0.08908372
199	0x3df9ce53	0.12197556
200	0xbb28d20c	-0.0025759963
201	0x3e0da9cb	0.13834302
202	0x3d077bb8	0.03307697
203	0x3d558649	0.052130017
204	0x3d475f26	0.048674725
205	0x3d104447	0.035221364
206	0x3d4c5d71	0.0498938
207	0x3c917256	0.017754715
208	0xbd2b116d	-0.041764665
209	0xbcd3db7d	-0.025861496
210	0x3cfd2c42	0.030904893
211	0x3cda2b62	0.026632015
212	0x3ddf8a61	0.109150656
213	0xbc542934	-0.012949277
214	0xbd5ac6ed	-0.053412367
215	0xbd952058	-0.0728156
216	0xbddf0a8c	-0.108906835
217	0xbe2a7205	-0.16645057
218	0xbe271603	-0.1631699
219	0x3c51cf17	0.012805722
220	0x3dda6b1c	0.10664961
221	0xbe028683	-0.12746625
222	0xbdaa90a0	-0.08328366
223	0xbd6e7494	-0.058216646
224	0x3da2c0e0	0.07946944
225	0x3e1f019f	0.15527962
226	0x3db04124	0.086061746
227	0x3d157e00	0.036497116
228	0xbbfaa1be	-0.0076486757
229	0xbbd66359	-0.006542605
230	0xbd956204	-0.072940856
231	0xbe050afd	-0.12992473
232	0x3d64d9c4	0.05587174
233	0x3d4fddee	0.050748758
234	0xbddbddc9	-0.107356615
235	0x3db72d7e	0.08944224
236	0x3d6fd2be	0.05855059
237	0x3da24bbb	0.07924601
238	0xbce29c77	-0.027662499
239	0xbc5e515b	-0.013569201
240	0xbc99744b	-0.01873221
241	0x3d335afe	0.04378795
242	0xbb846bd9	-0.0040411768
243	0x3da5d0a3	0.08096435
244	0xbc07fa9c	-0.008299496
245	0xbd98ded0	-0.07464373
246	0xbc1f484a	-0.009721825
247	0xbd8bbf22	-0.06823565
248	0x3d3a7902	0.04552556
249	0x3c5528ff	0.0130102625
250	0x3df123ce	0.11774407
251	0x3d76fe06	0.06030085
252	0x3dc5d06a	0.096588925
253	0xbd75e75f	-0.060035106
254	0x3db4ff86	0.088378
255	0xbd6c2a89	-0.057657752

post_layers.2.bias f4 [64]
0	0xbdd62b2c	-0.10457453
1	0x3dadec2e	0.08492313
2	0x3cf4a56d	0.029864037
3	0x3db413ce	0.0879284
4	0xbcc384e6	-0.023867082
5	0x3d3efa24	0.04662527
6	0x3d9b2479	0.07575316
7	0x3b878dad	0.004136762
8	0x3ce8afc6	0.028404128
9	0x3ddec293	0.10876956
10	0xbdbbbeca	-0.091672495
11	0xbc72238f	-0.014778986
12	0x3dc4467e	0.09583758
13	0x3cbe68ab	0.023243269
14	0xbddd5475	-0.108071245
15	0xbe02d72e	-0.12777397
16	0x3da04f89	0.0782767
17	0x3d8724df	0.065988295
18	0x3ddf220c	0.10895166
19	0x3ccb61f1	0.024826976
20	0x3dcf29ff	0.10115432
21	0x3c91a2f4	0.017777897
22	0xbda1b77e	-0.078963265
23	0xbda5cfa2	-0.080962434
24	0xbce9e4b4	-0.028551437
25	0x3dd09e17	0.10186403
26	0xbcaa67b4	-0.020801403
27	0xbd2fb088	-0.042892963
28	0x3d07bf7e	0.033141606
29	0x3d9d61fb	0.07684704
30	0x3d99ec74	0.07515803
31	0x3a2c61b2	0.0006575837
32	0xbde3c1df	-0.11120962
33	0x3de44133	0.11145248
34	0xbd767582	-0.060170658
35	0xbdfcf746	-0.12351851
36	0x3d793f7c	0.06085156
37	0xbdb51028	-0.08840972
38	0xbd7b3b5a	-0.0613359
39	0xbd8661f2	-0.0656165
40	0x3e009895	0.12558205
41	0xbc93fae7	-0.018063975
42	0x3cbb11b8	0.022835597
43	0xbdefd85a	-0.11711188
44	0xbb96014a	-0.0045777904
45	0x3dc166c3	0.09443428
46	0x3ded1fc5	0.11578325
47	0xbdb3f009	-0.087860174
48	0x3c6ec793	0.014573949
49	0xbd6b4a8a	-0.057444133
50	0x3ddf0f0e	0.10891543
51	0x3d0a00e7	0.033692267
52	0x3dc3f52b	0.095682465
53	0x3c8b3ca4	0.01699669
54	0x3dc6a4b7	0.096993856
55	0x3dce79b3	0.10081806
56	0x3dbab397	0.09116285
57	0x3e0bcaaf	0.13651536
58	0xbc7ce738	-0.015435986
59	0x3d955d06	0.072931334
60	0x3db4d868	0.08830339
61	0x3d9d62f9	0.07684893
62	0xbe026f50	-0.12737775
63	0x3dfb9146	0.12283568

output_layer.weight f4 [1, 64]
0	0xbe0eb259	-0.13935222
1	0x3dd617ad	0.104537345
2	0xbd876d20	-0.06612611
3	0xbdb78f8e	-0.08962928
4	0x3d9c421a	0.07629795
5	0xbda8bbf1	-0.08238972
6	0xbc3e5109	-0.011616
7	0x3d4b21f0	0.049592912
8	0x3d456262	0.04818953
9	0xbd87b111	-0.066255696
10	0xbda035fa	-0.07822795
11	0x3e0c208c	0.1368429
12	0x3d072faf	0.03300446
13	0x3dd68cc8	0.10476071
14	0xbdb8e532	-0.090280905
15	0xbe0cf425	-0.13765009
16	0x3dbd5236	0.09244196
17	0xbd976110	-0.0739156
18	0xbdbcc4f5	-0.09217254
19	0xbdddcfc7	-0.10830646
20	0xbc44c981	-0.012010933
21	0xbd41d781	-0.04732466
22	0xbca43e32	-0.020049188
23	0x3dfdfbf9	0.124015756
24	0xbd985578	-0.07438177
25	0x3cd4a505	0.025957594
26	0xbd8454d0	-0.06461489
27	0x3dc780b9	0.09741349
28	0x3dbf91d2	0.09353985
29	0xbd7eefed	-0.06224053
30	0xbbcffd98	-0.0063473694
31	0x3d047c6a	0.032345213
32	0xbcd78f66	-0.026313495
33	0x3de6d468	0.11270982
34	0x3db3dca6	0.0878232
35	0xbdd942c6	-0.10608439
36	0x3e20622e	0.15662453
37	0x3de37239	0.111057706
38	0xbdb208ee	-0.086931095
39	0xbdb83e12	-0.08996214
40	0x3dbb7de0	0.09154868
41	0xbd814ed0	-0.063138604
42	0xbdc3ac25	-0.09554318
43	0xbdd42b5e	-0.10359834
44	0x3dbd5318	0.092443645
45	0xbd96b884	-0.07359412
46	0xbdbaed6a	-0.091273144
47	0xbdb511d0	-0.08841288
48	0x3e062bf1	0.131027
49	0x3dfb054b	0.12256869
50	0x3db38861	0.087662466
51	0xbd9ee166	-0.07757835
52	0x3d77f95d	0.060540546
53	0x3d6939d5	0.05693992
54	0x3d0cb051	0.034347836
55	0xbdf2a662	-0.11848141
56	0xbc5debde	-0.013545005
57	0x3d9e4314	0.07727638
58	0x3e14c5c0	0.1452856
59	0x3dea9b94	0.114554554
60	0xbce99245	-0.02851213
61	0x3d925cf9	0.071466394
62	0xbe030415	-0.12794526
63	0x3c8a0a66	0.016850661
