saved_models/2023-04-19_23-26-51/model.pth (torch, 638556 bytes, 60 tensors)

type_embedding.weight f4 [100, 100]
0	0xbf3467c5	-0.7047084
1	0xbfacf1cc	-1.351129
2	0xbf9fb8f1	-1.2478315
3	0x3fb8b58c	1.4430404
4	0xbe909a26	-0.28242606
5	0xbeeee165	-0.46656337
6	0xbf779c36	-0.96722734
7	0xbf05105d	-0.51978093
8	0xbe962c85	-0.2933084
9	0xbec9d418	-0.39419627
10	0x3fa4cc32	1.2874815
11	0xbf005548	-0.5013013
12	0x3f049a3f	0.5179786
13	0x3f8e0163	1.1094173
14	0x3fa4d459	1.2877303
15	0x3dbb40be	0.09143208
16	0x3fde7c7e	1.7381742
17	0xbdf42365	-0.119208135
18	0xbf7c0282	-0.98441327
19	0xbe0ed972	-0.13950136
20	0x3c7bd098	0.015369557
21	0xbe9e9d26	-0.3097927
22	0x3fc53850	1.540781
23	0xbf5d68dc	-0.8648813
24	0x3f543750	0.828969
25	0xbec8fe19	-0.3925636
26	0x3f38113f	0.71901315
27	0xbb555ac3	-0.003255532
28	0x3d5f0d16	0.05445584
29	0xc00d87bd	-2.2114098
30	0x3f31d28e	0.69461906
31	0xc00a31c4	-2.1592875
32	0x3f8b5e52	1.0888159
33	0x3d90a1b1	0.0706209
34	0x3deb7152	0.114962235
35	0xbfd8d04d	-1.6938568
36	0x3e3a6b0d	0.18204899
37	0xc00cad1d	-2.198066
38	0x3fd834fd	1.6891171
39	0xbf05f566	-0.52327573
40	0xbe874658	-0.26420856
41	0xbf59c0a9	-0.850596
42	0x3f5ea4d1	0.8697024
43	0x3fc375eb	1.5270361
44	0xbd9dccef	-0.077051036
45	0x3d1a01f5	0.037599523
46	0x401be1e7	2.435663
47	0x3f153725	0.5828727
48	0xbfbd1556	-1.4772136
49	0x3bce1908	0.006289605
50	0xbebd86da	-0.37016946
51	0xbfd0413e	-1.626991
52	0xbdc5f961	-0.09666706
53	0x3e0a3733	0.1349762
54	0xbe76e8b0	-0.241122
55	0x3e60e924	0.21963936
56	0x3e48ded9	0.1961626
57	0xbb4e57d2	-0.003148545
58	0xbfd4fe9f	-1.6640204
59	0x3fb1dc2e	1.3895319
60	0xbf961611	-1.1725484
61	0xbfddc947	-1.732705
62	0xbf325703	-0.6966402
63	0x3fb7e9ed	1.4368263
64	0x3f5b0d10	0.85566807
65	0xbfda42ba	-1.7051613
66	0x3ec30cff	0.38095853
67	0xbe4fa084	-0.20276076
68	0xbf294d89	-0.66133934
69	0x3f358827	0.70910877
70	0x3e58dcbd	0.21177955
71	0x3e53187a	0.20614806
72	0xbfe753f8	-1.80725
73	0xbf5a3039	-0.8522983
74	0xbf0074ba	-0.5017811
75	0x3f0e4218	0.555696
76	0x3e5dbe73	0.21654682
77	0xbff79987	-1.9343728
78	0xc0538ecc	-3.3055906
79	0x3c41b577	0.01182305
80	0xbeede93d	-0.4646701
81	0xbef88dc0	-0.48545647
82	0x3bf0159b	0.0073267943
83	0x3f0a9b69	0.5414339
84	0x3e40cfb2	0.1882923
85	0x3f261cfe	0.6488799
86	0x3fb15ee4	1.3857083
87	0x3f7a4f5c	0.9777734
88	0xbf099bd8	-0.53753424
89	0xbfb88c99	-1.4417907
90	0xbc577721	-0.013150961
91	0xbefaa412	-0.489533
92	0xbf400217	-0.7500319
93	0xbeaa4bba	-0.332609
94	0xbfe20c4c	-1.7660003
95	0xbfc9f12d	-1.5776726
96	0xbfdb4959	-1.7131759
97	0xbebac76b	-0.3648027
98	0xbf7b4af6	-0.98161256
99	0x3ea8c01c	0.32959068
100	0xbf5385c2	-0.82625973
101	0xbfd11801	-1.633545
102	0x3f894565	1.0724303
103	0x3c9a9322	0.018868987
104	0xbfd6c887	-1.6779946
105	0xbfa2647c	-1.2686915
106	0xbf783dd8	-0.96969366
107	0x3f39c621	0.72567946
108	0xbf6cd117	-0.92506546
109	0xbf4b9212	-0.7951976
110	0x3d5d4982	0.05402518
111	0xbe9c14c8	-0.30484605
112	0xbf1f60d3	-0.6225712
113	0xbe43e93d	-0.19131942
114	0x3d8cf562	0.068827406
115	0xbfd21815	-1.6413599
116	0xbed450f1	-0.41468003
117	0xbe96aa22	-0.29426676
118	0x3f641c06	0.8910526
119	0xbf98d2b6	-1.1939304
120	0xbec26160	-0.37964916
121	0x3e8f1ebc	0.27953136
122	0xbfed4ed2	-1.8539679
123	0xbf489bdd	-0.7836283
124	0xbef53a37	-0.47895977
125	0xbeccae4b	-0.39976725
126	0xbfd4d553	-1.6627601
127	0xbef67a79	-0.48140314
128	0xbf56c352	-0.83891785
129	0x4001f18e	2.0303683
130	0x3f18728d	0.5954979
131	0x3e8d7cf1	0.27634385
132	0xbf810161	-1.0078546
133	0x3f5808f9	0.8438869
134	0x3f135f0a	0.57566893
135	0xbf34796c	-0.70497775
136	0x3f700067	0.93750614
137	0xbf475b24	-0.77873445
138	0xbff59ea8	-1.9189043
139	0x3e02ac60	0.12761068
140	0x3ec58419	0.38577345
141	0xbed7e159	-0.42164114
142	0xbf98889e	-1.1916692
143	0xbf0aaf1e	-0.5417346
144	0xbfbf7e81	-1.4960481
145	0x3f9d5f7b	1.2294763
146	0xbeffda08	-0.49971032
147	0xbf6ae455	-0.9175466
148	0x3fdfa4b2	1.7472136
149	0x3e836687	0.2566416
150	0x3e857fd3	0.26074085
151	0xbf47076a	-0.7774569
152	0x3f3c6af7	0.73600715
153	0xc0046724	-2.0687952
154	0x40173835	2.3628056
155	0xbf1a616f	-0.6030492
156	0x3f97bf8d	1.1855332
157	0xbf5ed767	-0.8704743
158	0xbeaba35d	-0.33523074
159	0x3e69779e	0.22799537
160	0x3e95b8f8	0.29242682
161	0x3fdde34e	1.7334993
162	0x3f40a581	0.7525254
163	0xbee36096	-0.44409627
164	0x3ec10349	0.3769782
165	0xbd2f9c0a	-0.04287342
166	0x3e453cac	0.19261426
167	0xbed81a90	-0.42207766
168	0xbd159bfb	-0.036525708
169	0x3ed117fb	0.40838608
170	0x3f1620b4	0.5864365
171	0x3f06e13d	0.52687436
172	0xbf4a4c57	-0.79022735
173	0x3f382dc0	0.7194481
174	0xbf8a6b41	-1.0813981
175	0x3f0b3bb2	0.5438796
176	0x3d3ce9ca	0.046121396
177	0xbf2a852e	-0.66609466
178	0x3ecc8f43	0.3995305
179	0x3e37754d	0.1791584
180	0xbf8620fe	-1.0478818
181	0xbfc92d53	-1.5716957
182	0x3e41eddc	0.18938392
183	0xbf81507f	-1.010269
184	0xbf674f1f	-0.90355104
185	0xbba9f8fd	-0.0051871524
186	0xbf48c59a	-0.78426516
187	0xbf285746	-0.6575817
188	0x3dc0551c	0.09391233
189	0xbf7a059a	-0.976648
190	0xbf5c976e	-0.86168563
191	0xbf135b53	-0.57561225
192	0xbf1f2ec3	-0.6218073
193	0xbf9ed842	-1.2409747
194	0x3f1fde2d	0.6244839
195	0xbfe05fe7	-1.7529267
196	0x3e98854f	0.29789206
197	0xbf6ac15e	-0.91701305
198	0xbf079d95	-0.52974826
199	0xbeac324a	-0.33632118
200	0x3f1eb597	0.61995834
201	0x3e9d931e	0.30776304
202	0xbf9bb159	-1.2163497
203	0xbf67d88b	-0.90564793
204	0xbf98656d	-1.1905953
205	0xbeaa6ed0	-0.33287668
206	0x3e95ddca	0.29270774
207	0x3dd179f7	0.10228341
208	0xbdb468dd	-0.088090636
209	0x3e6d102a	0.23150697
210	0xbf48186a	-0.7816225
211	0x3fa119ff	1.2586058
212	0xbf745b44	-0.9545176
213	0xbf2b7b27	-0.6698479
214	0xbed515b5	-0.41618124
215	0xbfb04eb4	-1.3774018
216	0xbec9b6d2	-0.39397293
217	0x3fe46bda	1.7845414
218	0xbc4e5ed2	-0.012595849
219	0xbf5e81f4	-0.8691704
220	0xbf0d51ed	-0.55203134
221	0xbf586ff0	-0.84545803
222	0xbf0f1d11	-0.55903727
223	0xbf208ada	-0.6271187
224	0x3f8e3fbc	1.11132
225	0xbef2c613	-0.47416744
226	0xbf3d2a14	-0.7389233
227	0xbfd6522c	-1.6743827
228	0x3feae6fc	1.8351741
229	0xc008d048	-2.1377125
230	0xbf66249a	-0.898996
231	0x3f9f8b0a	1.2464306
232	0xc00a1608	-2.1575947
233	0x3ec8a623	0.39189252
234	0x3e832803	0.25616464
235	0xbf627f60	-0.8847561
236	0x3f3fe00d	0.7495125
237	0xbecb69c6	-0.39729136
238	0xbf9f1b46	-1.2430198
239	0x3ecce462	0.40017992
240	0x3e3529c8	0.1769172
241	0xbebc667e	-0.36796945
242	0x3fbbebb5	1.4681307
243	0x3f7cc1e5	0.9873336
244	0x3e9d7cb2	0.30759197
245	0xbe237188	-0.15961277
246	0x3ea1d506	0.31607836
247	0xbfbe080e	-1.4846208
248	0x3faef179	1.3667442
249	0xbdb1bc35	-0.08678476
250	0xbf0ebcf8	-0.55757093
251	0xbe31bf89	-0.17358221
252	0x3f1b1f0c	0.6059425
253	0xbe302af4	-0.17203885
254	0x3ee1d627	0.44108698
255	0xbf355dd8	-0.7084632

distance_expansion.means f4 [32]
0	0x3cafd42c	0.021463476
1	0x3db2db3e	0.087332234
2	0x3db27e69	0.08715517
3	0x3dc29ea2	0.09502913
4	0x3dd7e794	0.10542217
5	0x3e04afc2	0.12957671
6	0x3e124e3c	0.14287657
7	0x3e47fecd	0.19530793
8	0x3e62d8b5	0.2215298
9	0x3e88eaa0	0.26741505
10	0x3e906ca1	0.28207877
11	0x3e9ffb9b	0.31246647
12	0x3ead32dd	0.33827868
13	0x3ecf3495	0.40469804
14	0x3ed0f1ff	0.40809628
15	0x3ee993a8	0.45620465
16	0x3ef49b35	0.47774664
17	0x3f034b31	0.5128661
18	0x3f0e8b62	0.5568143
19	0x3f17841d	0.59185964
20	0x3f1fa55c	0.62361693
21	0x3f275fd1	0.6538058
22	0x3f316221	0.6929036
23	0x3f3bf701	0.73423773
24	0x3f43049e	0.7617892
25	0x3f4b5cb3	0.7943832
26	0x3f670f75	0.9025796
27	0x3f6dc37b	0.92876405
28	0x3f70a8fd	0.94007856
29	0x3f7cc351	0.9873553
30	0x3f7fdd7a	0.9994732
31	0x3f80000e	1.0000017

distance_expansion.betas f4 [32]
0	0x4381c5f4	259.5465
1	0x4381c8b8	259.5681
2	0x4381cd17	259.60226
3	0x4381cd7c	259.60535
4	0x4381c116	259.50848
5	0x4381bf1d	259.49307
6	0x4381bb3e	259.46283
7	0x4381b682	259.42584
8	0x4381b3a3	259.4034
9	0x4381b61f	259.42282
10	0x4381b43a	259.40802
11	0x4381b633	259.42343
12	0x4381b3cf	259.40475
13	0x4381b60e	259.4223
14	0x4381b413	259.40683
15	0x4381b4aa	259.41144
16	0x4381b491	259.41068
17	0x4381b877	259.44113
18	0x4381b9cc	259.45154
19	0x4381ba84	259.45715
20	0x4381bb5b	259.4637
21	0x4381bc44	259.47083
22	0x4381bcb2	259.47418
23	0x4381bdf3	259.48398
24	0x4381bd9f	259.4814
25	0x4381bda2	259.4815
26	0x4381b860	259.44043
27	0x4381b7ce	259.43597
28	0x4381b9a3	259.4503
29	0x4381b8e6	259.44452
30	0x4381bbea	259.46808
31	0x4381be1d	259.48526

pre_layers.0.weight f4 [64, 100]
0	0xbdac1515	-0.084024586
1	0xbd248c21	-0.0401727
2	0x3c5b6832	0.013391541
3	0x3d4316a2	0.047629006
4	0xbdabe7f2	-0.083938494
5	0xbd88aedc	-0.06673977
6	0xbd8d665c	-0.06904289
7	0xbdd63e56	-0.104611084
8	0xbd41c430	-0.04730624
9	0xbda3c373	-0.07996263
10	0x3dc5faee	0.09667002
11	0xbde3732d	-0.111059524
12	0xbd7c4c7f	-0.06159639
13	0x3da09d43	0.07842495
14	0x3da470cf	0.08029329
15	0x3d04c933	0.03241844
16	0xbd9866ae	-0.074414596
17	0xbda39404	-0.07987216
18	0xbd07dba4	-0.03316845
19	0x3d6b9ace	0.05752068
20	0x3c64f02b	0.013973276
21	0x3dd2bfe0	0.102905035
22	0xbd8c9209	-0.068637915
23	0xbc7f4fed	-0.015583021
24	0x3d0404f3	0.032231282
25	0x3c941580	0.018076658
26	0xbc1e1e71	-0.0096508125
27	0x3d003226	0.031297825
28	0x3ce9fb25	0.028562138
29	0x3de75f79	0.11297507
30	0xbba42fa5	-0.0050105625
31	0x3d4d0737	0.05005571
32	0xbd7093bf	-0.05873465
33	0x3d81800f	0.06323253
34	0xbbb395ce	-0.0054805046
35	0xbd06f415	-0.03294762
36	0xbd735dcd	-0.059415627
37	0xbcd7d919	-0.026348637
38	0x3d669040	0.05628991
39	0xbda19cad	-0.07891212
40	0x3b4bfacc	0.0031124828
41	0xbdd3a3f3	-0.10334005
42	0x3d9232c9	0.07138593
43	0x3da7f9e5	0.082019605
44	0x3d8d994f	0.06914007
45	0xbce8843c	-0.028383367
46	0xbd8f4019	-0.069946475
47	0xbd030a30	-0.031992137
48	0x3d0f4b55	0.03498395
49	0x3d92f444	0.07175496
50	0x3d9a0f97	0.07522505
51	0x3cb85b4b	0.02250447
52	0x3d417e82	0.047239788
53	0xbcd7aa30	-0.026326269
54	0xbdca2e39	-0.098720975
55	0x3a6e66a9	0.0009094277
56	0xbc9ec295	-0.019379893
57	0xbc78c675	-0.015184035
58	0x3dc50524	0.09620121
59	0x3dbd0c79	0.092308946
60	0x3ccddb4e	0.025128987
61	0x3c80cebc	0.015723579
62	0x3ca37a08	0.01995565
63	0x3d0d0ed4	0.03443797
64	0xbd099050	-0.033584893
65	0xbceda2f9	-0.029008375
66	0xbd1edbf7	-0.038783994
67	0xbdaa6e9f	-0.083218805
68	0xbc56cef0	-0.013110861
69	0x3dbe8c05	0.0930405
70	0x3d96eead	0.073697425
71	0xbdb535d9	-0.08848161
72	0xbc724190	-0.014786139
73	0xbce669bf	-0.028126596
74	0xbbb94585	-0.0056540393
75	0xbd210b4d	-0.039317418
76	0x3d509d2d	0.050931145
77	0x3c950b6f	0.018193929
78	0xbc575963	-0.01314387
79	0xbd61f6ae	-0.055166893
80	0x3d482da7	0.048871662
81	0xbd75904c	-0.059952065
82	0xbd87e21e	-0.06634925
83	0x3d6f04e3	0.05835427
84	0x3ca8c6f2	0.020602677
85	0xbd05bf52	-0.03265316
86	0xbb5c3191	-0.003359888
87	0x3dd55f32	0.10418548
88	0x3db63e95	0.08898655
89	0xbc0d24ba	-0.008614713
90	0xbda9dbd4	-0.08293882
91	0x3c9e79dc	0.019345216
92	0xbd941f42	-0.072325245
93	0x3dc12ab9	0.09431977
94	0x3c9b8534	0.018984415
95	0x3d166f54	0.036727265
96	0x3dd3ec88	0.10347849
97	0xbd5d583e	-0.054039232
98	0xbd1d7483	-0.038441192
99	0x3d00907c	0.03138779
100	0xbd4b63af	-0.049655613
101	0x3d4fdca1	0.050747517
102	0x3d99a962	0.0750301
103	0x3cf02137	0.029312713
104	0x3d42cb84	0.04755737
105	0xbd2bb93e	-0.041924708
106	0x3da6f1e9	0.081516095
107	0x3dd1a4b8	0.10236496
108	0x3dcfe378	0.10150808
109	0xbd143134	-0.036179736
110	0x3d66591b	0.05623732
111	0xbddda74b	-0.10822924
112	0x3d276597	0.040868368
113	0x3c705def	0.014670833
114	0xbd75d361	-0.06001604
115	0x3d922ea8	0.07137805
116	0x3da9be4d	0.0828825
117	0xbdccc812	-0.09999098
118	0xbcf3ddb8	-0.02976881
119	0x3d840688	0.06446558
120	0x3d57d750	0.052695572
121	0xbd664bc9	-0.056224618
122	0xbc75aca2	-0.014994772
123	0xbdbd0b7f	-0.09230708
124	0xbd0ebfe7	-0.03485098
125	0xbcc95ea3	-0.02458126
126	0xbbe8bb69	-0.007102419
127	0x3d80132e	0.06253658
128	0x3cc9be80	0.02462697
129	0xbdebb5eb	-0.115093075
130	0xbd9e1120	-0.0771811
131	0x3d506d1f	0.050885316
132	0xbd16ce51	-0.036817852
133	0x3cce644a	0.025194306
134	0xbd06a76c	-0.03287451
135	0x3db2352a	0.087015465
136	0xbd7251dc	-0.0591601
137	0xbd67049e	-0.056400888
138	0x3d829039	0.063751645
139	0x3da89b61	0.08232761
140	0x3de1e9ed	0.11030946
141	0xbd9900b6	-0.07470839
142	0xbd419732	-0.04726333
143	0x3d0d7327	0.034533646
144	0xbd34322c	-0.04399316
145	0xbce33079	-0.027733075
146	0xbdaafb3c	-0.083487004
147	0xbcb1ae27	-0.021689488
148	0xbc952e28	-0.018210486
149	0xbd9b7840	-0.07591295
150	0xbbf92fe1	-0.0076045846
151	0xbbae1d79	-0.005313572
152	0x3ce3063c	0.027712934
153	0xbd80577d	-0.06266687
154	0x3da3440b	0.079719625
155	0xbd05a3d8	-0.032626957
156	0xbdd383f0	-0.103278995
157	0xbcd35f53	-0.02580229
158	0x3d9681a4	0.07348946
159	0x3d117c8c	0.035519168
160	0x3ca99e62	0.020705406
161	0xbd0e5ad2	-0.03475458
162	0x3dacbea0	0.08434796
163	0x3d51ba01	0.051202778
164	0xbd2770f5	-0.04087921
165	0x3d7ac4a8	0.061222702
166	0x3c0abc1a	0.0084676985
167	0x3d78469d	0.060614217
168	0xbcd44b9e	-0.025914963
169	0xbd365998	-0.044519037
170	0x3de056ff	0.10954093
171	0x3d21a10b	0.039460223
172	0xbe176c69	-0.14787449
173	0xbd9fee83	-0.078091644
174	0x3dab0943	0.08351376
175	0x3d8325cd	0.06403694
176	0xbd04e84f	-0.03244811
177	0x3c2e859b	0.010651971
178	0x3d64677e	0.05576276
179	0x3dac81ba	0.08423181
180	0xbba4bd07	-0.0050274166
181	0xbd7b4479	-0.061344597
182	0xbe0140e8	-0.12622416
183	0x3db31aab	0.08745321
184	0x3d908aba	0.0705771
185	0x3d8634b5	0.06553022
186	0xbd37ae7d	-0.04484414
187	0x3c51cc97	0.012805126
188	0x3d01160e	0.031515174
189	0x3d3c8cb9	0.04603264
190	0x3c9e7a2b	0.019345364
191	0x3b9af80a	0.0047292756
192	0x3d11cfc7	0.035598543
193	0xbd4e7e65	-0.050413508
194	0x3c443514	0.011975545
195	0x3d574842	0.052559145
196	0x3ce20fd7	0.027595444
197	0x3ced333b	0.028955093
198	0xbd9afb7d	-0.07567499
199	0x3d9f141a	0.07767506
200	0x3d712741	0.058875326
201	0x3d928bc7	0.07155567
202	0xbd9ef6e5	-0.07761935
203	0xbd18b7d5	-0.03728469
204	0xbda21618	-0.0791437
205	0x3d973f97	0.07385176
206	0xbbde9f85	-0.0067939186
207	0xbd7e6e00	-0.062116623
208	0x3dd2df70	0.102965236
209	0x3dcf6c08	0.10128027
210	0x3d534177	0.051576104
211	0xbcd076a7	-0.025447203
212	0xbdbfefe4	-0.093719274
213	0x3dbe2581	0.09284497
214	0xbce598cb	-0.028026959
215	0xbd91b5e1	-0.07114769
216	0xbd038419	-0.0321084
217	0x3d6fd3a0	0.05855143
218	0x3cace0c7	0.021103276
219	0x3da40f1e	0.08010696
220	0xbbd71bb9	-0.006564584
221	0x3de5a637	0.112133436
222	0xbd64f33b	-0.055896025
223	0x3da5790c	0.080797285
224	0x3ca71ac4	0.020398505
225	0x3db72ff6	0.08944695
226	0xbcd4f92b	-0.025997719
227	0x3b5e3705	0.0033907306
228	0x3cf91839	0.030407058
229	0xbbedd2df	-0.007257804
230	0x3dc284ef	0.09498011
231	0x394d6382	0.00019587393
232	0x3da50f80	0.08059597
233	0x3da55738	0.08073276
234	0x3d7488a9	0.05970064
235	0xbdb0917d	-0.086215
236	0xbbf67e83	-0.0075224056
237	0xbbff42d5	-0.0077899494
238	0xbd09d1f4	-0.033647493
239	0xbda8f338	-0.08249515
240	0xbd86ad2b	-0.06575998
241	0x3aaf2cba	0.001336477
242	0xbdc200b8	-0.09472793
243	0xbd2a0d78	-0.04151675
244	0x3dcbc1e7	0.09949093
245	0xbd7b1ea5	-0.06130852
246	0x3d4943b6	0.04913684
247	0xbd920d83	-0.071314834
248	0x3d0be2a8	0.034151703
249	0x3d748461	0.05969656
250	0x3d7357aa	0.059409775
251	0xb9be0896	-0.0003624602
252	0x3c9a9415	0.01886944
253	0xbd9c875b	-0.076430045
254	0x3d55420a	0.052064933
255	0x3db59e37	0.08868068

pre_layers.0.bias f4 [64]
0	0xbd91bf3a	-0.07116552
1	0x3d1a7ea9	0.03771845
2	0xbd94b1a6	-0.07260446
3	0xbcda3c52	-0.026640091
4	0xbda94ea3	-0.08266952
5	0x3d697ad7	0.057001915
6	0x3d047145	0.032334585
7	0xbde768cc	-0.11299285
8	0xba9e4ae8	-0.0012076767
9	0xbdb203da	-0.08692141
10	0xbc9049aa	-0.01761325
11	0x3da82412	0.08210005
12	0xbd151096	-0.03639277
13	0x3d3b604d	0.045746136
14	0x3cd387dc	0.025821619
15	0x3ceb0b86	0.028692018
16	0xbd8a163d	-0.06742523
17	0x3b42653a	0.0029662387
18	0xbce1225f	-0.02748221
19	0xbd08a439	-0.03335974
20	0xbdee988c	-0.1165019
21	0xbadff063	-0.0017085191
22	0x3d588af5	0.052866895
23	0xbda9f966	-0.08299522
24	0x3c0bb6a0	0.008527428
25	0xbc101524	-0.008794103
26	0xbd6e6ed2	-0.058211155
27	0x3cefc50e	0.029268768
28	0xbcb80358	-0.022462532
29	0x3d0f486f	0.034981187
30	0xbdc7485f	-0.097306006
31	0x3d5cc2c1	0.05389667
32	0x3d094dcb	0.033521455
33	0xbd8b75a5	-0.06809548
34	0xbd6cba71	-0.057794992
35	0x3d3b502d	0.04573076
36	0x3db64aff	0.08901023
37	0xbd5dfea4	-0.054197922
38	0x3db8b593	0.090190075
39	0xbc1a88fa	-0.009432072
40	0xbd8cb00b	-0.06869515
41	0xbb4952d5	-0.0030719538
42	0xbcd0af84	-0.025474317
43	0xbd49ec35	-0.04929753
44	0xbdee7a25	-0.11644391
45	0xbd6fa391	-0.0585056
46	0xbcfedea3	-0.03111202
47	0xbcaf281c	-0.02138143
48	0xbb8f84a4	-0.0043798257
49	0x3d01c2bc	0.031679854
50	0xbcfecdf6	-0.03110407
51	0x3d385701	0.04500485
52	0xbd4d20e3	-0.05008019
53	0xbb2e0ab5	-0.0026556675
54	0xbce242aa	-0.027619679
55	0xbdb27452	-0.087135926
56	0xbd8d2b15	-0.06892983
57	0x3b035ab3	0.0020043075
58	0x3d2d76f7	0.04234978
59	0xbddeeb4e	-0.108847246
60	0x3c967f4c	0.018371247
61	0x3d8247c0	0.063613415
62	0xbdb8330e	-0.08994113
63	0xbcd178df	-0.025570331

post_layers.0.weight f4 [64, 64]
0	0xbdd5a55f	-0.10431933
1	0xbd9f58fd	-0.07780645
2	0x3d8c16a5	0.068402566
3	0x3d642db5	0.055707652
4	0xbcdcd483	-0.026956802
5	0xbdf09f13	-0.11749091
6	0xbdf97dfb	-0.12182232
7	0xbd852ec5	-0.06503061
8	0x3d0538cd	0.032524873
9	0xbdb50dc6	-0.08840518
10	0x3d84ef64	0.06490973
11	0xbdb72091	-0.089417584
12	0xbe0eef2b	-0.13958423
13	0x3da3f6b3	0.080060385
14	0x3deed086	0.116608664
15	0x3dc095c0	0.094035625
16	0x3ccaa1e7	0.024735404
17	0x3cdaf081	0.02672601
18	0xbdec70dd	-0.115449645
19	0x3cfc88f0	0.030827016
20	0xbc837dc6	-0.016051184
21	0xbd9c32e6	-0.076268956
22	0x3da07a4b	0.078358255
23	0xbd9e926f	-0.07742774
24	0x3d49c3fe	0.04925918
25	0x3da87c9d	0.08226893
26	0xbcbb6261	-0.02287406
27	0xbd93a0b1	-0.07208384
28	0xbd3d8ef4	-0.04627891
29	0x3ca6edc1	0.020377042
30	0x3d053f54	0.032531098
31	0xbd6aef6e	-0.057357244
32	0xbe010697	-0.1260017
33	0xbdc9c29e	-0.098515734
34	0xbddfefc6	-0.10934405
35	0xbe045831	-0.12924267
36	0xbce154e4	-0.0275063
37	0x3d1463df	0.036228057
38	0xbc99e789	-0.018787162
39	0xbd1aa446	-0.03775432
40	0xbd8104eb	-0.06299766
41	0xbc85396f	-0.016262738
42	0x3e0542d5	0.13013776
43	0xbcd8b20f	-0.026452092
44	0xbd057ffe	-0.032592766
45	0x3d8844f4	0.06653777
46	0xbd75bb7b	-0.05999325
47	0xbdd2bd50	-0.10290015
48	0x3d4a43e0	0.049381137
49	0xbdef48ab	-0.11683782
50	0xbc5b189c	-0.013372567
51	0x3d738239	0.059450362
52	0x39c06940	0.0003669951
53	0xbdaa954b	-0.083292566
54	0x3c83c1a0	0.016083539
55	0x3d942fdb	0.0723569
56	0xbe2b6437	-0.16737448
57	0x3d2a1de6	0.04153242
58	0x3e03853c	0.12843794
59	0xbda5dcb2	-0.08098735
60	0xbd204a5d	-0.03913342
61	0x3d12d6a9	0.035849247
62	0xbe0b5dc5	-0.13609989
63	0xbcc8c322	-0.02450711
64	0x3dc9e574	0.09858218
65	0x3de92341	0.11383677
66	0xbdfe15e4	-0.12406519
67	0xbd2fb2a5	-0.042894978
68	0x3d2228ce	0.039589696
69	0x3ccb22d7	0.024796886
70	0xbd9f788c	-0.07786664
71	0x3daad136	0.08340685
72	0x3d175de8	0.03695479
73	0xbdbf2a6d	-0.09334264
74	0x3ccd891c	0.025089793
75	0x3d59da11	0.05318648
76	0x3dfcb3b5	0.12338964
77	0xbaac83fe	-0.0013161895
78	0xbcf26c18	-0.029592559
79	0x3dbd1a07	0.0923348
80	0xbd4b851e	-0.049687497
81	0xbdfcc370	-0.12341964
82	0x3dccbc97	0.09996908
83	0xbd99c908	-0.07509047
84	0xbe1b14da	-0.15144673
85	0xbdcb853d	-0.099375226
86	0xbda8c1d6	-0.08240096
87	0xbd007229	-0.03135887
88	0xbddb340c	-0.107032865
89	0xbcb7b8bd	-0.022426957
90	0x3cc76699	0.024340915
91	0x3ddc8af8	0.10768694
92	0x3deafc4a	0.114739016
93	0xbd9c1d3a	-0.07622762
94	0x3d19328f	0.037401732
95	0xbd5c160d	-0.053731967
96	0x3cf1249c	0.029436402
97	0x3dcb8f42	0.09939434
98	0xbd6b3089	-0.057419334
99	0x3d637d24	0.055539265
100	0x3deb17e3	0.114791654
101	0xbc85c5d7	-0.016329689
102	0x3d6d46cc	0.057928845
103	0xbe215a73	-0.1575716
104	0xbdd1a581	-0.102366455
105	0xbd7f79d0	-0.06237203
106	0x3df0bd53	0.11754861
107	0xbda5a64d	-0.0808836
108	0xbd2f72c7	-0.04283407
109	0xbd709e16	-0.058744512
110	0x3cd0422d	0.02542218
111	0x3ca695e8	0.020335153
112	0xbda8d9c3	-0.0824466
113	0xbcdd20db	-0.026993206
114	0xbd09f831	-0.03368396
115	0x3cd3379e	0.025783356
116	0xbdda3693	-0.106549405
117	0x3dd4508b	0.10366925
118	0xbb4742eb	-0.0030404876
119	0x3d0704b5	0.032963473
120	0xbd25d4a8	-0.040486008
121	0x3e075675	0.13216574
122	0xbdf8a19e	-0.12140201
123	0x3d4cff50	0.050048172
124	0x3dd00aa6	0.10158281
125	0xbdcc4d1a	-0.099756435
126	0xbd8409a3	-0.064471506
127	0x3c9d29d6	0.019184988
128	0xbd9b10ec	-0.07571587
129	0xbd84111c	-0.06448576
130	0x3d0c5c8e	0.034267955
131	0xbd8b9bfc	-0.06816861
132	0x3bdb3df5	0.0066907355
133	0x3d034f11	0.032057825
134	0x3cdd1dc9	0.026991742
135	0x3dbe3cfb	0.09288975
136	0xbdfb5866	-0.1227272
137	0xbe07bc28	-0.1325537
138	0x3d89e0fc	0.067323655
139	0x3d2a394e	0.041558556
140	0xbd8a02c1	-0.067388065
141	0x3d28c377	0.041202035
142	0xbd700510	-0.058598578
143	0xbd1c3a8d	-0.038141776
144	0xbc275d9e	-0.010215191
145	0x3cad13d0	0.021127611
146	0xbad92c97	-0.0016569075
147	0xbcdf2797	-0.027240558
148	0xbd5de093	-0.05416925
149	0x3db7a344	0.08966687
150	0x3c64d7f6	0.013967505
151	0x3c6ee923	0.014581951
152	0x3d9980d8	0.07495278
153	0x3ddc3469	0.10752184
154	0x3d1b3b0e	0.037898116
155	0xbd85bacf	-0.065297715
156	0x3ccc27a9	0.024921255
157	0x3ae17bde	0.0017203053
158	0x3d3f9649	0.046774182
159	0x3df245a5	0.1182969
160	0x3d6484b4	0.055790618
161	0xbd5f2715	-0.05448063
162	0xbe0374ff	-0.12837599
163	0xbd97e2e9	-0.074163266
164	0x3dc8d4ee	0.09806238
165	0x3df6f66d	0.12058721
166	0xbdcfeb05	-0.10152248
167	0xbda7b602	-0.08189012
168	0x3d8a421e	0.06750892
169	0xbd302268	-0.043001562
170	0x3d5d219d	0.053987134
171	0xbd8e202c	-0.0693973
172	0x3dd326d6	0.10310142
173	0xbdcc50b0	-0.099763274
174	0xbd95d40a	-0.07315834
175	0xbdabcfb0	-0.083892226
176	0xbdb8614c	-0.09002933
177	0x3d8d2506	0.06891827
178	0xbca7a48e	-0.020464208
179	0x3d349214	0.044084623
180	0x392402ab	0.00015641253
181	0xbd6bc62a	-0.05756203
182	0xbd7d5958	-0.061852783
183	0x3d534e19	0.05158815
184	0xbc84f21b	-0.016228726
185	0x3cf49424	0.029855795
186	0x3dd424ed	0.103586055
187	0xbb4e62f8	-0.0031492095
188	0x3ddc4743	0.107557796
189	0xbd478bcb	-0.0487173
190	0xbd3cac88	-0.046062976
191	0xb95149de	-0.00019959311
192	0xb8ab3a27	-8.164747e-05
193	0x3d98055a	0.07422896
194	0x3cad6e79	0.021170842
195	0xbda92ad8	-0.08260125
196	0x3dd775ba	0.105205014
197	0xbb996ba8	-0.004682023
198	0x3d9e1c7e	0.07720278
199	0x3d6d1929	0.057885323
200	0xbddd9084	-0.1081858
201	0xbe001f84	-0.12512022
202	0xbddbbda3	-0.1072953
203	0x3dd1c89b	0.102433406
204	0xbd77dc50	-0.06051284
205	0xbb3bb154	-0.0028639631
206	0xbd4e47cd	-0.050361443
207	0xbd87306e	-0.06601034
208	0x3d4c748d	0.04991584
209	0x3d157df3	0.036497068
210	0x3db80f94	0.08987346
211	0xbde2a12f	-0.110658996
212	0x3c885c48	0.016645566
213	0x3d90c8f6	0.0706958
214	0xbbbc5de6	-0.0057484983
215	0x3d90e291	0.07074464
216	0xbdfb37d6	-0.12266509
217	0xbce464e1	-0.027880134
218	0x3d030c98	0.031994432
219	0x3d2f374a	0.042777337
220	0xbcc3d923	-0.02390725
221	0x3da2a8cc	0.07942352
222	0xbdaab3fc	-0.083351105
223	0x3d55bc8a	0.052181758
224	0xbd9ac9dc	-0.07558033
225	0xbd848e62	-0.0647247
226	0x3bdb7da7	0.0066983285
227	0x3c8f9539	0.01752721
228	0x3dcdb6fb	0.100446664
229	0xbd80d208	-0.0629006
230	0xbd7fe181	-0.062470917
231	0xbd3d7d92	-0.04626233
232	0x3d82be36	0.06383936
233	0x3dba84b5	0.09107343
234	0xbdfbcdbf	-0.12295102
235	0x3dd5a6a3	0.10432174
236	0xbdf99086	-0.12185769
237	0x3d4cd556	0.05000814
238	0xbc45d4fc	-0.012074705
239	0x3e061fd8	0.13098085
240	0x3d38547b	0.04500244
241	0x3ceef2b2	0.02916846
242	0xbcf9a354	-0.030473389
243	0x3d298778	0.04138896
244	0xbd1248b5	-0.03571387
245	0xbddbab70	-0.107260585
246	0x3dd24a86	0.102681205
247	0xbd5daba5	-0.05411877
248	0x3d02444b	0.03180341
249	0x3d8e57ad	0.069503166
250	0x3c732267	0.014839745
251	0xbd3535cb	-0.044240754
252	0xba5236d0	-0.0008019032
253	0xbd7f052f	-0.062260803
254	0xbd6aac78	-0.057293385
255	0x3d5cd432	0.053913303

post_layers.0.bias f4 [64]
0	0x3cc888bd	0.024479264
1	0xbcf7adab	-0.030234179
2	0x3d8e5ff0	0.069518924
3	0x3d6aa0ad	0.05728214
4	0xbce8eec9	-0.028434174
5	0x3cd52d9a	0.026022721
6	0xbcfd1523	-0.030893868
7	0xbcf3d661	-0.02976531
8	0x3e07c2ef	0.13257955
9	0xbd10a1b2	-0.035310455
10	0xbdbcdeec	-0.092222065
11	0xbddab600	-0.10679245
12	0x3bb86ab7	0.005627956
13	0x3dc71b0c	0.09721956
14	0xbcafbef9	-0.021453368
15	0xbd85e468	-0.06537706
16	0xbc7f98a6	-0.015600359
17	0x3db4d33c	0.08829352
18	0x3d11b533	0.035573196
19	0xbd1aae6c	-0.037763998
20	0xbc01d5c8	-0.007924505
21	0xbd9895f2	-0.07450475
22	0xbd92e4c5	-0.071725406
23	0xbe1339ac	-0.14377469
24	0xbda866cf	-0.08222734
25	0x3bd72c89	0.0065665883
26	0x3dd5c53b	0.10438009
27	0x3cb4cba2	0.022069756
28	0x3d84ae6d	0.064785816
29	0x3d5bfd07	0.053708103
30	0x3dbb17ce	0.091354
31	0x3d1957d5	0.03743728
32	0x3db0f68b	0.08640774
33	0x3bc1a3a4	0.0059094
34	0x3d941163	0.07229879
35	0xbdded298	-0.10880011
36	0x3d552d96	0.052045427
37	0x3da92330	0.082586646
38	0xbdebca89	-0.1151324
39	0x3d87474e	0.06605397
40	0xbde784b9	-0.11304612
41	0xbd808096	-0.06274526
42	0x3dfc2e3e	0.123135075
43	0x3da39e8d	0.079892255
44	0xbcd0575d	-0.025432283
45	0xbe2fa93e	-0.17154405
46	0xbcaf9c16	-0.021436732
47	0x3d115e18	0.035490125
48	0xbcb97e66	-0.02264328
49	0xbe086b87	-0.13322268
50	0x3d98b1b7	0.074557714
51	0x3d84e556	0.06489055
52	0x3cfd328c	0.030907892
53	0x3a8b2130	0.0010614749
54	0x3d8a922b	0.067661606
55	0x3de3f41c	0.111305445
56	0xbdbeb0b4	-0.09311047
57	0x3e0d095d	0.13773103
58	0x3d58d81d	0.052940477
59	0xbd1a8241	-0.037721876
60	0x3dc6ad23	0.09700992
61	0x3d221ba3	0.039577138
62	0x3d09c621	0.033636216
63	0xbcb4ae39	-0.022055732

post_layers.1.weight f4 [64, 64]
0	0x3dc1254f	0.09430944
1	0x3d7ba9ea	0.06144134
2	0xbd42fd2e	-0.047604732
3	0x3d6af296	0.057360254
4	0xbd24f565	-0.04027309
5	0x3de9bc03	0.114128135
6	0x3d5a4479	0.053287957
7	0xbdc1bf00	-0.094602585
8	0x3d7f42ed	0.062319685
9	0x3dcbd3dc	0.09952518
10	0x3dded84d	0.108811
11	0xbd8774d1	-0.06614078
12	0x3da39c65	0.07988814
13	0x3d8e21b0	0.06940019
14	0x3dcf44f4	0.10120574
15	0xbddefb75	-0.10887805
16	0xbdd11db2	-0.10210742
17	0xbd09e2a2	-0.0336634
18	0x3d90ed90	0.070765615
19	0x3e04fbf1	0.12986733
20	0x3e005505	0.12532432
21	0x3d1e40ab	0.03863589
22	0xbce01159	-0.027352022
23	0xbda6c801	-0.081436165
24	0x3df1453a	0.11780782
25	0xbd52fe69	-0.051512156
26	0xbbebee55	-0.0072000423
27	0xbcbda588	-0.02315022
28	0x3d615211	0.055009905
29	0x3dcf3ebd	0.10119388
30	0x3d9f7abd	0.07787082
31	0xbd6c9bc5	-0.05776574
32	0xbdb933fa	-0.09043117
33	0xbde4cb47	-0.111715846
34	0x3dee6bb9	0.1164164
35	0x3defc209	0.11706931
36	0x3dff2af5	0.12459365
37	0x3dcebb43	0.10094311
38	0xbe006eab	-0.12542216
39	0x3e0e1abb	0.13877384
40	0xbdf22de0	-0.11825156
41	0xbdbeafed	-0.09310899
42	0x3d8c819d	0.06860659
43	0xbda0b581	-0.07847119
44	0xbddfb613	-0.109234
45	0x3c3c3262	0.011486622
46	0x3d03ed26	0.032208584
47	0x3e0aebe8	0.13566554
48	0x3d5d14d0	0.053974926
49	0xbc42f3d1	-0.011898951
50	0x3de0f782	0.10984708
51	0x3dd60750	0.104506135
52	0xbdddaa7d	-0.10823534
53	0xbdea28f8	-0.114335954
54	0xbd2a2054	-0.041534737
55	0xbdbf2dc4	-0.09334901
56	0xbdb22b20	-0.08699632
57	0xbbc6d40b	-0.006067758
58	0xbd053fba	-0.032531478
59	0xbdc38c90	-0.095482945
60	0x3dfbe434	0.12299386
61	0x3e08d3c5	0.13362034
62	0x3e0a9596	0.13533625
63	0x3e049bf4	0.12950116
64	0xbd82183a	-0.06352277
65	0x3d60e7dd	0.054908622
66	0xbdbb8138	-0.09155506
67	0x3d0b5cb8	0.03402397
68	0x3d8d710b	0.06906327
69	0xbd04c52d	-0.032414604
70	0x3d130ac4	0.03589894
71	0x3b36766a	0.0027841576
72	0xbddfd349	-0.10928971
73	0x3e0179f7	0.12644182
74	0xbd4cba91	-0.04998261
75	0xbdf7e0ee	-0.12103449
76	0x3de97ef1	0.11401165
77	0x3cea024f	0.028565554
78	0x3dab9837	0.08378642
79	0x3d4fb29a	0.050707437
80	0x3d02e085	0.0319524
81	0x3d894210	0.067020535
82	0x3dd29049	0.102814265
83	0x3dece21e	0.11566566
84	0x3bbdcb28	0.0057920404
85	0x3e0b5b77	0.1360911
86	0xbdaad4b6	-0.08341353
87	0xbde24bcd	-0.11049614
88	0x3dfdf44d	0.12400112
89	0xbdfeacdc	-0.12435314
90	0xbc20497d	-0.009783146
91	0xbd34f1b7	-0.04417583
92	0xbd39a08a	-0.045319118
93	0x3ddc793a	0.1076531
94	0x3e1c4a16	0.15262637
95	0x3dc84269	0.09778292
96	0xbd241a95	-0.040064413
97	0x3d5f55f9	0.05452535
98	0x3dc75452	0.0973288
99	0x3e000063	0.12500148
100	0x3dacb569	0.08433039
101	0xbc49f504	-0.012326483
102	0xbde76935	-0.112993635
103	0x3dbeb8ea	0.09312613
104	0xbd207007	-0.039169338
105	0x3d2434cd	0.040089417
106	0x3ddc7ed2	0.107663766
107	0xbbb0588f	-0.0053816508
108	0xbe06a764	-0.13149792
109	0xbdfbc8c7	-0.122941546
110	0xbdd4a557	-0.103830986
111	0x3c171d17	0.009223244
112	0xbd3af38a	-0.045642413
113	0xbe1ab6cd	-0.15108795
114	0xbd6404b1	-0.055668537
115	0x3db3875b	0.087660514
116	0xbcfc6a0b	-0.030812284
117	0xbdd4061e	-0.10352729
118	0x3db4df78	0.08831686
119	0x3ccfb2c8	0.025353804
120	0x3c73c202	0.014877798
121	0x3df54196	0.119754
122	0xbb1dc176	-0.002407161
123	0xbda5d9a4	-0.08098152
124	0x3d6a93dd	0.05726992
125	0xbd21f7d5	-0.03954299
126	0x3d8dc666	0.06922607
127	0x3ddac93d	0.106829144
128	0x3e04ccc1	0.12968732
129	0xbde3276f	-0.11091506
130	0xbca955e7	-0.020670844
131	0x3ce81bf2	0.028333638
132	0xbcc65ae7	-0.024213267
133	0xbced117a	-0.028938998
134	0x3d03de78	0.032194585
135	0xbdddd8ad	-0.10832343
136	0x3d3007db	0.04297624
137	0xbdc24192	-0.09485163
138	0xbc5ef6db	-0.01360866
139	0xbbbdc2af	-0.0057910304
140	0x3de40327	0.11133414
141	0x3e076427	0.13221799
142	0xbac6ab7e	-0.001515731
143	0x3db236d5	0.08701865
144	0x3bf468d0	0.0074587837
145	0xbde0aec3	-0.10970833
146	0xbcd71616	-0.026255649
147	0x3dafd84a	0.08586176
148	0x3df4efe7	0.1195982
149	0x3d1c55cc	0.03816776
150	0x3d8a0e1f	0.06740975
151	0xbb637ef4	-0.003471312
152	0x3dcdec06	0.100547835
153	0xbc837196	-0.016045373
154	0x3dedfa4a	0.116200045
155	0xbd9534d6	-0.07285468
156	0xbdcbb677	-0.09946912
157	0x3dab62db	0.083684646
158	0x3dd99f25	0.106260575
159	0xbdca41e5	-0.0987585
160	0x3dfacd8b	0.122462355
161	0xbde245fc	-0.11048505
162	0x3d26a6a0	0.04068625
163	0x3e05cbd1	0.13066031
164	0xbdad876a	-0.08473094
165	0x3deffee9	0.11718542
166	0xbd19da53	-0.037561726
167	0x3dcca0e4	0.09991625
168	0x3b943506	0.0045229224
169	0xbd223d77	-0.0396094
170	0x3dc74157	0.097292595
171	0x3c950a42	0.018193368
172	0xbc05c6c2	-0.008165063
173	0xbe019d9c	-0.1265778
174	0xbdceb183	-0.100924514
175	0x3dc495a3	0.095988534
176	0x3be685bc	0.0070349853
177	0x3d20ac2a	0.03922669
178	0x3e0658b5	0.13119777
179	0x3de2beab	0.11071523
180	0xbd913f2f	-0.070921294
181	0xbc38272b	-0.011239807
182	0x3a133fc8	0.0005617109
183	0x39ea1a74	0.00044651667
184	0x3df0a500	0.11750221
185	0x3dafa7fe	0.08576964
186	0xbd94ad34	-0.072595984
187	0xbe07252a	-0.1319777
188	0xbdc245a3	-0.094859384
189	0x3d85ea31	0.06538809
190	0x3e06b6bd	0.13155647
191	0x3e043a73	0.12912922
192	0x3da6a0ea	0.08136161
193	0x3df16155	0.11786143
194	0xbd146320	-0.036227345
195	0xbd499911	-0.04921824
196	0x3da35ef5	0.07977096
197	0xbd178eca	-0.03700141
198	0x3c6f77b0	0.014615938
199	0x3db386d8	0.08765954
200	0xbda774e4	-0.08176592
201	0xbd11246e	-0.035435133
202	0x3d33b8bf	0.04387736
203	0x3dd77439	0.105202146
204	0xbe1233d9	-0.14277591
205	0xbd31fce9	-0.043454085
206	0xbd9c4e27	-0.07632094
207	0xbe065624	-0.13118798
208	0xbd89b890	-0.06724656
209	0xbde6d751	-0.11271537
210	0x3cc9527f	0.02457547
211	0x3cb099d3	0.021557724
212	0xbdf37873	-0.11888208
213	0xbd8f0f78	-0.06985372
214	0xbe364d92	-0.17803028
215	0xbd9455bc	-0.07242915
216	0x3dc292b3	0.09500637
217	0x3d217f68	0.039428145
218	0x3d511457	0.05104479
219	0xbd9dac4f	-0.07698881
220	0x3d4e60de	0.05038535
221	0x3dd75af9	0.105153985
222	0x3b958c67	0.0045638564
223	0x3e1361b3	0.14392738
224	0xbbef8a31	-0.007310175
225	0x3d377522	0.04478944
226	0x3d3e1444	0.046406046
227	0x3c02125b	0.007938947
228	0x3d5cf18f	0.053941306
229	0xbcfa18d8	-0.030529425
230	0x3cdb1888	0.026745096
231	0xbdaf362e	-0.08555256
232	0x3d2428c0	0.040077925
233	0x3d87d936	0.066332266
234	0xbdadac82	-0.08480169
235	0x3de36a77	0.11104291
236	0x3d908d85	0.07058243
237	0xbd97146f	-0.07376944
238	0xbd388bf7	-0.045055356
239	0x3c6dd8a5	0.014516984
240	0x3c6f215b	0.014595355
241	0xbc49a263	-0.012306782
242	0x3d4cad51	0.049969975
243	0xbdd58ea1	-0.10427595
244	0x3dc88a20	0.0979197
245	0x3d1154e7	0.03548136
246	0x3df91e62	0.12163998
247	0x3cacd1d3	0.021096146
248	0xbd6c5b8f	-0.057704505
249	0x3dc463db	0.095893584
250	0x3db68af3	0.08913221
251	0x3de1fbf2	0.11034383
252	0x3cb6985b	0.022289446
253	0x3d949173	0.07254305
254	0x3d9abdaf	0.075557105
255	0xbd1e7e05	-0.0386944

post_layers.1.bias f4 [64]
0	0x3df5c713	0.12000861
1	0x3e03e5f4	0.12880689
2	0x3e12deaa	0.14342752
3	0xbdc14670	-0.09437263
4	0xbda50206	-0.080570266
5	0x3da52e8a	0.08065517
6	0xbde9b643	-0.11411717
7	0x3cf99969	0.03046866
8	0xbdc94ebd	-0.09829471
9	0x3dc910c5	0.09817652
10	0xbd0618fb	-0.032738667
11	0x3c60da85	0.013723974
12	0x3e05fef2	0.13085535
13	0x3d791982	0.06081534
14	0x3bf58fc3	0.0074939444
15	0x3e10230e	0.14075872
16	0x3d4a2061	0.049347285
17	0x3cfe80de	0.031067308
18	0xbc24f1a2	-0.010067375
19	0xbdb716b0	-0.08939874
20	0x3d377725	0.04479136
21	0xbb702e82	-0.0036648815
22	0xbcd6974e	-0.026195195
23	0x3dbe76dd	0.09300015
24	0xbdc29c0a	-0.09502418
25	0x3d905224	0.07046917
26	0xbe04a5cd	-0.12953873
27	0xbc03efc8	-0.008052774
28	0xbd507806	-0.050895713
29	0x3dd826d8	0.10554284
30	0xbd3b62b2	-0.04574842
31	0x3e0b3372	0.13593844
32	0xbc9e9b9d	-0.019361312
33	0x3d5cc071	0.053894464
34	0xbda9653d	-0.08271263
35	0x3cc369c3	0.023854142
36	0xbcf33f7f	-0.029693363
37	0xbdd6de61	-0.10491634
38	0xbd0e39ea	-0.0347232
39	0xbdc3c497	-0.09558981
40	0x3c43bfa6	0.011947548
41	0x3e15a1be	0.14612481
42	0x3d1d3f97	0.038390722
43	0xbd31e024	-0.043426648
44	0xbdfb0f5a	-0.122587875
45	0x3de73c6c	0.112908214
46	0x3da8a923	0.08235385
47	0x3e0f561b	0.1399769
48	0x3cdabd58	0.026701614
49	0x3d200ee9	0.03907672
50	0x3d9d476c	0.07679638
51	0xbc9543fd	-0.018220896
52	0x3e0e3a8f	0.13889526
53	0xbdfb5132	-0.12271346
54	0x3d955689	0.07291896
55	0xbdb39146	-0.08767943
56	0x3d81d926	0.06340246
57	0x3c28abcd	0.010294867
58	0x3dd38c3b	0.10329481
59	0xbdd9bbca	-0.10631521
60	0x3ccfc5be	0.025362846
61	0x3e09cace	0.1345627
62	0x3d9faf52	0.077971116
63	0x3dfff6ac	0.12498221

post_layers.2.weight f4 [64, 64]
0	0xbd1f5f46	-0.03890922
1	0x3d5a9633	0.053365897
2	0x3bce684b	0.006299054
3	0x3dd8a3dc	0.10578129
4	0xbdf941e3	-0.1217077
5	0xbd4d72b2	-0.05015821
6	0x3cdd6ce2	0.027029458
7	0x3dc8f5aa	0.09812482
8	0xbd88c133	-0.06677475
9	0x3d4be4a2	0.049778588
10	0x3c264396	0.01014795
11	0xbdfb0646	-0.12257056
12	0xbdaf42e5	-0.08557681
13	0x3ddc5e87	0.10760217
14	0xbd75b3f9	-0.05998609
15	0x3b36d2f8	0.0027896743
16	0xbc8e2387	-0.017350925
17	0xbdc89ee2	-0.097959295
18	0x3d2a089c	0.041512117
19	0x3d8ef9a3	0.06981208
20	0x3d72893d	0.059212912
21	0xbda9a38e	-0.08283149
22	0xbe013ed2	-0.1262162
23	0x3d8a2566	0.067454144
24	0x3cc8cb5e	0.024511036
25	0xbc0b0b2e	-0.008486552
26	0x3dc526a3	0.0962651
27	0x3daec867	0.085343175
28	0x3dae2469	0.085030384
29	0xbd2e029a	-0.04248295
30	0xbdf04c04	-0.11733249
31	0xbde31d10	-0.110895276
32	0x3d84197c	0.06450173
33	0xbdc120d8	-0.094300926
34	0x3bc405b1	0.005982124
35	0xbc7df2e2	-0.015499802
36	0xbe1ae067	-0.15124665
37	0x3c44cebb	0.012012179
38	0x3ddea341	0.10870982
39	0xbda6361b	-0.081157885
40	0xbbe56a49	-0.0070011956
41	0xbcf93b38	-0.030423746
42	0xbdf3d557	-0.11905926
43	0x3c2aec85	0.010432367
44	0xbdd29418	-0.10282153
45	0x3d11d648	0.035604745
46	0xbc52c732	-0.012864875
47	0x3dc87cb2	0.09789409
48	0xbdddb1e1	-0.10824943
49	0xbd91acd8	-0.071130455
50	0xbd16d460	-0.03682363
51	0xbda7dddf	-0.081966154
52	0xbdf3efa9	-0.11910946
53	0xbde05241	-0.10953189
54	0x3cd4bb61	0.025968255
55	0xbdb7a89c	-0.089677066
56	0xbddf0ae0	-0.10890746
57	0xbdceacf7	-0.10091584
58	0x3d87d8f3	0.06633177
59	0xbdec55a4	-0.11539772
60	0x3dcf67b1	0.101271994
61	0x3d7129b2	0.058877654
62	0xbdc6d78e	-0.097090825
63	0x3c48f5b6	0.012265613
64	0x3d9081a5	0.07055978
65	0x3db9090e	0.0903493
66	0x3dec3d80	0.11535168
67	0xbdded168	-0.10879785
68	0x3cb85d35	0.022505382
69	0xbd29b721	-0.04143441
70	0xbdc24aa5	-0.094868936
71	0xbb961812	-0.004580506
72	0x3cd5d1a8	0.026100948
73	0xbd1f5eb1	-0.038908664
74	0x3a5aa615	0.0008340788
75	0x3e290031	0.1650398
76	0x3d93cec6	0.07217173
77	0xbd22c701	-0.039740566
78	0x3e09a1a7	0.13440572
79	0x3e0988c9	0.13431086
80	0x3dcca1d8	0.09991807
81	0x3dfa1b6d	0.12212262
82	0xbd096139	-0.033539984
83	0x3d93a7b7	0.072097234
84	0x3d9ebcd8	0.07750863
85	0x3d871bfe	0.06597136
86	0x3d1a964b	0.037740987
87	0xbcf9a532	-0.03047428
88	0x3e02899f	0.12747811
89	0xbcf70fdc	-0.03015893
90	0xbd579c73	-0.052639436
91	0x3d82a7bc	0.06379649
92	0x3c5629e5	0.013071512
93	0x3d52a143	0.051423322
94	0xbdc1e69c	-0.094678134
95	0x3dcbae7e	0.09945391
96	0x3e2045dc	0.15651649
97	0xbd4471cd	-0.04796009
98	0x3ddd4d89	0.10805804
99	0x3da365b3	0.07978382
100	0x3bcbf977	0.006224807
101	0x3e1657f5	0.1468199
102	0xbcee6b2d	-0.02910384
103	0x3dda48b7	0.106584005
104	0x3d4a1123	0.04933275
105	0x3dacfeaa	0.08447011
106	0x3defe950	0.11714423
107	0x3e082c24	0.13298088
108	0x3deadde6	0.11468105
109	0x3d51d043	0.051224004
110	0x3e0e8b94	0.13920432
111	0xbdc304c4	-0.09522393
112	0x3e0b3747	0.13595305
113	0x3ddbf684	0.107403785
114	0x3dbe0189	0.092776366
115	0x3dea45d0	0.11439097
116	0x3dc47694	0.095929295
117	0xbe19c6ee	-0.15017292
118	0x3d9e22e8	0.077215016
119	0x3d702a22	0.05863393
120	0x3e263e3b	0.16234677
121	0x3c837ab5	0.016049722
122	0x3d664204	0.0562153
123	0xbb4b4cef	-0.0031021198
124	0x3cbf5df3	0.023360228
125	0xbd6a82d9	-0.057253692
126	0xbdb40304	-0.08789638
127	0xbdc996bb	-0.09843203
128	0x3ceef054	0.029167332
129	0x3d1b0e2c	0.037855312
130	0x3d2afe5b	0.04174648
131	0x3e13b50d	0.14424534
132	0xbcf9f39f	-0.030511675
133	0x3de28343	0.110601924
134	0x3d546757	0.051856365
135	0xbd8b42cc	-0.0679985
136	0xbb29e08b	-0.0025921192
137	0xbdd200cc	-0.10254058
138	0x3b1f3e72	0.0024298695
139	0x3a3203fc	0.0006790755
140	0x3ddb60ef	0.10711848
141	0xbd2a9758	-0.04164824
142	0xbdf7e641	-0.12104464
143	0xbd7ae916	-0.061257444
144	0x3c1082c5	0.00882024
145	0x3dc9a87b	0.09846588
146	0xbd8ad37a	-0.06778617
147	0xbdf62665	-0.12019042
148	0xbde7db00	-0.11321068
149	0x3d7099a0	0.05874026
150	0x3de757db	0.11296054
151	0x3dd715cb	0.105022036
152	0x3d9ee611	0.077587254
153	0xbdfcf2b8	-0.123509824
154	0x3dfd2d52	0.1236216
155	0xbe0c39bf	-0.13693903
156	0xbd65063a	-0.05591414
157	0x3da6d148	0.08145386
158	0x3cfd5442	0.030923966
159	0x3d055c1e	0.032558553
160	0xbde050f5	-0.10952941
161	0xbb5de8f4	-0.0033860775
162	0xbe0e4d32	-0.13896635
163	0x3dec0302	0.11524011
164	0x3df268df	0.11836409
165	0x3d9dffde	0.077148184
166	0xbe01f5b4	-0.12691385
167	0x3dd31ff0	0.10308826
168	0xbdfe3e53	-0.12414231
169	0x3c3aa0be	0.011390863
170	0xbcc659c7	-0.024212731
171	0xbd894682	-0.067029014
172	0xbdf9066d	-0.12159429
173	0xbb038965	-0.0020070907
174	0x3c9afbe9	0.018918948
175	0x3c52611a	0.012840534
176	0xbe3ad2b5	-0.18244441
177	0xbd356d3c	-0.044293627
178	0x3d7be773	0.061500024
179	0x3ca6950f	0.020334749
180	0xbdd26d75	-0.102747835
181	0x3e3378e6	0.17526588
182	0xbc55a848	-0.01304061
183	0xbc5a5a72	-0.013327228
184	0xbd7a2b74	-0.061076596
185	0x3da2afd7	0.07943695
186	0x3d1b79e6	0.03795805
187	0x3df9dce7	0.12200337
188	0x3e1e065d	0.15432115
189	0xbdfe7793	-0.12425151
190	0xba7457c3	-0.0009320939
191	0xbdd8ef5c	-0.10592529
192	0xbd23b13c	-0.039963946
193	0xbdfccd1d	-0.1234381
194	0xbcf89ca7	-0.030348135
195	0xbdd62716	-0.10456674
196	0xbd9f85ea	-0.07789214
197	0xbdddfb1e	-0.108389124
198	0x3cf25846	0.029583108
199	0x3d58b67d	0.05290841
200	0xbdadd5ac	-0.0848802
201	0x3e1ef634	0.15523607
202	0xbd170030	-0.036865413
203	0x3d0f95af	0.03505486
204	0x3ce1770f	0.027522592
205	0xbd33b1ce	-0.04387074
206	0x3de91afd	0.11382101
207	0xbcac658e	-0.021044519
208	0xbdcdd9d5	-0.10051314
209	0xbdd4d629	-0.1039241
210	0xbd68692e	-0.056740932
211	0xbb81af22	-0.003957645
212	0xbe069381	-0.13142206
213	0x3dab6f8e	0.08370887
214	0x3d45bd93	0.048276495
215	0x3d94e1b9	0.07269616
216	0x3b44576f	0.002995934
217	0xbc8d7536	-0.017267805
218	0x3e090660	0.13381338
219	0x3e61dc29	0.2205664
220	0xbdbec10e	-0.09314166
221	0xbd4f8662	-0.050665267
222	0xbd9e80c4	-0.07739404
223	0xbd72d67a	-0.059286572
224	0x3d9ccb73	0.07655992
225	0xbc6a9df0	-0.014319882
226	0xbae9e773	-0.0017845467
227	0x3e1242c2	0.14283279
228	0xbde162c8	-0.11005169
229	0xbe197ee5	-0.14989813
230	0xbdd7306d	-0.10507283
231	0x3dc540ba	0.09631486
232	0xbbf6b0a0	-0.0075283796
233	0x3c84ed08	0.016226307
234	0xbd0d4fa8	-0.034499794
235	0x3be5fae2	0.007018433
236	0x3d22b7fb	0.03972624
237	0xbcd3870b	-0.02582123
238	0x3dc67817	0.09690874
239	0xbd9052f4	-0.07047072
240	0x3d76b790	0.060233653
241	0xbd11be5d	-0.035581935
242	0xbd4166c8	-0.04721716
243	0xbc09ef4f	-0.008418872
244	0x3c5229c2	0.012827339
245	0xbd8086b6	-0.06275694
246	0xbda1594b	-0.078783594
247	0xbcbf7852	-0.023372803
248	0x3d2dced9	0.042433593
249	0x3de82a21	0.113361605
250	0x3ddcb267	0.10776215
251	0x3d67381a	0.056449987
252	0x3e040633	0.1289299
253	0x3d59f644	0.053213373
254	0x3d2ef19b	0.04271088
255	0x3d9d2753	0.07673516

post_layers.2.bias f4 [64]
0	0x3d5e39e1	0.054254416
1	0x3d01522d	0.03157251
2	0xbd2dfec7	-0.042479303
3	0x3cf14e71	0.02945635
4	0xbd8e3ec8	-0.06945568
5	0xbc63ec06	-0.013911253
6	0x3e1147f5	0.14187606
7	0x3db76706	0.08955197
8	0x3b152479	0.0022757335
9	0xbcfd007f	-0.030884026
10	0xbd6131c4	-0.0549791
11	0xbc07aef3	-0.008281457
12	0xbdc26b69	-0.09493143
13	0x3dbf4ecf	0.093412034
14	0x3cb12487	0.021623863
15	0xbcbca4c2	-0.023027781
16	0x3dde801a	0.10864277
17	0x3da03870	0.078232646
18	0xba108c94	-0.0005514112
19	0xbca0cc5c	-0.019628696
20	0x3d684d15	0.056714136
21	0xbd88cd01	-0.066797264
22	0x3df5f409	0.12009437
23	0x3da27caa	0.07933934
24	0x3d22d9cc	0.03975849
25	0xbc6f7c85	-0.01461709
26	0x3d4ee027	0.050506737
27	0x3d7c9f13	0.061675142
28	0xbdcc3a7d	-0.09972093
29	0xbdc305a1	-0.09522558
30	0xbdd2af4e	-0.10287343
31	0x3d9ef165	0.07760886
32	0x3e04a736	0.12954411
33	0xbc45a5a5	-0.0120634185
34	0x3d26d8be	0.040734045
35	0xbdd600d6	-0.10449378
36	0x3da60fe5	0.081085004
37	0x3d5c9120	0.05384934
38	0xbc00f975	-0.007871975
39	0x3dc0761d	0.09397528
40	0xbd54a518	-0.05191526
41	0xbd3a0979	-0.04541919
42	0x3dfeace2	0.124353185
43	0xbe06ac2c	-0.13151616
44	0xbd2b4045	-0.04180934
45	0xbde599fa	-0.11211009
46	0xbc8fb4ee	-0.017542329
47	0xbce9fcec	-0.028562985
48	0x3da6451c	0.0811865
49	0x3d0bc832	0.034126468
50	0x3c92d9b3	0.017926073
51	0x3d90c544	0.070688754
52	0x3db176cf	0.08665239
53	0x3c198f98	0.009372614
54	0xbdc2c437	-0.09510081
55	0x3e04cd05	0.12968834
56	0xbd26d6cb	-0.040732186
57	0x3dbebf99	0.09313888
58	0xbcbff5c1	-0.023432614
59	0x3cbb047c	0.022829287
60	0x3de39fa9	0.11114437
61	0x3d670510	0.056401312
62	0xbdcb75b0	-0.099345565
63	0xbd9e9114	-0.07742515

output_layer.weight f4 [1, 64]
0	0xbcac2f53	-0.02101866
1	0x3dc1cbbf	0.094626896
2	0xbe0dd840	-0.13852024
3	0xbd9849be	-0.0743594
4	0xbd8af1c4	-0.067843944
5	0xbe2be81b	-0.1678776
6	0x3cd6981b	0.026195576
7	0x3e17e653	0.14833955
8	0xbe305e3f	-0.17223452
9	0xbe0788ba	-0.13235751
10	0xbdf23704	-0.118269
11	0x3d802c49	0.06258447
12	0x3e8768d5	0.26447168
13	0xbcbfe505	-0.023424635
14	0xbe5b82b4	-0.21436578
15	0xbe6d56ba	-0.23177615
16	0x3e0934d1	0.13399054
17	0xbd8633fc	-0.06552884
18	0x3db4f644	0.08836034
19	0xbe23ec51	-0.16008116
20	0xbe27d4ca	-0.16389766
21	0x3d8a88fb	0.06764408
22	0xbdb382d0	-0.08765185
23	0x3d5c8a45	0.0538428
24	0xbe27952f	-0.16365503
25	0x3db9bcbe	0.09069203
26	0xbdd2405f	-0.10266184
27	0x3d146dd2	0.036237545
28	0x3ce484db	0.027895382
29	0x3dc86cbe	0.09786366
30	0xbde903b2	-0.11377658
31	0x3d56f55c	0.052480087
32	0x3d4313a8	0.047626168
33	0x3d5386cb	0.05164222
34	0x3d81106d	0.06301961
35	0xbdec02f8	-0.11524004
36	0xbe26858c	-0.16261882
37	0xbdd93fcb	-0.10607871
38	0x3d0e1ef0	0.034697473
39	0x3dacc83a	0.08436628
40	0x3e131182	0.14362147
41	0x3de470a4	0.11154297
42	0x3d7c4cce	0.061596684
43	0xbe01c10d	-0.126713
44	0x3dcca41e	0.0999224
45	0x3e6ef871	0.2333696
46	0xbdcc9cc7	-0.099908404
47	0xbd7e13a0	-0.062030435
48	0x3d3278d6	0.04357227
49	0x3d321ce9	0.043484602
50	0xbdf51616	-0.11967103
51	0x3c5aeef8	0.013362639
52	0x3cc77a02	0.02435017
53	0x3dc56d55	0.09639994
54	0x3dad4b23	0.08461597
55	0x3d342f00	0.043990135
56	0xbd751490	-0.059834063
57	0x3e03c5ff	0.12868498
58	0x3d786536	0.060643397
59	0x3e09c129	0.13452591
60	0xbd510d48	-0.051038057
61	0x3e85f563	0.26163778
62	0xbcea6092	-0.028610501
63	0x3e0e3dfa	0.1389083
