saved_models/2023-04-20_01-13-58/model.pth (torch, 465682 bytes, 44 tensors)

type_embedding.weight f4 [100, 100]
-0.39251354 -1.7451988 -0.20434283 0.26101893 0.2781693 -0.83337265 1.7845622 1.333291
0.7773831 1.5380156 0.74767035 1.5887107 0.59790844 -0.7247148 -0.9725483 -2.7943196
0.7438068 0.01680741 1.7217755 1.4081566 -0.4299015 0.03495457 -0.21920931 -2.2721968
1.1211668 -0.5614141 0.6008463 -0.094319604 -0.44471246 -0.19460873 1.0736395 0.014178787
0.06262003 1.4537202 0.9559165 1.1236161 0.15029277 -0.095384784 0.2618594 0.58711714
-0.35782018 -0.7314697 0.36941686 -1.2104896 -2.0725915 0.28170708 0.04861094 -0.40825713
-1.2479244 -1.85737 -1.6741774 0.8581239 -0.4142178 -0.6468575 -1.1313354 -0.6735561
0.2176505 0.14472024 -1.1255537 -0.05034802 0.66290194 -0.38185307 0.9102862 -1.1037891
-2.0532894 0.21457897 -0.06651096 -1.2444358 -1.3258367 -0.8292715 0.15636976 -0.1145379
0.3379481 0.43574902 -0.086386435 -1.4657439 -0.86043084 0.8545779 0.022998933 -0.068292774
-0.041575674 -1.1732818 2.224274 -0.921654 1.7159778 -0.09141367 1.3514767 -0.17728946
-0.18484007 1.0683502 1.0258411 0.32567427 2.4140499 -0.56920964 1.0136908 1.3093396
0.37361777 0.88891536 -2.4219925 0.108939126 0.33077392 -0.051866304 -0.081346095 -0.3840223
-0.42422536 -0.8722071 0.21520168 -0.24231693 -0.5370063 0.0023654879 1.3465648 -0.51560426
1.1520745 0.6847546 2.5508623 0.6961009 -1.9832786 -0.2600173 0.7464336 0.06551673
0.6880121 0.49188 0.86030906 0.9141979 -0.9234195 -0.019212889 0.59287024 -0.24333006
-0.28826267 1.1183832 3.0459929 1.4393255 -1.3532869 -0.5078838 -0.4964231 -0.72965765
-0.17450403 1.6033001 0.83373016 0.311873 -1.0003189 0.17184411 -0.98154986 0.99567086
-0.59483397 1.1839776 -0.6259117 -0.28465042 -0.10318898 -1.2190008 -0.78678465 2.5835245
-1.1626111 0.526202 1.2450064 1.0892221 2.3669984 0.58897835 1.2730936 0.5095417
1.1448622 0.10281117 -1.349795 0.68545485 0.14783685 0.2159855 0.30698365 -0.27147466
-2.1084814 -0.6335009 -0.19223697 0.57867837 -0.618236 1.22502 0.02091865 -0.1857482
-2.110961 1.1194277 -1.7475295 0.4451221 -0.2522172 0.7384475 -0.36500478 0.52496266
0.5188259 0.7002868 -1.1263608 1.2691362 1.1921384 0.16908875 -0.79624677 0.14453429
-0.38877612 0.6889605 2.25712 2.0313396 0.27506185 0.27022702 -0.7589279 -2.116787
-0.01670031 1.5429051 0.16522743 0.25590464 0.1367092 0.6418472 -0.28471592 -0.58412313
1.4148644 1.3339213 1.1851901 0.30489677 0.10397706 -1.9330804 -0.6756626 -0.039093155
0.049130823 1.3444557 0.4576796 -0.1574657 1.1180393 1.031969 -0.96442854 -0.66195554
0.14973249 -1.196593 1.0125992 -0.688197 0.16246189 -0.85620147 -1.4561896 1.3016822
0.07541455 -1.2661467 2.1539767 0.22936237 0.4171428 0.078850165 -0.42538607 1.2027814
-0.97669464 1.2072406 1.0067061 1.3386705 -1.3998029 0.31695965 0.59635544 -0.25751975
-2.479378 0.6890495 0.17967837 -0.6426374 0.21657373 -0.22761078 -0.2835735 -1.6358035
00000000: 89f7 c8be ad62 dfbf 3f3f 51be 46a4 853e
00000010: 356c 8e3e e957 55bf 896c e43f 48a9 aa3f
00000020: 9402 473f b2dd c43f 5367 3f3f df5a cb3f
00000030: 8710 193f e986 39bf edf8 78bf 22d6 32c0
00000040: 1f6a 3e3f b2af 893c 2463 dc3f 7a3e b43f
00000050: 0d1c dcbe 862c 0f3d 6878 60be ac6b 11c0
00000060: 6582 8f3f d6b8 0fbf 10d1 193f a32a c1bd
00000070: 5ab1 e3be 8347 47be 056d 893f 254e 683c
00000080: ee3e 803d 8113 ba3f f2b6 743f a7d2 8f3f
00000090: 59e6 193e 1959 c3bd 6f12 863e 4f4d 163f
000000a0: 3534 b7be 9941 3bbf 3524 bd3e 53f1 9abf
000000b0: 57a5 04c0 e93b 903e 441c 473d 1407 d1be
000000c0: fdbb 9fbf 4dbe edbf 724b d6bf 02ae 5b3f
000000d0: 5b14 d4be 7498 25bf 99cf 90bf 2c6e 2cbf
000000e0: c6df 5e3e 8b31 143e 2512 90bf ba39 4ebd
000000f0: f1b3 293f 3f82 c3be 8408 693f f648 8dbf
00000100: 1869 03c0 97ba 5b3e e636 88bd ac49 9fbf
00000110: 04b5 a9bf 234b 54bf 651f 203e d992 eabd
00000120: 8907 ad3e 7f1a df3e 5feb b0bd 7f9d bbbf
00000130: 3245 5cbf 9ec5 5a3f 4268 bc3c 15dd 8bbd
00000140: 414b 2abd 192e 96bf 815a 0e40 84f1 6bbf
00000150: 29a5 db3f 1737 bbbd 30fd ac3f 5e8b 35be
00000160: b746 3dbe b3bf 883f c34e 833f c7be a63e
00000170: cb7f 1a40 b9b7 11bf 9fc0 813f 7198 a73f
00000180: d44a bf3e f58f 633f ed01 1bc0 7a1b df3d
00000190: 335b a93e c371 54bd c898 a6bd 929e c4be
000001a0: 1134 d9be f748 5fbf d45d 5c3e ee21 78be
000001b0: 3f79 09bf 4d06 1b3b 3c5c ac3f a4fe 03bf
000001c0: 2d77 933f 144c 2f3f 5441 2340 ab33 323f
000001d0: 13dc fdbf fd20 85be 4616 3f3f a32d 863d
000001e0: 9021 303f b2d7 fb3e 373d 5c3f e008 6a3f
000001f0: 3865 6cbf 5964 9dbc 58c6 173f 842b 79be
00000200: 2a97 93be 2e27 8f3f 8cf1 4240 d13b b83f
00000210: 8138 adbf ac04 02bf 2b2b febe d8ca 3abf
00000220: 2fb1 32be f038 cd3f 576f 553f d1ad 9f3e
00000230: 730a 80bf e7f7 2f3e da46 7bbf 49e4 7e3f
00000240: 0a47 18bf 948c 973f c03b 20bf b3bd 91be
00000250: be54 d3bd 3808 9cbf b86a 49bf 7758 2540
00000260: 71d0 94bf 2db5 063f 5f5c 9f3f a16b 8b3f
00000270: e77c 1740 49c7 163f bbf4 a23f 5371 023f
00000280: d88a 923f aa8e d23d 15c6 acbf f879 2f3f
00000290: 8b62 173e 4e2b 5d3e f62c 9d3e bafe 8abe
000002a0: 5cf1 06c0 1d2d 22bf c5d9 44be 4424 143f
000002b0: b744 1ebf 75cd 9c3f 975d ab3c c734 3ebe
000002c0: fc19 07c0 6849 8f3f 0caf dfbf 0be7 e33e
000002d0: 9d22 81be e50a 3d3f e8e1 babe f463 063f
000002e0: c6d1 043f ff45 333f 972c 90bf 0e73 a23f
000002f0: fe97 983f 9a25 2d3e d4d6 4bbf cc00 143e
00000300: aa0d c7be b75f 303f a774 1040 7801 0240
00000310: e8d4 8c3e 325b 8a3e 1949 42bf 7079 07c0
00000320: 17cf 88bc ea7d c53f 6131 293e ef05 833e
00000330: 7ffd 0b3e 1950 243f 49c6 91be 1889 15bf
00000340: 471a b53f efbd aa3f 4fb4 973f 6e1b 9c3e
00000350: edf1 d43d 2e6f f7bf 39f8 2cbf 2520 20bd
00000360: 673d 493d 2017 ac3f fb54 ea3e b03e 21be
00000370: e91b 8f3f 8f17 843f cae4 76bf eb75 29bf
00000380: 7953 193e f629 99bf da9c 813f ae2d 30bf
00000390: 695c 263e 0530 5bbf 6c64 babf 869d a63f
000003a0: f272 9a3d 1811 a2bf c1da 0940 f8dd 6a3e
000003b0: be93 d53e 327c a13d 34cc d9be bef4 993f
000003c0: a908 7abf dc86 9a3f bfdb 803f 8e59 ab3f
000003d0: be2c b3bf 8948 a23e c0aa 183f a1d9 83be
000003e0: 21ae 1ec0 8c65 303f 9bfd 373e e283 24bf
000003f0: 81c5 5d3e cd12 69be 8c30 91be 0262 d1bf

distance_expansion.means f4 [32]
0.017881136 0.09658077 0.09695161 0.10870076 0.109952234 0.1631341 0.15572813 0.19224592
0.23214355 0.24753024 0.291087 0.29626197 0.36105424 0.36514765 0.4066807 0.4350022
0.47130433 0.51393485 0.5272758 0.58697397 0.61692446 0.652185 0.69875383 0.7485675
0.7925413 0.7995813 0.9709698 0.95205575 0.97285795 0.99447423 0.9999995 1.0000005
00000000: 767b 923c 24cc c53d 918e c63d 819e de3d
00000010: a32e e13d a00c 273e 3277 1f3e 1ddc 443e
00000020: 0ab7 6d3e 9178 7d3e 5b09 953e a6af 973e
00000030: 1adc b83e a2f4 ba3e 7438 d03e 9cb8 de3e
00000040: cd4e f13e 3c91 033f 8cfb 063f ed43 163f
00000050: c3ee 1d3f 99f5 263f 88e1 323f 1fa2 3f3f
00000060: fde3 4a3f 5cb1 4c3f 7a91 783f edb9 733f
00000070: 380d 793f dd95 7e3f f8ff 7f3f 0400 803f

distance_expansion.betas f4 [32]
259.5189 259.55786 259.5821 259.57294 259.51724 259.47433 259.46344 259.41702
259.43164 259.41833 259.4284 259.41434 259.4135 259.3865 259.41345 259.3901
259.42264 259.44315 259.43423 259.47726 259.47318 259.47742 259.4767 259.48648
259.4882 259.4869 259.38446 259.4125 259.42493 259.444 259.4684 259.48328
00000000: 6bc2 8143 68c7 8143 82ca 8143 56c9 8143
00000010: 35c2 8143 b7bc 8143 52bb 8143 61b5 8143
00000020: 40b7 8143 8cb5 8143 d6b6 8143 09b5 8143
00000030: eeb4 8143 79b1 8143 ecb4 8143 efb1 8143
00000040: 19b6 8143 b9b8 8143 95b7 8143 17bd 8143
00000050: 91bc 8143 1cbd 8143 05bd 8143 45be 8143
00000060: 7dbe 8143 53be 8143 36b1 8143 cdb4 8143
00000070: 64b6 8143 d5b8 8143 f5bb 8143 dcbd 8143

pre_layers.0.weight f4 [64, 100]
0.09570307 0.06108455 0.0017962813 0.051716678 -0.09117393 0.0323884 0.063369654 -0.029432913
-0.008418584 -0.08274543 -0.06240112 0.06666481 0.025539637 0.086858936 0.083518855 0.025043504
0.015895458 -0.061330393 -0.092862785 0.061116684 0.06714254 -0.118633255 0.079895854 0.038162693
0.015235335 -0.03976164 -0.011731 -0.058628213 0.04342918 -0.02462558 -0.023071436 -0.07534098
-0.06481095 0.041655406 0.048153833 0.08996187 -0.0044852877 -0.09289102 -0.10755067 -0.017538635
0.010864025 0.018424043 0.025209945 -0.06155452 -0.05443112 -0.09611289 0.0060307635 -0.010008037
0.059974976 0.06821164 0.013712138 0.057225104 -0.04934921 -0.073544 0.04989468 -0.026180606
0.041160062 0.031589095 -0.05729955 -0.09463831 -0.072161786 -0.018455347 0.06995539 -0.03963933
0.030085113 0.035481818 -0.09540339 -0.07583657 -0.021172158 -0.05343884 0.06264606 -0.007369722
0.06736089 0.02526819 0.10499736 -0.0335413 -0.005541116 -0.07157397 -0.020705378 0.05537396
0.016250568 -0.0018507447 -0.06831711 -0.0068288986 -0.10049806 0.037061833 0.09890078 0.035530534
-0.03419847 -0.044891987 0.08078256 -0.1018241 -0.021683369 -0.093128696 0.10971709 -0.08807659
0.05193712 -0.05016803 -0.049966436 0.07260897 0.035446025 0.009057807 -0.01603751 0.059846565
0.06579926 0.053280547 0.08816703 0.042466786 0.07317926 -0.0698413 -0.014774146 0.042233687
-0.079112776 0.08194136 -0.055044066 0.11433666 0.079103306 -0.06456481 -0.049649794 0.027931854
-0.05561579 -0.04264313 0.08507208 0.03433856 -0.0009590035 -0.064668015 0.07311769 0.106810026
0.026145216 -0.081125975 0.09777977 -0.043092273 -0.015121486 0.08216878 0.024925277 0.08377051
0.0021508504 -0.062681496 -0.0069007846 0.025444316 -0.047794756 0.0894651 0.035301823 -0.04439304
-0.08335193 -0.022234485 0.039727286 -0.00792712 0.08924933 0.038376495 0.014552137 0.056533646
-0.05675471 0.04669892 -0.08149343 0.09708074 0.004012604 -0.00437314 -5.813055e-05 0.066662684
-0.08675574 0.10135303 0.0271078 -0.097475395 -0.034055274 -0.061205056 -0.025480984 0.024383547
-0.063284144 -0.0022780786 0.000966274 0.061950143 -0.086487986 -0.049067996 0.07612386 0.0012388922
0.085102916 -0.012898854 -0.052022118 -0.062754676 0.07132685 -0.039436366 -0.031235633 0.03257044
0.05844797 -0.09776208 -0.08700042 -0.07214064 0.07581679 -0.07865416 -0.013531817 0.02061022
-0.03487693 0.046752553 0.07252694 0.07610513 0.05423872 0.098574094 -0.0037749966 0.08908608
-0.07486985 0.011662255 -0.059720565 -0.08394633 0.05130505 0.031193674 -0.09817965 0.06289039
-0.044429604 -0.030809546 -0.021169677 -0.04195922 0.012636681 0.06920632 0.0016854847 -0.033002436
-0.061498247 0.037412446 -0.01893746 -0.039052676 0.025992807 0.11474123 0.05419411 0.033049695
0.09322347 0.00021870303 -0.05135029 -0.09006527 -0.09288816 -0.023703106 0.005953471 -0.00705795
-0.0015027211 0.011944908 -0.055895742 -0.08156612 0.06856627 -0.016052296 0.06825187 -0.04665665
-0.09356002 -0.00452802 0.023198517 -0.096455924 0.07154077 -0.07207812 0.0069657885 -0.07942051
0.066103086 -0.10241684 -0.03581668 0.001834534 -0.012116302 0.057537884 -0.071529 0.06675632
00000000: f9ff c33d cb33 7a3d 3371 eb3a ded4 533d
00000010: 66b9 babd b3a9 043d f3c7 813d 4b1d f1bc
00000020: 1aee 09bc 7076 a9bd 5198 7fbd 8f87 883d
00000030: 8038 d13c 19e3 b13d ef0b ab3d 0928 cd3c
00000040: 3137 823c 9435 7bbd d82e bebd 7d55 7a3d
00000050: 0782 893d fef5 f2bd 70a0 a33d 7c50 1c3d
00000060: a09d 793c 1add 22bd 6133 40bc 2324 70bd
00000070: cce2 313d 96bb c9bc 4f00 bdbc 5f4c 9abd
00000080: 9abb 84bd dc9e 2a3d f43c 453d ee3d b83d
00000090: 52f9 92bb a63d bebd 8743 dcbd 2fad 8fbc
000000a0: 06ff 313c 05ee 963c 1685 ce3c 9820 7cbd
000000b0: 2bf3 5ebd d6d6 c4bd b69d c53b c0f8 23bc
000000c0: 52a8 753d 8bb2 8b3d e0a8 603c df64 6a3d
000000d0: 6622 4abd 3d9e 96bd 5d5e 4c3d b678 d6bc
000000e0: 7497 283d 9163 013d efb2 6abd bbd1 c1bd
000000f0: 8fc9 93bd ab2f 97bc c644 8f3d da5c 22bd
00000100: 0e75 f63c 6255 113d da62 c3bd 3450 9bbd
00000110: 3c71 adbc afe2 5abd 944c 803d b57d f1bb
00000120: 82f4 893d 3cff ce3c db08 d73d 9a62 09bd
00000130: 4092 b5bb 6095 92bd 539e a9bc cecf 623d
00000140: e91f 853c b094 f2ba d7e9 8bbd f4c4 dfbb
00000150: edd1 cdbd 26ce 173d 7e8c ca3d 7788 113d
00000160: b213 0cbd a9e0 37bd 5471 a53d 2789 d0bd
00000170: 52a1 b1bc 42ba bebd 5bb3 e03d 8061 b4bd
00000180: 04bc 543d fe7c 4dbd 9ba9 4cbd 03b4 943d
00000190: da2f 113d 3267 143c 1961 83bc ac21 753d
000001a0: c3c1 863d b43c 5a3d ea90 b43d a7f1 2d3d
000001b0: 02df 953d f508 8fbd 420f 72bc 3bfd 2c3d
000001c0: e105 a2bd dfd0 a73d e375 61bd 5729 ea3d
000001d0: ea00 a23d 8e3a 84bd 955d 4bbd 58d1 e43c
000001e0: 62cd 63bd 90aa 2ebd 453a ae3d 97a6 0c3d
000001f0: a365 7bba aa70 84bd babe 953d 37bf da3d
00000200: 7e2e d63c 6025 a6bd c340 c83d 8681 30bd
00000210: 1cc0 77bc 1b48 a83d 1830 cc3c e08f ab3d
00000220: 48f5 0c3b 285f 80bd fa1f e2bb 9970 d03c
00000230: 6fc4 43bd 7a39 b73d a598 103d 7ad5 35bd
00000240: 6bb4 aabd 1825 b6bc 14b9 223d c0e0 01bc
00000250: 5ac8 b63d ac30 1d3d 166c 6e3c d38f 673d
00000260: a077 68bd 5e47 3f3d 07e6 a6bd 44d2 c63d
00000270: 297c 833b 8f4c 8fbb 34d1 73b8 7286 883d
00000280: feac b1bd 2d92 cf3d 2d11 de3c 2ea1 c7bd
00000290: 8b7d 0bbd 27b2 7abd 7fbd d0bc 01c0 c73c
000002a0: 1e9b 81bd d14b 15bb 8d4d 7d3a 6fbf 7d3d
000002b0: 9d20 b1bd 86fb 48bd d4e6 9b3d 5362 a23a
000002c0: 704a ae3d b755 53bc 2515 55bd 8685 80bd
000002d0: d013 923d 0788 21bd dfe1 ffbc 9568 053d
000002e0: 2367 6f3d 7c37 c8bd 472d b2bd 79be 93bd
000002f0: d545 9b3d 6f15 a1bd 8eb4 5dbc c4d6 a83c
00000300: 1ddb 0ebd 9b7f 3f3d 0189 943d 02dd 9b3d
00000310: 6c29 5e3d 37e1 c93d ef65 77bb c372 b63d
00000320: 5d55 99bd 0b13 3f3c 8d9d 74bd 0eec abbd
00000330: 3e25 523d e089 ff3c 6a12 c9bd adcc 803d
00000340: d1fb 35bd 4d64 fcbc 086c adbc 6edd 2bbd
00000350: 150a 4f3c 0bbc 8d3d 7beb dc3a 902d 07bd
00000360: 96e5 7bbd cb3d 193d bb22 9bbc b3f5 1fbd
00000370: deee d43c 73fd ea3d a5fa 5d3d 1e5f 073d
00000380: f2eb be3d a653 6539 af54 52bd 2474 b8bd
00000390: 263c bebd 042d c2bc 5615 c33b 6046 e7bb
000003a0: f4f6 c4ba 93b4 433c eff2 64bd 230c a7bd
000003b0: 796c 8c3d 1b80 83bc a3c7 8b3d 0b1b 3fbd
000003c0: 659c bfbd c95f 94bb d10a be3c af8a c5bd
000003d0: f883 923d b29d 93bd 4541 e43b 38a7 a2bd
000003e0: 0e61 873d ecbf d1bd 83b4 12bd bf74 f03a
000003f0: 7483 46bc d8ac 6b3d cc7d 92bd 8ab7 883d

pre_layers.0.bias f4 [64]
-0.03936976 -0.11153981 0.05109789 0.07085435 0.087989636 -0.0075803306 -0.104282774 -0.053375944
0.015913744 -0.08831737 -0.016140038 0.0035540315 -0.031267732 -0.018363634 -0.10373546 -0.08241097
-0.06279774 -0.035763804 -0.014431936 -0.015706083 0.05637484 0.0943489 0.068115376 0.09743269
-0.0008294064 -0.12436277 -0.080657594 -0.10291446 -0.035839416 0.02014934 -0.034226634 0.06090519
0.0776297 0.0031191946 0.016295673 0.089633554 -0.025975961 0.09607925 0.10025165 -0.028942632
-0.03744538 -0.082685456 0.05971934 -0.064880624 -0.0117382705 -0.022726247 -0.016084043 -0.0023854445
-0.02871741 0.0045684506 -0.04896989 0.052795626 0.10079241 0.013096849 0.02822277 -0.00888656
0.040312167 0.054318454 0.066123165 -0.07686835 0.0054351673 -0.0754964 0.0014592764 -0.10405995
00000000: 2f42 21bd fc6e e4bd 054c 513d 161c 913d
00000010: e933 b43d 6c64 f8bb 3592 d5bd bca0 5abd
00000020: 8a5d 823c bddf b4bd 1d38 84bc c1ea 683b
00000030: 9812 00bd 556f 96bc 4273 d4bd 15c7 a8bd
00000040: 1a9c 80bd 117d 12bd ed73 6cbc 0baa 80bc
00000050: 4ee9 663d ff39 c13d 1380 8b3d ca8a c73d
00000060: 856c 59ba e8b1 febd cf2f a5bd d1c4 d2bd
00000070: 5acc 12bd 3b10 a53c 3a31 0cbd b877 793d
00000080: 52fc 9e3d 676b 4c3b 817e 853c cc91 b73d
00000090: 8acb d4bc 33c5 c43d bd50 cd3d 1919 edbc
000000a0: 5460 19bd fe56 a9bd 449c 743d 22e0 84bd
000000b0: e051 40bc 652c babc afc2 83bc 1e55 1cbb
000000c0: c640 ebbc f1b2 953b a794 48bd 3a40 583d
000000d0: 406c ce3d 2b94 563c 7033 e73c ef98 11bc
000000e0: 5f1e 253d 077d 5e3d 956b 873d 276d 9dbd
000000f0: 7d19 b23b db9d 9abd 3145 bf3a 621d d5bd

post_layers.0.weight f4 [64, 64]
0.019247662 -0.08235588 -0.045563355 0.06951274 -0.02373472 0.0009940309 0.08832736 0.14515455
-0.06743536 -0.07501966 0.0880165 -0.039341327 -0.040838268 -0.0016036206 0.08389543 -0.12869647
-0.100115836 -0.033966254 0.11956681 -0.073928036 -0.05013009 0.075029254 -0.018652728 0.01536439
-0.11376569 -0.094727546 -0.095441416 0.070196874 -0.047657464 0.09651902 0.08292999 -0.097962864
0.03891961 0.00026922103 0.046896644 0.021912001 0.08810933 0.0101465555 -0.095517986 0.02844543
0.13425276 -0.09320372 0.03141636 -0.07401729 -0.11257455 0.017453477 -0.09446475 0.019785032
0.024571046 -0.08687384 0.12559913 0.079848304 0.054087695 -0.0021438096 0.13697594 0.10547159
-0.04795308 0.08256193 -0.09587739 0.069841005 0.012298497 -0.009069204 0.05556554 0.024848726
0.058200892 -0.12569033 0.058085233 -0.031152047 0.015719261 0.117079385 -0.0051274127 0.085334525
-0.011661282 -0.113175884 0.066255964 0.13805906 -0.056350607 -0.11906522 0.0046661575 0.16069168
0.056760326 0.11377386 0.016175386 -0.105314165 -0.011621566 -0.14228085 -0.14079034 -0.08308678
-0.09440749 0.036991764 0.0018698188 0.011108163 -0.14257006 -0.007849347 0.026785595 -0.027474264
0.022810755 0.0059781433 -0.005101642 -0.1365586 0.06629459 0.10334762 0.08458959 -0.037159223
-0.062395148 -0.021992926 -0.04950345 0.07377514 -0.0151743535 0.07538668 0.11613528 -0.1365614
0.09965402 0.015449344 -0.10694522 0.09073663 -0.08088856 0.09973938 -0.044977363 0.14493626
-0.13874923 -0.0048320047 -0.1152505 -0.0044518476 0.102570996 -0.06117669 0.07623089 -0.06653757
0.058644686 0.14527726 0.056711882 0.01767301 0.058667332 0.00872619 -0.03726804 -0.09498615
0.023529697 0.11393593 0.014527723 0.07534725 -0.09316727 -0.021098562 -0.12472816 0.07155558
-0.028955985 0.044839133 0.1427036 -0.062660664 0.03160035 0.07386855 -0.058531325 -0.0055619623
-0.09442938 0.0061189644 0.10178121 -0.08032983 -0.040227696 -0.10075368 0.002345402 0.06438178
-0.16543858 0.06587445 0.014907793 -0.11348595 -0.08873123 0.02774675 -0.06071818 -0.03365938
-0.07523498 0.10891975 -0.15275659 -0.03557134 0.009008772 0.11501689 0.11773555 0.051101465
-0.0827707 0.079430275 -0.12668453 0.05349724 -0.08128085 -0.01674766 0.044226293 -0.031993825
-0.10853901 0.026534412 -0.022734376 -0.1554416 0.106739126 0.13079959 0.020070054 -0.10108116
-0.05503872 0.025504166 0.06049345 0.040600777 0.08466942 -0.062633015 0.050491504 -0.035657994
-0.06684743 -0.07412285 0.10577248 -0.12311252 -0.12133829 0.013319823 -0.09558756 -0.107936285
-0.029749978 -0.03942867 0.06743205 -0.1412193 0.05213868 -0.06114233 -0.09048879 -0.11376027
0.10899964 0.11827066 0.09314486 0.046745062 -0.007952379 0.11229499 -0.0027975359 -0.008768738
0.028255878 -0.036043927 -0.047198333 -0.042503532 0.031776093 -0.08580022 0.018328542 -0.06826095
0.11821093 -0.009291949 0.09470425 0.00282072 -0.001259842 -0.0052897776 0.11321474 -0.11735315
0.010377452 -0.04304555 0.014330361 -0.0839682 0.09089728 -0.057616275 0.10414968 -0.04200905
-0.0590668 -0.031080924 0.040883668 -0.039532952 0.059589338 0.10340638 -0.05883429 0.040889647
00000000: 46ad 9d3c 33aa a8bd a4a0 3abd b25c 8e3d
00000010: 516f c2bc 244a 823a fae4 b43d 65a3 143e
00000020: 8d1b 8abd e8a3 99bd ff41 b43d 5f24 21bd
00000030: 0746 27bd 9430 d2ba 5ed1 ab3d 02c9 03be
00000040: 8809 cdbd 3320 0bbd 72df f43d 9567 97bd
00000050: 3655 4dbd f0a8 993d 9bcd 98bc ecba 7b3c
00000060: fcfd e8bd 8400 c2bd ca76 c3bd 61c3 8f3d
00000070: 7934 43bd c4ab c53d 33d7 a93d c1a0 c8bd
00000080: 2b6a 1f3d 3c26 8d39 b216 403d cc80 b33c
00000090: aa72 b43d bd3d 263c ef9e c3bd 6406 e93c
000000a0: 8e79 093e 98e1 bebd 71ae 003d 6096 97bd
000000b0: 7c8d e6bd 98fa 8e3c bc76 c1bd 3814 a23c
000000c0: 3849 c93c e9ea b1bd 0f9d 003e 8287 a33d
000000d0: 0f8b 5d3d 287f 0cbb 6c43 0c3e 7d01 d83d
000000e0: 736a 44bd 3b16 a93d 5d5b c4bd cd08 8f3d
000000f0: a37f 493c 0097 14bc b198 633d 8e8f cb3c
00000100: 0f64 6e3d f7b4 00be c8ea 6d3d 9432 ffbc
00000110: aec5 803c 51c7 ef3d db03 a8bb dec3 ae3d
00000120: f60e 3fbc c2c8 e7bd 35b1 873d 5b5f 0d3e
00000130: e5cf 66bd 77d8 f3bd 91e6 983b 5c8c 243e
00000140: 847d 683d 4502 e93d 3e82 843c f4ae d7bd
00000150: 6168 3ebc 12b2 11be 582b 10be 6729 aabd
00000160: b758 c1bd ad84 173d b514 f53a 03ff 353c
00000170: e3fd 11be 8c9a 00bc 776d db3c b511 e1bc
00000180: 9fdd ba3c 4de4 c33b ad2b a7bb 05d6 0bbe
00000190: 75c5 873d eba7 d33d 4f3d ad3d 4534 18bd
000001a0: 0e92 7fbd 822a b4bc 21c4 4abd 6c17 973d
000001b0: da9d 78bc 5564 9a3d 55d8 ed3d c0d6 0bbe
000001c0: 6817 cc3d 3f1f 7d3c 1806 dbbd 20d4 b93d
000001d0: e7a8 a5bd 2944 cc3d 2f3a 38bd 2c6a 143e
000001e0: 4714 0ebe cb55 9ebb 7408 ecbd cee0 91bb
000001f0: be10 d23d 6994 7abd f11e 9c3d d944 88bd
00000200: 6935 703d 90c3 143e b84a 683d fdc6 903c
00000210: 284d 703d 4bf8 0e3c 5fa6 18bd 1988 c2bd
00000220: 5ac1 c03c 3e57 e93d b005 6e3c a94f 9a3d
00000230: 7bce bebd e4d6 acbc 7a71 ffbd bb8b 923d
00000240: 1a35 edbc 3da9 373d e420 123e 3c54 80bd
00000250: 5e6f 013d 6548 973d 8bbe 6fbd 1f41 b6bb
00000260: 3164 c1bd 9881 c83b ab72 d03d f783 a4bd
00000270: ccc5 24bd f257 cebd 51b5 193b 98da 833d
00000280: bb68 29be 2fe9 863d d13f 743c 526b e8bd
00000290: b8b8 b5bd 274d e33c a0b3 78bd 6bde 09bd
000002a0: cc14 9abd 5111 df3d 396c 1cbe 41b3 11bd
000002b0: 8799 133c fa8d eb3d 561f f13d c54f 513d
000002c0: af83 a9bd 57ac a23d 97b9 01be ec1f 5b3d
000002d0: 9376 a6bd 6332 89bc a126 353d f50b 03bd
000002e0: b349 debd b25e d93c 713d babc 152c 1fbe
000002f0: 0b9a da3d 54f0 053e f469 a43c a403 cfbd
00000300: 4870 61bd 1dee d03c fbc7 773d 004d 263d
00000310: 2967 ad3d bd45 80bd 2ed0 4e3d 1e0e 12bd
00000320: 4ee7 88bd b9cd 97bd 3e9f d83d 6b22 fcbd
00000330: 3680 f8bd 633b 5a3c 69c3 c3bd b30d ddbd
00000340: 3ab6 f3bc f57f 21bd d119 8a3d cb9b 10be
00000350: 5e8f 553d 6170 7abd 3052 b9bd 25fb e8bd
00000360: 343b df3d e337 f23d bbc2 be3d c077 3f3d
00000370: b24a 02bc eafa e53d dd56 37bb c1aa 0fbc
00000380: df78 e73c cca2 13bd 0a53 41bd 2f18 2ebd
00000390: a627 023d 07b8 afbd bd25 963c 66cc 8bbd
000003a0: 9218 f23d 423d 18bc 4df4 c13d d4db 383b
000003b0: 4821 a5ba df55 adbb 21dd e73d d956 f0bd
000003c0: 3006 2a3c 8850 30bd e4c9 6a3c 85f7 abbd
000003d0: 5a28 ba3d 0bff 6bbd 6d4c d53d ae11 2cbd
000003e0: 07f0 71bd 6c9d febc a275 273d 4eed 21bd
000003f0: f313 743d b9c6 d33d 39fc 70bd e77b 273d

post_layers.0.bias f4 [64]
0.096600726 -0.0047512935 -0.030014388 0.04141302 -0.10304789 0.023227021 0.09557288 0.011156441
-0.11724536 0.020216161 0.018678224 -0.020298947 -0.115281746 -0.022248875 0.155446 0.0052787033
0.08443916 -0.0056235166 0.09096313 -0.018346818 -0.09905249 -0.04672122 -0.00741828 0.03906073
-0.08481659 -0.011102319 0.069254465 0.05527357 0.081367 0.106037855 0.030787775 -0.06908464
0.07299608 -0.04465602 0.1291972 0.048034966 -0.026875928 0.08606592 0.15203471 -0.13914199
0.09771492 0.033274066 0.08470471 0.08234783 0.13280472 0.07792872 -0.05010324 0.02552577
-0.07106406 0.09122325 -0.042388666 -0.102755666 -0.0015035388 0.024661278 -0.08979663 -0.114075504
0.0063826283 -0.07511882 -0.021696884 -0.0014584861 -0.10682051 -0.008316738 0.0014794157 0.059855815
00000000: 9ad6 c53d bdb0 9bbb bce0 f5bc b3a0 293d
00000010: c60a d3bd 9846 be3c b7bb c33d 81c9 363c
00000020: 561e f0bd 5d9c a53c 1303 993c fa49 a6bc
00000030: d618 ecbd 4643 b6bc 3c2d 1f3e f9f8 ac3b
00000040: 70ee ac3d 7a45 b8bb e14a ba3d 114c 96bc
00000050: 08dc cabd c05e 3fbd 0b15 f3bb 25fe 1f3d
00000060: 52b4 adbd 80e6 35bc 49d5 8d3d 8a66 623d
00000070: bea3 a63d 602a d93d a536 fc3c 3f7c 8dbd
00000080: f87e 953d 3be9 36bd 454c 043e 50c0 443d
00000090: e82a dcbc 5443 b03d fdae 1b3e 3d7b 0ebe
000000a0: c31e c83d 634a 083d aa79 ad3d fba5 a83d
000000b0: f6fd 073e 1899 9f3d 0e39 4dbd 6b1b d13c
000000c0: 098a 91bd 41d3 ba3d bd9f 2dbd 9071 d2bd
000000d0: 6412 c5ba 7306 ca3c 4ce7 b7bd 6ba0 e9bd
000000e0: 5e25 d13b e5d7 99bd aabd b1bc ac2a bfba
000000f0: b6c4 dabd ed42 08bc f4e8 c13a 5f2b 753d

post_layers.1.weight f4 [64, 64]
0.036846913 0.077136904 -0.10821715 0.015037815 -0.019210337 -0.023713509 0.05801685 0.096361905
0.049102962 -0.08297796 0.079022706 0.07483852 -0.02793075 -0.044726837 -0.075275004 -0.07222706
0.10959659 0.020083014 0.1283779 0.012868079 0.1294448 0.069816016 -0.049221992 -0.010901727
0.087674744 0.013316081 -0.08663975 0.106430985 0.07175504 0.0047519426 0.0055204537 0.017457342
0.10695657 -0.04483831 -0.012369503 -0.0041595013 -0.10964499 -0.0005349377 0.058951482 -0.05406361
0.0061378917 0.07630551 0.115272075 0.12457669 -0.016087372 -0.028725484 0.0029343416 -0.033341162
0.02883831 0.048472106 -0.12084363 -0.05326862 0.117489785 -0.05164196 -0.017003395 0.0781961
-0.0934456 0.0071345335 0.04362284 0.07662176 -0.024730122 -0.016683597 -0.012253602 0.013558684
0.039599124 -0.06377636 0.061338 -0.029798295 -0.15587099 -0.06365562 0.06490586 0.018880958
0.016578648 0.12352078 -0.02957015 -0.027487174 0.08408863 -0.036314502 0.016506629 -0.057256762
0.10833404 0.036076047 0.091264 0.06346618 0.06646732 0.13688341 -0.095091894 0.04625354
-0.055574976 0.0059155053 -0.017454725 -0.026243942 0.11898215 0.027277099 0.12665045 0.04521173
-0.065274835 -0.024136327 0.0035455436 0.014830213 0.08655027 -0.041180637 -0.007826658 0.015071141
-0.09849609 0.030861681 0.0066229394 -0.052977685 -0.08691963 0.07415459 0.010661217 -0.09978312
-0.013403289 0.025730861 -0.105537236 0.025577685 0.04123481 0.10866352 0.037599478 0.10438683
0.09355935 0.11189212 0.1151484 -0.09590532 -0.021435002 -0.12869589 -0.040495403 0.054104056
-0.037456978 -0.09118356 0.060291715 0.09790584 -0.12418567 -0.13656329 0.10344067 -0.01021466
-0.087584116 -0.02983537 -0.0937906 -0.11786684 -0.030208755 -0.0045782584 -0.03555215 0.09939479
0.0025156194 0.079443194 0.11017992 -0.031207021 0.07013575 -0.007254271 0.03071293 -0.005939196
0.09826605 -0.045876805 0.040886167 -0.077334605 -0.030702522 0.050827693 0.031805914 0.07785967
0.09733646 -0.066915356 0.04807589 0.054812696 -0.011624816 0.058005698 0.10855551 -0.1291385
-0.053244583 -0.111019775 0.1326995 0.07851625 -0.062466864 0.13686995 0.011379466 0.02128991
0.10359849 -0.09264546 -0.12703232 0.07318062 0.032793716 -0.07506507 -0.06755903 0.1328177
0.05529933 -0.13125211 -0.009160432 0.046432987 0.057598345 0.041578934 0.028669633 0.07387907
0.10907374 0.15193754 -0.09805876 0.12628414 -0.07982462 0.06740041 0.011731955 0.019769568
-0.0528621 0.0058219545 0.060932897 0.0604371 -0.12395462 -0.09999969 0.016638946 0.09957922
0.05063212 0.025313739 -0.055351283 -0.09199048 -0.1116681 0.1103748 -0.03958178 -0.012070407
-0.09736408 0.1038303 -0.022548417 -0.013485215 0.054247744 -0.0888975 -0.06604933 0.07710024
-0.09882916 -0.026846208 0.0025138739 -0.03736836 0.052680343 0.07389785 0.00058729056 0.06053894
0.12516567 -0.029463267 0.08666896 -0.0062107695 -0.07926696 -0.059308294 -0.05750908 0.034281496
0.12454637 -0.09482869 -0.09525619 -0.07183689 0.0048933364 -0.086410195 0.014606503 -0.08076928
0.12755139 -0.024215173 -0.058561683 0.076623715 0.009012724 -0.07992964 -0.09960109 0.030172683
00000000: caec 163d f4f9 9d3d f4a0 ddbd 2b61 763c
00000010: ff5e 9dbc d542 c2bc 14a3 6d3d 6459 c53d
00000020: 3020 493d 59f0 a9bd a8d6 a13d f044 993d
00000030: 07cf e4bc 7d33 37bd c829 9abd c8eb 93bd
00000040: 2d74 e03d 2285 a43c 7f75 033e a3d4 523c
00000050: 2d8d 043e b3fb 8e3d 009d 49bd 289d 32bc
00000060: d18e b33d b12b 5a3c 2e70 b1bd 7df8 d93d
00000070: 4ef4 923d 2fb6 9b3b ece4 b43b b302 8f3c
00000080: 0c0c db3d 60a8 37bd 75a9 4abc 6d4c 88bb
00000090: 8d8d e0bd 103b 0cba 1c77 713d ce71 5dbd
000000a0: 5e20 c93b 1046 9c3d c413 ec3d 1022 ff3d
000000b0: aac9 83bc b551 ebbc 154e 403b be90 08bd
000000c0: 523e ec3c b08a 463d dd7c f7bd 3230 5abd
000000d0: 7c9e f03d 8586 53bd b44a 8bbc 4725 a03d
000000e0: 6860 bfbd cec8 e93b ddad 323d dfeb 9c3d
000000f0: d396 cabc 0aac 88bc 55c3 48bc 3e25 5e3c
00000100: b132 223d 2e9d 82bd 8e3d 7b3d 8e1b f4bc
00000110: a59c 1fbe e15d 82bd 5ded 843d 3dac 9a3c
00000120: f2cf 873c 76f8 fc3d 193d f2bc c82c e1bc
00000130: a936 ac3d 84be 14bd e938 873c 1186 6abd
00000140: 3dde dd3d 7ac4 133d 9fe8 ba3d 8efa 813d
00000150: 0520 883d 2a2b 0c3e 8abf c2bd 5a74 3d3d
00000160: 96a2 63bd dbd6 c13b 36fd 8ebc 89fd d6bc
00000170: eaac f33d 3974 df3c a8b0 013e ef2f 393d
00000180: d0ae 85bd 8cb9 c5bc 5a5c 683b 6cfa 723c
00000190: 4541 b13d 07ad 28bd 623b 00bc f2ec 763c
000001a0: 51b8 c9bd a3d1 fc3c 3e05 d93b 21ff 58bd
000001b0: eb02 b2bd 5dde 973d 63ac 2e3c 185b ccbd
000001c0: 7899 5bbc 87c9 d23c e823 d8bd 4b88 d13c
000001d0: d5e5 283d fb8a de3d e901 1a3d c3c8 d53d
000001e0: 0b9c bf3d b227 e53d edd2 eb3d 026a c4bd
000001f0: 7598 afbc dbc8 03be 82de 25bd 379c 5d3d
00000200: 7d6c 19bd 72be babd 72f4 763d db82 c83d
00000210: 0e55 febd 3fd7 0bbe b4d8 d33d 645b 27bc
00000220: 4d5f b3bd 4e69 f4bc 4915 c0bd 2b64 f1bd
00000230: 5a78 f7bc 3705 96bb 229f 11bd 7f8f cb3d
00000240: 17dd 243b 1db3 a23d 03a6 e13d dea5 ffbc
00000250: 55a3 8f3d 3cb5 edbb af99 fb3c 969d c2bb
00000260: b63f c93d 51e9 3bbd 4178 273d 9b61 9ebd
00000270: db83 fbbc b330 503d eb46 023d e474 9f3d
00000280: 5758 c73d eb0a 89bd 39eb 443d 4783 603d
00000290: 0376 3ebc 6297 6d3d 5a52 de3d e23c 04be
000002a0: fe16 5abd 565e e3bd 61e2 073e 21cd a03d
000002b0: 41dd 7fbd a327 0c3e f170 3a3c 2d68 ae3c
000002c0: 722b d43d e7bc bdbd c314 02be b9df 953d
000002d0: b452 063d b7bb 99bd 645c 8abd 5d01 083e
000002e0: 8d81 623d f466 06be a315 16bc 8430 3e3d
000002f0: 3eec 6b3d ac4e 2a3d 94dc ea3c e94d 973d
00000300: 0e62 df3d 8495 1b3e 08d3 c8bd a150 013e
00000310: 177b a3bd 3a09 8a3d 6337 403c caf3 a13c
00000320: ee85 58bd 18c6 be3b c694 793d e48c 773d
00000330: ebdb fdbd a3cc ccbd 664e 883c 31f0 cb3d
00000340: a063 4f3d c25e cf3c 07b8 62bd 8165 bcbd
00000350: 3fb2 e4bd 2f0c e23d 8120 22bd f5c2 45bc
00000360: d266 c7bd fba4 d43d 75b7 b8bc 17f1 5cbc
00000370: e232 5e3d e40f b6bd df44 87bd bbe6 9d3d
00000380: f166 cabd 94ec dbbc cebf 243b 910f 19bd
00000390: 58c7 573d c257 973d 67f4 193a aef7 773d
000003a0: 6e2b 003e f35c f1bc 7f7f b13d b683 cbbb
000003b0: b756 a2bd 41ed 72bd a48e 6bbd c16a 0c3d
000003c0: 2b12 ff3d 8b35 c2bd ad15 c3bd 381f 93bd
000003d0: 4858 a03b d4f7 b0bd 1d50 6f3c 5d6a a5bd
000003e0: d59c 023e e65e c6bc 60de 6fbd e5ec 9c3d
000003f0: 1baa 133c 27b2 a3bd a8fb cbbd b42c f73c

post_layers.1.bias f4 [64]
0.047508467 0.14211519 0.059078302 0.14020771 -0.079869084 0.0055908263 -0.07994019 -0.06858606
-0.007473256 0.049351543 -0.06419789 0.020635273 0.08001371 -0.13486929 0.0063627404 0.08194898
-0.039820176 0.09504343 -0.057740048 -0.0031659575 -0.08655966 0.0632983 -0.019056289 0.026203874
-0.08257528 0.054467 0.10921114 -0.09239239 0.00087870157 -0.08892056 -0.022182496 -0.0055261278
0.03416923 0.020334333 -0.0783882 -0.13828103 0.06546859 -0.022980174 -0.03117079 -0.06759077
0.1308616 0.07089679 -0.029738061 0.13754547 0.11018417 0.07557757 0.04149274 0.02437488
-0.02194942 -0.0036805156 -0.020873697 -0.004760351 0.05136853 0.07219014 0.060580898 0.072843865
-0.09284043 0.10562999 -0.064452924 0.02485452 0.052041013 0.120930165 0.0983005 -0.05418605
00000000: 3d98 423d a586 113e 17fc 713d 9c92 0f3e
00000010: 6792 a3bd 4033 b73b afb7 a3bd d976 8cbd
00000020: 37e2 f4bb d824 4a3d 2f7a 83bd 4e0b a93c
00000030: 3ade a33d 2d1b 0abe 897e d03b ded4 a73d
00000040: 7b1a 23bd 21a6 c23d d480 6cbd f47b 4fbb
00000050: 3146 b1bd 8aa2 813d ef1b 9cbc 82a9 d63c
00000060: 3a1d a9bd ca18 5f3d 17aa df3d 3938 bdbd
00000070: aa58 663a fc1b b6bd 11b8 b5bc 8514 b5bb
00000080: 09f5 0b3d 3094 a63c fe89 a0bd 8b99 0dbe
00000090: 6514 863d eb40 bcbc e259 ffbc 086d 8abd
000000a0: 9500 063e 5632 913d 3c9d f3bc b8d8 0c3e
000000b0: 3da8 e13d 6ac8 9a3d 4bf4 293d d4ad c73c
000000c0: 45cf b3bc ce34 71bb 51ff aabc b8fc 9bbb
000000d0: cf67 523d 6dd8 933d ad23 783d 2a2f 953d
000000e0: 2023 bebd 8954 d83d e5ff 83bd b59b cb3c
000000f0: f528 553d 3caa f73d c651 c93d 31f2 5dbd

post_layers.2.weight f4 [64, 64]
0.022600008 -0.039260294 0.037635777 -0.1006935 -0.030557092 -0.013142906 0.12961788 0.15016156
0.06794049 0.07314093 -0.057605874 0.014421506 0.082925014 -0.05692073 -0.06346263 0.16089325
-0.032610152 -0.030820848 -0.122469895 0.07606202 -0.05713801 0.074367724 -0.013949647 -0.15649123
-0.04863355 -0.08548778 0.018337678 0.17122236 -0.07661713 0.10918478 0.1678199 0.090750694
-0.061055727 -0.059211794 0.008444076 -0.021369679 0.12552918 -0.0846504 -0.019772425 0.10616104
0.033489916 0.09385643 0.066699624 0.020004367 -0.03905257 0.039062202 0.12355874 -0.05676956
-0.1004421 -0.08192956 0.08938839 0.105240695 0.037031934 0.063636936 0.08100003 0.061116148
-0.11394062 -0.056117337 0.16389017 -0.1266286 -0.079913385 0.025713576 0.09710693 -0.06418571
0.07200401 -0.09712326 -0.08283693 0.06574798 0.0143496385 -0.046256892 0.10938309 -0.16017622
-0.08189723 0.10755327 0.064204976 0.04733382 -0.04628498 0.0026307038 -0.09171194 0.0076654246
0.006678758 0.0094385985 -0.095431134 -0.0317484 0.04673666 -0.032941233 -0.06464715 -0.12995543
0.096204594 0.064188056 -0.074411556 0.014519433 0.08316993 0.013918951 -0.17798178 -0.065571204
-0.15127274 -0.021094093 -0.069191106 0.2623446 0.0017644096 0.059316143 0.08867873 -0.004179865
-0.087597415 0.09032689 0.08843365 0.002116327 0.055193465 -0.044281833 -0.009006785 0.026247196
-0.05671066 -0.10196666 -0.052295927 0.007994484 0.083823025 -0.0657898 0.069742374 0.10425323
0.102493145 0.04074209 -0.0039828387 -0.033426914 -0.023899999 -0.0015279381 -0.14596505 0.0031350353
-0.043185424 0.14516547 0.14205265 0.05219409 -0.049309693 -0.043600623 0.03324806 0.017951028
0.1399825 0.04775058 0.04089171 0.010323741 0.070270054 -0.1326137 -0.086150095 0.13870288
0.09774182 0.04717612 0.05119587 0.003963827 0.1145335 0.029202553 -0.14012459 0.035702694
-0.08932486 0.11594141 -0.069864936 0.06534934 0.11812885 -0.025026636 0.22088045 -0.09452654
0.10778835 -0.0009133536 0.124125704 -0.24225146 -4.543841e-05 -0.058820378 -0.057406947 0.02848877
0.018775303 0.035733216 0.0064400733 0.025724208 -0.054697018 -0.09657538 0.06238023 -0.066597916
-0.090881206 -0.03821633 0.024864718 0.09480076 0.10744661 -0.07834931 0.045891736 0.10302807
0.07385457 0.10650335 -0.004839968 -0.026846886 -0.038141042 0.07585149 0.03326778 0.1255847
-0.017193537 -0.026377892 -0.08921279 0.089529365 0.048105616 0.023879826 -0.099456266 0.15586868
-0.025796477 0.13264759 -0.001639602 -0.0615857 -0.08613827 0.0020388681 -0.016414369 0.070076995
0.1321449 0.09069653 -0.11158315 0.04154488 0.01162331 -0.021644995 -0.17320651 -0.13458493
0.11360657 0.11753905 0.13228995 0.12462238 0.026903993 -0.0067446525 0.0051819817 0.03406507
0.07786321 -0.13023506 -0.053916026 -0.10825976 -0.057615362 0.02298348 0.13337727 0.11801307
0.109882474 -0.055905875 0.11780398 0.09626213 0.03674572 -0.056632165 -0.10419377 -0.12535457
-0.080628015 0.1175154 -0.02691821 0.031433664 -0.02797504 -0.03708 0.016243981 0.02044274
0.10298452 -0.007140134 0.09394122 0.040993355 0.13315144 0.11611246 0.06036746 0.071518384
00000000: a723 b93c 67cf 20bd f927 1a3d 6538 cebd
00000010: de52 fabc 5855 57bc 8dba 043e f4c3 193e
00000020: 6224 8b3d e9ca 953d 23f4 6bbd 2e48 6c3c
00000030: 97d4 a93d b625 69bd b2f8 81bd 33c1 243e
00000040: 3992 05bd 017c fcbc 7fd1 fabd 68c6 9b3d
00000050: 8c09 6abd 1b4e 983d 0f8d 64bc 3d3f 20be
00000060: f933 47bd 3814 afbd e638 963c ea54 2f3e
00000070: 71e9 9cbd 459c df3d fbd8 2b3e 80db b93d
00000080: 9215 7abd 1188 72bd 0659 0a3c 770f afbc
00000090: b98a 003e 305d adbd c8f9 a1bc f66a d93d
000000a0: b92c 093d cd37 c03d d099 883d 33e0 a33c
000000b0: 96f5 1fbd b0ff 1f3d 5d0c fd3d 3387 68bd
000000c0: 96b4 cdbd afca a7bd 4311 b73d 6f88 d73d
000000d0: ccae 173d 1554 823d 58e3 a53d ed54 7a3d
000000e0: b359 e9bd 4bdb 65bd d3d2 273e edaa 01be
000000f0: a1a9 a3bd 47a5 d23c 00e0 c63d cc73 83bd
00000100: d776 933d 8fe8 c6bd 69a6 a9bd e0a6 863d
00000110: bf1a 6b3c de77 3dbd 3e04 e03d 3c05 24be
00000120: bcb9 a7bd e444 dc3d e67d 833d 1ce1 413d
00000130: 5295 3dbd e367 2c3b 78d3 bbbd 3e2e fb3b
00000140: 7cd9 da3b 5aa4 1a3c 6671 c3bd 9c0a 02bd
00000150: f16e 3f3d 63ed 06bd ba65 84bd 0913 05be
00000160: ea06 c53d 0775 833d 1665 98bd eae2 6d3c
00000170: ff54 aa3d 500c 643c db40 36be 324a 86bd
00000180: 3ee7 1abe 85cd acbc 11b4 8dbd 0852 863e
00000190: c343 e73a 7cf5 723d 329d b53d 40f7 88bb
000001a0: 4666 b3bd 4efd b83d b41c b53d 13b2 0a3b
000001b0: 8b12 623d de60 35bd 3291 13bc 5c04 d73c
000001c0: 7049 68bd e5d3 d0bd 4134 56bd 4cfb 023c
000001d0: 68ab ab3d cdbc 86bd 17d5 8e3d b882 d53d
000001e0: ede7 d13d 2ee1 263d 7982 82bb a9ea 08bd
000001f0: eec9 c3bc 1845 c8ba dd77 15be 2a75 4d3b
00000200: 33e3 30bd 42a6 143e 4076 113e 78c9 553d
00000210: f6f8 49bd 9196 32bd 1e2f 083d 090e 933c
00000220: 9357 0f3e 1d96 433d 117e 273d e824 293c
00000230: bfe9 8f3d e3cb 07be 766f b0bd 2108 0e3e
00000240: dd2c c83d bf3b 413d c3b2 513d fee2 813b
00000250: 8a90 ea3d 313a ef3c d27c 0fbe fd3c 123d
00000260: f4ef b6bd b172 ed3d 5915 8fbd e0d5 853d
00000270: 8aed f13d a904 cdbc 7c2e 623e 2197 c1bd
00000280: 23c0 dc3d 1f6e 6fba 9e35 fe3d c410 78be
00000290: 1f95 3eb8 a3ed 70bd 8c23 6bbd 4861 e93c
000002a0: aace 993c fe5c 123d 4007 d33b 93bb d23c
000002b0: fb09 60bd 50c9 c5bd 6982 7f3d 7d64 88bd
000002c0: ed1f babd ba88 1cbd 18b1 cb3c e726 c23d
000002d0: f80c dc3d 9a75 a0bd f9f8 3b3d 6100 d33d
000002e0: 1141 973d 6e1e da3d 9898 9ebb 00ee dbbc
000002f0: c839 1cbd 0758 9b3d cc43 083d 4799 003e
00000300: 76d9 8cbc 7316 d8bc 32b5 b6bd 2c5b b73d
00000310: 650a 453d a09f c33c baaf cbbd 0a9c 1f3e
00000320: 2253 d3bc c5d4 073e eae7 d6ba 4941 7cbd
00000330: 4369 b0bd 889e 053b 6d77 86bc 8784 8f3d
00000340: fe50 073e 1abf b93d b585 e4bd f72a 2a3d
00000350: b26f 3e3c d850 b1bc 0c5d 31be a2d0 09be
00000360: 90aa e83d 50b8 f03d 0477 073e 053a ff3d
00000370: c365 dc3c 3f02 ddbb 9dcd a93b d187 0b3d
00000380: bf76 9f3d 575c 05be 0dd7 5cbd 4bb7 ddbd
00000390: 16fe 6bbd da47 bc3c 0d94 083e d6b0 f13d
000003a0: 100a e13d 8ffd 64bd 3743 f13d 1425 c53d
000003b0: ae82 163d 21f7 67bd 8b63 d5bd f35c 00be
000003c0: 4d20 a5bd eaab f03d 9483 dcbc 96c0 003d
000003d0: e92b e5bc 33e1 17bd 1912 853c 8877 a73c
000003e0: 8ce9 d23d c9f7 e9bb 4164 c03d a6e8 273d
000003f0: da58 083e 5fcc ed3d df43 773d 3b78 923d

post_layers.2.bias f4 [64]
-0.08591886 -0.03355212 -0.015055739 0.036204387 0.048376095 0.04505996 -0.054884512 -0.12832198
0.050888024 -0.05126053 0.08880287 0.14230618 0.0025098922 -0.012064509 -0.040504105 -0.007920215
-0.124211006 0.1299625 0.09957493 -0.061650585 0.030873092 -0.04163902 -0.020170268 -0.038270585
0.121714145 -0.0885788 0.14875185 -0.051009975 -0.07015567 0.061513867 -0.0039764554 -0.021570073
-0.07457099 -0.0948328 0.13547336 0.12871328 0.13446712 0.08528156 0.049122307 -0.08554524
0.041598182 -0.011057133 -0.06111888 -0.059173506 -0.04550425 0.05601369 -0.0070067574 -0.03690941
-0.08680918 0.07987813 -0.039373778 -0.056607794 -0.095239684 0.048690632 -0.114151865 -0.09702621
0.06335938 0.13857712 0.054340936 0.084653586 0.035890125 0.048212282 0.13350335 0.08337535
00000000: 3af6 afbd f36d 09bd 59ac 76bc 0d4b 143d
00000010: 0326 463d cb90 383d 95ce 60bd d666 03be
00000020: f66f 503d 90f6 51bd 47de b53d b6b8 113e
00000030: 017d 243b 38aa 45bc a2e7 25bd cac3 01bc
00000040: 5762 febd e414 053e f1ed cb3d 5385 7cbd
00000050: 91e9 fc3c ad8d 2abd 1e3c a5bc 9ec1 1cbd
00000060: 4445 f93d cd68 b5bd 6852 183e d6ef 50bd
00000070: c7ad 8fbd f7f5 7b3d ed4c 82bb b9b3 b0bc
00000080: adb8 98bd b337 c2bd 87b9 0a3e 6acd 033e
00000090: c0b1 093e 19a8 ae3d 7934 493d 5832 afbd
000000a0: db62 2a3d fa28 35bc ca57 7abd eb5f 72bd
000000b0: aa62 3abd 9c6e 653d f198 e5bb 522e 17bd
000000c0: 03c9 b1bd 2597 a33d 6646 21bd 93dd 67bd
000000d0: 060d c3bd d46f 473d 74c8 e9bd adb5 c6bd
000000e0: 90c2 813d 29e7 0d3e 9a94 5e3d dc5e ad3d
000000f0: 8601 133d 3e7a 453d 1ab5 083e b2c0 aa3d

output_layer.weight f4 [1, 64]
0.06146423 -0.093884826 0.1310884 0.116124876 -0.13082258 0.14579287 0.09676026 0.30820328
0.14810467 0.109346606 -0.049708694 0.044851866 -0.21061769 -0.17514004 -0.13471055 0.014094799
0.010574023 0.049981084 -0.004298943 -0.26293966 0.09369124 -0.063053705 -0.004891355 0.040151797
0.081786975 -0.32879367 0.12743706 -0.07855685 0.11649745 -0.083838046 0.108117044 -0.23996462
-0.1410369 -0.020549484 0.12464506 0.10654991 0.053557903 0.063826226 -0.039062954 0.13347417
0.037102364 -0.045567222 0.08353064 -0.14264701 0.108984135 -0.11084343 -0.038387045 0.06046863
-0.06972089 -0.088718414 -0.0685046 0.07741362 0.068243794 -0.089932 -0.0024236685 0.07560977
0.095870465 0.060958914 -0.039301433 0.056692604 -0.08801768 0.13397656 0.14664355 0.10500033
00000000: ebc1 7b3d b046 c0bd 0a3c 063e e1d2 ed3d
00000010: 5bf6 05be ba4a 153e 3e2a c63d d2cc 9d3e
00000020: c0a8 173e 1df1 df3d 589b 4bbd 97b6 373d
00000030: 2aac 57be e957 33be 90f1 09be dfed 663c
00000040: ab3e 2d3c f7b8 4c3d 26de 8cbb 07a0 86be
00000050: 31e1 bf3d 4d22 81bd a947 a0bb 3676 243d
00000060: ee7f a73d a557 a8be dc7e 023e 6ae2 a0bd
00000070: 3796 ee3d 48b3 abbd 786c dd3d 49b9 75be
00000080: fa6b 10be 6457 a8bc e945 ff3d d736 da3d
00000090: 885f 5b3d 53b7 823d 7a00 20bd 74ad 083e
000000a0: a6f8 173d b2a4 3abd 1d12 ab3d 0f12 12be
000000b0: 1333 df3d e101 e3bd bc3b 1dbd f4ad 773d
000000c0: d3c9 8ebd 00b2 b5bd 244c 8cbd 088b 9e3d
000000d0: 67c3 8b3d 452e b8bd 69d6 1ebb 4cd9 9a3d
000000e0: bc57 c43d 0eb0 793d 8afa 20bd 8136 683d
000000f0: 9d42 b4bd 2731 093e ba29 163e 6a0a d73d

gc_layers.0.lin_f.weight f4 [64, 160]
-0.052793503 0.03682379 -0.007034647 0.04420459 -0.09202633 0.012301723 0.038963318 -0.028813912
0.011161042 0.011067156 0.0026236402 -0.050022475 0.066088505 0.018383276 0.046777952 0.05332783
-0.06934248 -0.007028159 -0.08331146 -0.02138708 0.018842531 -0.08788865 -0.011571421 -0.013343743
0.030423675 -0.045337845 0.028867317 0.059445277 -0.021984631 -0.09589676 -0.061474193 -0.027721895
-0.017343076 -0.06509088 -0.031652186 -0.045423426 -0.033475976 -0.066986114 -0.015249881 -0.013194581
0.042137425 0.004254251 -0.042007178 -0.06580548 0.06442147 0.047195666 0.069285065 0.021542443
0.029867215 -0.030731894 0.0126191955 -0.030238038 0.02090691 0.06469381 -0.05340248 0.072048016
0.013670409 0.045830637 0.071923465 0.056009613 0.06653435 0.040315844 0.015173633 0.063608125
-0.0528318 0.05569079 -0.0015704675 0.018129263 0.004108699 0.022697175 -0.07180776 -0.04325615
0.0038370239 0.03725365 0.05826354 -0.046192486 -0.015395086 -0.07108012 0.04249681 -0.06876663
-0.031971868 -0.02431118 0.002547662 -0.04234891 0.025877126 0.0013048772 0.028414352 0.06627172
0.06820177 -0.021712067 0.040024463 0.04219926 0.022039134 -0.02846518 -0.0398876 0.009549503
-0.062243465 -0.0765217 0.081661455 -0.054811597 0.0067069004 0.007194853 0.05538562 0.0359394
-0.07596996 -0.0045697377 -0.086706616 -0.01013233 -0.025440311 -0.04275571 -0.036420647 0.03394216
-0.04270575 0.030489612 0.023198482 0.09092123 -0.078988075 -0.075291514 -0.0305289 0.076242216
-0.05813859 -0.05079954 -0.026804391 0.037601728 -0.030190822 -0.054040536 -0.03134129 0.010489894
-0.058021832 0.03748276 -0.0722321 -0.035994217 0.0060182107 0.033366393 -0.016705602 0.06624605
0.07899035 -0.036023892 -0.0347079 -0.028426964 -0.08449428 -0.08940746 0.019831423 -0.1013657
-0.11314038 0.02586448 -0.08321896 0.0551616 -0.06369184 0.07212485 -0.06942948 -0.048082884
0.025237104 -0.051068865 -0.006628269 0.10486381 0.020836923 0.012163681 0.031600244 0.100478776
0.02209015 -0.081316225 -0.043955423 0.050682165 -0.01142983 -0.05458708 -0.06880503 -0.08727877
0.06188765 0.00733433 -0.063406184 -0.0460688 -0.07390597 -0.05641385 0.024746614 0.0457678
0.030460143 -0.037511054 -0.037340708 0.042713545 -0.024442539 0.06355175 -0.07681944 -0.033846363
0.07792806 -0.02654495 -0.07205424 -0.033376846 0.011647802 -0.014199256 -0.09510689 0.04188844
-0.013000498 -0.015225292 -0.04186195 0.07706203 -0.035044353 -0.0046441182 0.077810325 -0.009781202
-0.09563379 0.044568636 0.016040204 -0.028867273 0.10928565 -0.085262075 -0.10386471 -0.061986417
-0.045805097 0.01613335 0.048008103 -0.05815764 0.06266708 0.009433969 -0.092868686 -0.02658892
0.046030752 0.022031609 -0.0069631697 -0.059836965 -0.1033516 0.023904044 -0.060110476 -0.05313752
-0.02810336 0.019040795 0.013429527 0.03477177 -0.048240285 -0.0058155754 0.009652992 -0.022077695
0.073612936 0.013044637 0.012663793 -0.048600987 -0.010501372 -0.020666495 0.090853676 0.03496106
0.047719706 -0.042409174 -0.050641727 -0.00019992232 -0.08119967 -0.07954049 -0.07271443 0.0655428
0.0071704295 0.07423271 -0.09739481 -0.038811464 -0.037417773 0.058041815 -0.13407682 -0.014380971
00000000: 003e 58bd 8bd4 163d e582 e6bb df0f 353d
00000010: 4d78 bcbd 2a8d 493c 0098 1f3d 270b ecbc
00000020: cedc 363c 0453 353c 61f1 2b3b 5ee4 4cbd
00000030: 6959 873d 8698 963c 3d9a 3f3d 486e 5a3d
00000040: 6e03 8ebd 794c e6bb 339f aabd f533 afbc
00000050: a75b 9a3c f7fe b3bd 0f96 3dbc b79f 5abc
00000060: 123b f93c 2db4 39bd 277b ec3c e47c 733d
00000070: 1d19 b4bc 8565 c4bd 5dcc 7bbd 0719 e3bc
00000080: 1113 8ebc 5e4e 85bd b9a5 01bd ea0d 3abd
00000090: 1b1e 09bd 0430 89bd a3da 79bc 152e 58bc
000000a0: 4b98 2c3d 3e67 8b3b b80f 2cbd 06c5 86bd
000000b0: 67ef 833d 3e50 413d 54e5 8d3d c779 b03c
000000c0: 17ac f43c 74c1 fbbc bec0 4e3c c3b5 f7bc
000000d0: f844 ab3c 307e 843d 8fbc 5abd e98d 933d
000000e0: daf9 5f3c e8b8 3b3d 9c4c 933d 566a 653d
000000f0: 2943 883d 3a22 253d d49a 783c fa44 823d
00000100: 2866 58bd 071c 643d 25d8 cdba d283 943c
00000110: 44a2 863b 6def b93c f20f 93bd 5c2d 31bd
00000120: 9476 7b3b 4997 183d c0a5 6e3d 5534 3dbd
00000130: ac3b 7cbc 7492 91bd 2311 2e3d 85d5 8cbd
00000140: eff4 02bd 3d28 c7bc adf6 263b 0d76 2dbd
00000150: 44fc d33c 6a08 ab3a 37c5 e83c 78b9 873d
00000160: 5fad 8b3d 81dd b1bc b1f0 233d 22d9 2c3d
00000170: 6a8b b43c cf2f e9bc 2e61 23bd 8575 1c3c
00000180: 01f3 7ebd 69b7 9cbd 1f3e a73d 2082 60bd
00000190: 8fc5 db3b cdc2 eb3b 08dc 623d 3135 133d
000001a0: 2396 9bbd bdbd 95bb 3d93 b1bd 1202 26bc
000001b0: 3368 d0bc 9d20 2fbd d12d 15bd ef06 0b3d
000001c0: 39ec 2ebd 5ac5 f93c be0a be3c e934 ba3d
000001d0: 80c4 a1bd 7032 9abd be17 fabc e124 9c3d
000001e0: bb22 6ebd 2e13 50bd e294 dbbc 4504 1a3d
000001f0: be52 f7bc 9c59 5dbd b95f 00bd cedd 2b3c
00000200: 4da8 6dbd 8687 193d 6cee 93bd ac6e 13bd
00000210: 6934 c53b 33ab 083d 30da 88bc 02ac 873d
00000220: b1c5 a13d ca8d 13bd df29 0ebd aadf e8bc
00000230: 560b adbd 421b b7bd 8275 a23c d298 cfbd
00000240: 25b6 e7bd bfe1 d33c b46e aabd 21f1 613d
00000250: de70 82bd 31b6 933d 0b31 8ebd 8ff2 44bd
00000260: 0bbe ce3c 962d 51bd f331 d9bb d6c2 d63d
00000270: 32b2 aa3c 2d4a 473c 426f 013d d1c7 cd3d
00000280: 67f6 b43c 1f89 a6bd 9a0a 34bd 1a98 4f3d
00000290: 2f44 3bbc b496 5fbd a7e9 8cbd 36bf b2bd
000002a0: e87d 7d3d d254 f03b 1adb 81bd a3b2 3cbd
000002b0: 035c 97bd 3612 67bd 69b9 ca3c 0477 3b3d
000002c0: 8d87 f93c 31a5 19bd 92f2 18bd 66f4 2e3d
000002d0: b83b c8bc 6b27 823d 8353 9dbd 7ca2 0abd
000002e0: bf98 9f3d cc74 d9bc 2c91 93bd 29b6 08bd
000002f0: 6cd6 3e3c ffa3 68bc 67c7 c2bd 3693 2b3d
00000300: 0a00 55bc 8173 79bc 7077 2bbd b3d2 9d3d
00000310: ab8a 0fbd b02d 98bb 055b 9f3d 5641 20bc
00000320: a6db c3bd 9a8d 363d bf66 833c 0f7b ecbc
00000330: 28d1 df3d e29d aebd 05b7 d4bd 78e5 7dbd
00000340: 209e 3bbd 162a 843c 25a4 443d b536 6ebd
00000350: 9957 803d ef90 1a3c f031 bebd 02d1 d9bc
00000360: be8a 3c3d a27b b43c 4d2b e4bb 9b17 75bd
00000370: 01aa d3bd 6ad2 c33c 6736 76bd baa6 59bd
00000380: 0539 e6bc 71fb 9b3c 8507 5c3c d86c 0e3d
00000390: 9b97 45bd 9590 bebb 9527 1e3c 48dc b4bc
000003a0: 61c2 963d 2cb9 553c cc7b 4f3c d411 47bd
000003b0: f20d 2cbc c84c a9bc 7e11 ba3d 5433 0f3d
000003c0: bd75 433d 3eb5 2dbd b36d 4fbd 3da2 51b9
000003d0: 034c a6bd 20e6 a2bd 4eeb 94bd 4e3b 863d
000003e0: ecf5 ea3b 5207 983d ee76 c7bd c5f8 1ebd
000003f0: 6143 19bd 41bd 6d3d 6f4b 09be 2a9e 6bbc

gc_layers.0.lin_f.bias f4 [64]
-0.03212021 0.11105595 0.082851954 0.044834 0.042803366 0.029572707 0.025834555 -0.032288585
-0.04646215 0.064340904 0.06254146 -0.050640017 -0.06612024 -0.06173707 0.083748706 0.044898372
-0.023761293 0.009048025 -0.05762523 0.006557667 0.06968364 0.02191411 0.05889535 -0.0052667474
-0.044475492 0.044627115 -0.06557948 0.024108598 0.01627863 0.008725499 -0.046880834 0.040983703
0.033596434 0.048272476 -0.06301168 0.072852045 0.0037031008 0.08643979 0.071965925 -0.037237525
-0.05193295 0.061238654 -0.03545447 0.05846238 0.067777775 -0.04449529 0.024200309 0.10692463
0.04738474 -0.048737004 -0.07275558 0.072206 -0.039604094 0.09291178 0.02764255 0.0750304
-0.047023233 0.03737317 0.062037148 -0.0786303 0.050340824 -0.017875513 0.00819272 -0.017863901
00000000: 7b90 03bd 4d71 e33d 49ae a93d dba3 373d
00000010: 9552 2f3d 7642 f23c fda2 d33c 0941 04bd
00000020: 184f 3ebd 2ac5 833d bd15 803d e86b 4fbd
00000030: 0c6a 87bd 03e0 7cbd 7184 ab3d 5be7 373d
00000040: 0ba7 c2bc 2b3e 143c 6f08 6cbd b3e1 d63b
00000050: 4cb6 8e3d 3885 b33c 403c 713d ae94 acbb
00000060: ef2b 36bd ecca 363d 894e 86bd 657f c53c
00000070: c35a 853c 65f5 0e3c 1e06 40bd 87de 273d
00000080: 6a9c 093d 5cb9 453d 450c 81bd 7433 953d
00000090: b9af 723b 5807 b13d df62 933d 6086 18bd
000000a0: a5b7 54bd 62d5 7a3d b538 11bd 4076 6f3d
000000b0: 13cf 8a3d b140 36bd ba3f c63c 4dfb da3d
000000c0: 8016 423d 74a0 47bd e100 95bd bde0 933d
000000d0: e737 22bd 8848 be3d a172 e23c 8aa9 993d
000000e0: 6f9b 40bd 9c14 193d aa1a 7e3d ec08 a1bd
000000f0: 2e32 4e3d ab6f 92bc c23a 063c 5157 92bc
