saved_models/2023-04-20_01-58-31/model.pth (torch, 811622 bytes, 76 tensors)

type_embedding.weight f4 [100, 100]
0.43556055 -0.4661273 -0.3118657 -0.015712434 0.91409105 -0.11053943 0.08039444 -1.0782712
0.6705596 -0.5430884 0.16344126 -0.051646933 -0.8935254 -0.3456595 1.0916984 1.2651345
-0.6293363 1.4661697 0.3710418 0.8689496 0.637992 -0.47930017 1.851979 -0.7932871
-0.13180193 1.5730507 0.93783826 -0.17680758 0.6167353 -0.19881332 1.533657 0.61832464
-0.7865982 -2.352595 0.35637948 -0.45683557 0.116663225 -1.4186176 0.31205267 -1.1288325
1.1044095 0.24449386 -0.45004565 -0.8949129 0.98361516 2.2833018 -0.50081784 -0.4247971
-1.1956874 1.7905996 0.6256076 1.1383979 -1.477059 -1.9906716 -0.5366428 1.1836578
-0.95837814 0.19347182 0.42375103 0.5170782 0.44827947 -0.34300518 0.8863553 0.48877028
1.4459906 0.3081758 -1.0890344 0.45532325 0.28067535 1.5520778 -0.38393354 -1.5611851
1.7401193 -1.8797282 -2.0770624 0.7326903 0.27390668 2.1262145 0.80570894 -0.2485201
1.4617019 -1.0066558 -0.4106398 0.67543846 -0.9413371 -0.35798004 0.45896935 -1.1065784
-0.4903917 0.7942888 0.24016331 -0.18616062 -0.22466472 -0.4991621 -0.010293238 0.58882797
1.5763489 -0.07508605 0.34621653 -1.4768523 0.9776474 -0.36977506 1.7532718 1.8267928
0.16626267 -0.6778281 0.37259197 -0.81594366 -0.41670153 0.0119453985 -0.6371229 -0.41894096
-0.8074813 0.2913975 0.7922072 -1.354412 0.57006645 0.12301639 -0.03739252 1.8862901
0.71641284 0.089036025 0.33406615 -1.0099803 0.4079347 -0.055518225 -2.003851 -1.3108689
1.4163481 -0.43943614 -0.34175584 0.106470086 -1.1470877 -0.5727356 -0.9455647 -0.6816632
0.3225866 1.2819846 -0.560317 0.52788496 -0.42359093 0.8707674 0.89170337 1.3571347
2.1292818 -0.003309891 0.65547645 -1.5873663 0.43549657 -1.2571719 1.4183216 0.6616419
-0.65974927 1.3154571 1.1150223 0.25580883 0.58210427 -0.7701004 1.5373002 0.048415553
1.4494215 1.4978795 0.65638995 -0.76415163 1.0572209 0.7065072 0.4286779 1.0196139
0.68286186 2.0884516 1.2656195 -0.37598893 0.34150657 0.28062582 1.8443166 -0.12132084
-0.031567357 1.1479888 0.5562625 1.5096967 -0.42771918 0.2573034 -0.15551426 -0.3801144
-0.65203017 -0.3494786 -0.54464316 -0.5063678 0.2254719 -0.9963867 2.0009882 0.33511585
0.15927188 -1.0673609 -0.24745996 0.069032304 0.45049015 -0.5352937 -1.5165343 0.54622775
-1.3493075 -0.22816798 0.88160753 -0.7628736 1.1011565 -1.608119 0.7346925 -0.37174532
0.8168162 -0.8735647 0.12396065 -0.5512232 -1.0083193 -0.0948187 -0.54304576 1.6344335
-1.5089424 -0.5637562 0.04481411 -0.34858817 -0.6498608 0.6546915 -0.24691631 1.5789675
0.24525806 0.3133277 0.98192304 -1.1791966 -0.5176368 -0.31412607 -0.4471944 -1.1539104
-0.13565822 -1.3742486 -0.09358144 -0.34349966 0.38346475 1.3419536 1.6538364 0.18176097
0.048017822 0.36831707 1.0576919 0.80280006 0.44135937 -0.24638398 1.7586416 0.0741527
0.686154 0.34058255 2.2025132 -0.9169076 -0.6018028 -1.206153 -1.0972323 -1.1019862
00000000: cb01 df3e 3da8 eebe dcac 9fbe 5db7 80bc
00000010: df01 6a3f 7f62 e2bd d7a5 a43d ca04 8abf
00000020: cba9 2b3f d707 0bbf 255d 273e bc8b 53bd
00000030: 15be 64bf 48fa b0be c6bc 8b3f edef a13f
00000040: 2f1c 21bf 73ab bb3f 31f9 bd3e 7b73 5e3f
00000050: 7253 233f d566 f5be a60d ed3f dd14 4bbf
00000060: 16f7 06be ba59 c93f 2b16 703f 0c0d 35be
00000070: 5de2 1d3f b895 4bbe df4e c43f 864a 1e3f
00000080: 805e 49bf eb90 16c0 5f77 b63e 5ae6 e9be
00000090: 21ed ee3d 4395 b5bf 5ec5 9f3e 957d 90bf
000000a0: 4a5d 8d3f 995c 7a3e 626c e6be 0319 65bf
000000b0: 34ce 7b3f 9e21 1240 9935 00bf 017f d9be
000000c0: 490c 99bf 5e32 e53f d227 203f 06b7 913f
000000d0: 4510 bdbf 54ce febf 6c61 09bf 1982 973f
000000e0: 4558 75bf 7a1d 463e e5f5 d83e 3d5f 043f
000000f0: e384 e53e 609e afbe 2ee8 623f 1940 fa3e
00000100: 3816 b93f 38c9 9d3e 7b65 8bbf 2120 e93e
00000110: aeb4 8f3e 7caa c63f f092 c4be ead4 c7bf
00000120: 3bbc de3f ef9a f0bf 97ee 04c0 9791 3b3f
00000130: 7f3d 8c3e e613 0840 f142 4e3f 0e7c 7ebe
00000140: 0c19 bb3f 19da 80bf 613f d2be 89e9 2c3f
00000150: 78fb 70bf 2949 b7be 08fe ea3e 5ca4 8dbf
00000160: 9f14 fbbe 8356 4b3f 5fed 753e e4a0 3ebe
00000170: 820e 66be 2d92 ffbe f8a4 28bc 6ebd 163f
00000180: cdc5 c93f b7c6 99bd 4b43 b13e 7f09 bdbf
00000190: 1a47 7a3f 2853 bdbe 366b e03f 59d4 e93f
000001a0: c340 2a3e 2486 2dbf 60c4 be3e afe1 50bf
000001b0: e759 d5be a2b6 433c 7d1a 23bf 6e7f d6be
000001c0: 18b7 4ebf 0e32 953e 17ce 4a3f 5f5d adbf
000001d0: e0ef 113f 04f0 fb3d e628 19bd f471 f13f
000001e0: d566 373f 8558 b63d b80a ab3e 0947 81bf
000001f0: d1dc d03e 1467 63bd 183f 00c0 8dca a7bf
00000200: e54a b53f c6fd e0be 9ffa aebe fd0c da3d
00000210: c5d3 92bf cd9e 12bf 8710 72bf 7b81 2ebf
00000220: 122a a53e 1218 a43f ef70 0fbf 7823 073f
00000230: e9e0 d8be 9dea 5e3f ac46 643f 97b6 ad3f
00000240: 2746 0840 c2ea 58bb 4ecd 273f d22e cbbf
00000250: 68f9 de3e 02eb a0bf 908b b53f 5d61 293f
00000260: 54e5 28bf e660 a83f 0db9 8e3f 60f9 823e
00000270: c904 153f 4d25 45bf 41c6 c43f 634f 463d
00000280: a586 b93f 84ba bf3f 2c09 283f 719f 43bf
00000290: 0453 873f a8dd 343f ab7b db3e b582 823f
000002a0: 09d0 2e3f 31a9 0540 d2ff a13f 9f81 c0be
000002b0: f3d9 ae3e 30ae 8f3e 9112 ec3f 1077 f8bd
000002c0: c64c 01bd 4cf1 923f 3867 0e3f be3d c13f
000002d0: 02fe dabe 45bd 833e 213f 1fbe 5b9e c2be
000002e0: 73eb 26bf dcee b2be bc6d 0bbf 52a1 01bf
000002f0: 1be2 663e 3313 7fbf 3110 0040 4e94 ab3e
00000300: 2b18 233e 489f 88bf 2566 7dbe cf60 8d3d
00000310: a5a6 e63e 0209 09bf cc1d c2bf 95d5 0b3f
00000320: 1cb6 acbf dea4 69be 08b1 613f af4b 43bf
00000330: b2f2 8c3f d8d6 cdbf cf14 3c3f 6755 bebe
00000340: de1a 513f f0a1 5fbf 15df fd3d f71c 0dbf
00000350: 9b10 81bf 4e30 c2bd 0c05 0bbf 1e35 d13f
00000360: 0625 c1bf 5452 10bf 008f 373d 267a b2be
00000370: 475d 26bf dd99 273f a1d7 7cbe 9b1b ca3f
00000380: ee24 7b3e 7d6c a03e 4f5f 7b3f eaef 96bf
00000390: d883 04bf 22d5 a0be aaf6 e4be 56b3 93bf
000003a0: fde9 0abe 61e7 afbf a0a7 bfbd 30df afbe
000003b0: 7e55 c43e 23c5 ab3f e9b0 d33f 8c1f 3a3e
000003c0: 56ae 443d 0e94 bc3e 7362 873f 4e84 4d3f
000003d0: dbf9 e13e 154c 7cbe 2b1b e13f 5fdd 973d
000003e0: caa7 2f3f d660 ae3e faf5 0c40 75ba 6abf
000003f0: c00f 1abf 3963 9abf 1c72 8cbf e20d 8dbf

distance_expansion.means f4 [32]
0.021047328 0.083947614 0.08576212 0.086278 0.12513049 0.13583146 0.16638565 0.205932
0.2362327 0.26591104 0.28399497 0.32667905 0.36646804 0.39021438 0.42231625 0.43179846
0.48045865 0.5162806 0.5574721 0.5904651 0.6076964 0.63383394 0.6874518 0.7342744
0.7636406 0.78619564 0.9801952 0.93541545 0.98915356 0.99991983 0.99999994 1.0000006
00000000: 726b ac3c baec ab3d 0da4 af3d 85b2 b03d
00000010: 3522 003e 6717 0b3e 0061 2a3e d7df 523e
00000020: fce6 713e 7e25 883e ca67 913e 7a42 a73e
00000030: b3a1 bb3e 2eca c73e d639 d83e b014 dd3e
00000040: adfe f53e f72a 043f 7eb6 0e3f b928 173f
00000050: fe91 1b3f f142 223f d7fc 2f3f 68f9 3b3f
00000060: f37d 433f 1e44 493f 13ee 7a3f 6377 6f3f
00000070: 2b39 7d3f bffa 7f3f ffff 7f3f 0500 803f

distance_expansion.betas f4 [32]
259.54987 259.56754 259.60944 259.60846 259.46378 259.46222 259.40683 259.4049
259.42578 259.42694 259.42398 259.41803 259.4141 259.38876 259.41153 259.38434
259.41324 259.40903 259.4292 259.44464 259.4432 259.44534 259.46057 259.47806
259.47894 259.47913 259.37375 259.42307 259.416 259.4459 259.46844 259.48358
00000000: 62c6 8143 a5c8 8143 02ce 8143 e2cd 8143
00000010: 5dbb 8143 2abb 8143 13b4 8143 d4b3 8143
00000020: 80b6 8143 a6b6 8143 45b6 8143 82b5 8143
00000030: 01b5 8143 c3b1 8143 adb4 8143 32b1 8143
00000040: e5b4 8143 5bb4 8143 f0b6 8143 eab8 8143
00000050: bbb8 8143 01b9 8143 f4ba 8143 31bd 8143
00000060: 4ebd 8143 54bd 8143 d7af 8143 27b6 8143
00000070: 3fb5 8143 13b9 8143 f6bb 8143 e6bd 8143

pre_layers.0.weight f4 [64, 100]
-0.11091793 0.10634907 -0.053359855 -0.05395258 -0.061079837 -0.019325217 0.0189823 -0.10456204
-0.098398924 -0.014758503 0.12066628 -0.05532745 0.051325276 0.003560357 0.042948544 0.030791707
0.022777263 -0.07322628 0.04630312 0.054550312 0.014032384 -0.035199896 -0.062242664 -0.13098101
0.019740617 0.0038538934 -0.041047268 -0.0943145 -0.0035053054 -0.07508701 0.05156536 0.016773036
0.08453792 -0.0743301 0.0065305126 -0.031877153 0.11151876 0.017660078 -0.07392504 0.072042234
0.044120498 0.049140483 -0.024554133 0.009447334 0.0455446 0.018786348 -0.09301234 0.05912244
0.048736203 0.07310151 0.06438707 -0.040507164 0.069017045 0.06185235 -0.10127795 -0.1052308
0.023279814 -0.051584564 -0.077508874 -0.07600042 0.053003114 -0.042105433 0.042927478 -0.036452264
0.07155886 0.061077166 0.04370697 0.04019148 -0.005365702 0.04593369 -0.072600365 -0.0042751986
-0.03970396 0.02473701 0.08511936 0.0077890633 -0.07657512 0.080996014 -0.024999626 0.098820575
-0.0024900502 0.09337438 -0.02658616 0.09485708 -0.071012355 0.07787248 -0.011837181 0.06492802
0.09280829 0.040011343 -0.03989141 -0.037721157 -0.0543004 -0.067092754 -0.07258538 -0.09857763
0.09683335 0.026484143 0.08013219 0.02573091 0.05418141 -0.09531933 0.05471048 -0.032305673
-0.047224533 0.039715488 -0.022943312 0.012386984 -0.04529305 -0.054841567 0.0025698375 -0.019874424
0.007905639 -0.08085651 -0.055612046 0.049142104 0.065462716 0.0819627 -0.09592879 0.0029793016
-0.11268064 0.052168485 -0.07156653 0.051303227 -0.10655153 -0.03815822 -0.047081355 -0.089431815
0.012691993 -0.0910133 -0.022529168 -0.07103673 0.043026265 -0.036863714 -0.08356692 -0.050756022
0.04750105 0.07968129 -0.06779991 0.07952848 0.03369202 0.046961445 -0.03289101 0.0027318385
0.070218705 0.03753655 0.022193918 0.09926665 -0.005984459 -0.019228553 -0.08049677 0.08072999
-0.09815325 -0.06903438 -0.07732982 -0.05469336 -0.014581728 0.057630632 0.044712767 0.081477866
0.015275863 -0.001906751 0.002394889 0.10177114 0.03412263 0.08276552 0.09012808 0.03217709
-0.08071886 0.057660654 0.096991934 -0.10040778 0.090306826 0.042919282 -0.062031128 -0.016219933
0.06625465 -0.11262426 -0.059506174 0.09787191 0.087354116 0.018171348 -0.029608266 -0.06100288
-0.08047732 0.107680246 -0.026653066 0.049161147 0.019777672 -0.07447732 -0.06854438 -0.0663417
0.023580441 -0.06214002 -0.013512685 0.0016855919 -0.07582551 0.077047214 0.05050377 -0.09209046
-0.14260925 0.025726061 0.008324176 -0.03390013 0.07531352 0.03367231 0.062273327 -0.07745157
-0.030094374 -0.0111206565 -0.004695533 0.09076302 -0.042239886 -0.10216308 0.079521514 0.045770086
0.026066598 0.0511896 -0.018676342 0.05843496 0.046512946 0.05197921 -0.0073316004 -0.083065696
0.07272267 -0.0014637567 0.035421535 -0.06684639 0.019014187 -0.050782554 0.017460361 -0.0173504
-0.08750996 0.019490115 -0.052610323 0.07216824 -0.080611154 0.06842621 -0.088435456 -0.010933156
-0.079878874 0.008401969 0.01446368 0.04842287 -0.078962274 0.02139307 0.065826416 -0.06598813
-0.012086522 0.05134966 0.047290858 0.09607895 0.014689897 -0.085862994 -0.082050174 0.11030343
00000000: f128 e3bd 8bcd d93d dd8f 5abd 61fd 5cbd
00000010: da2e 7abd eb4f 9ebc c580 9b3c 9f24 d6bd
00000020: 6085 c9bd a6cd 71bc e21f f73d 099f 62bd
00000030: 743a 523d e154 693b d0ea 2f3d e43e fc3c
00000040: 6297 ba3c a9f7 95bd 57a8 3d3d 2670 5f3d
00000050: 16e8 653c c42d 10bd 2af2 7ebd e31f 06be
00000060: 13b7 a13c 9a91 7c3b 2e21 28bd f627 c1bd
00000070: 44b9 65bb 38c7 99bd 3336 533d 9b67 893c
00000080: 3822 ad3d 613a 98bd e9fd d53b 9e91 02bd
00000090: f363 e43d deab 903c 0366 97bd e18a 933d
000000a0: b2b7 343d 8847 493d c025 c9bc fec8 1a3c
000000b0: f98c 3a3d d4e5 993c 417d bebd 5f2a 723d
000000c0: 9d9f 473d 3fb6 953d 5edd 833d d7ea 25bd
000000d0: cf58 8d3d e458 7d3d d06a cfbd 3f83 d7bd
000000e0: 4fb5 be3c 564a 53bd f9bc 9ebd 1ca6 9bbd
000000f0: cb19 593d bf76 2cbd b9d4 2f3d f84e 15bd
00000100: 748d 923d 0d2c 7a3d 1406 333d d29f 243d
00000110: c5d2 afbb f724 3c3d 80af 94bd f716 8cbb
00000120: 9fa0 22bd 45a5 ca3c 0f53 ae3d 663b ff3b
00000130: 6bd3 9cbd 3de1 a53d 04cc ccbc 7162 ca3d
00000140: 1c30 23bb 113b bf3d 38cb d9bc 6e44 c23d
00000150: ed6e 91bd 9b7b 9f3d bcf0 41bc fbf8 843d
00000160: 4612 be3d efe2 233d 2d65 23bd 8081 1abd
00000170: 196a 5ebd ed67 89bd a5a7 94bd 12e3 c9bd
00000180: 9050 c63d 46f5 d83c 581c a43d a1c9 d23c
00000190: 54ed 5d3d c836 c3bd 1918 603d f452 04bd
000001a0: 836e 41bd b5ac 223d 9df3 bbbc c7f2 4a3c
000001b0: 3585 39bd 8da1 60bd b86a 283b b0cf a2bc
000001c0: a786 013c 1998 a5bd 75c9 63bd 3b49 493d
000001d0: 5111 863d 0fdc a73d 5076 c4bd 6340 433b
000001e0: 1bc5 e6bd 9fae 553d 7991 92bd 5523 523d
000001f0: b037 dabd cb4b 1cbd 61d8 40bd 0728 b7bd
00000200: 14f2 4f3c 2e65 babd 178f b8bc b57b 91bd
00000210: 4f3c 303d 68fe 16bd 2225 abbd 8ce5 4fbd
00000220: 7690 423d f22f a33d aeda 8abd d4df a23d
00000230: a500 0a3d a55a 403d b9b8 06bd a508 333b
00000240: d3ce 8f3d edbf 193d 05d0 b53c 504c cb3d
00000250: 4819 c4bb 3385 9dbc 7edb a4bd c455 a53d
00000260: 9204 c9bd e661 8dbd 195f 9ebd 2506 60bd
00000270: 33e8 6ebc 190e 6c3d bc24 373d dedd a63d
00000280: 9d47 7a3c f2eb f9ba 92f3 1c3b 636d d03d
00000290: 2cc4 0b3d f880 a93d 1295 b83d 20cc 033d
000002a0: ee4f a5bd 942d 6c3d b5a3 c63d 98a2 cdbd
000002b0: c9f2 b83d 21cc 2f3d 5a14 7ebd aadf 84bc
000002c0: 85b0 873d 8ca7 e6bd bfbc 73bd 1171 c83d
000002d0: b7e6 b23d 14dc 943c 098d f2bc 28de 79bd
000002e0: 4bd1 a4bd 7687 dc3d 8857 dabc 335d 493d
000002f0: c904 a23c 9187 98bd ff60 8cbd 28de 87bd
00000300: c52b c13c 8986 7ebd 4f64 5dbc 14ef dc3a
00000310: 684a 9bbd eeca 9d3d 0bdd 4e3d ec99 bcbd
00000320: 2908 12be 76bf d23c 2062 083c ddda 0abd
00000330: fa3d 9a3d faeb 093d 5112 7f3d ee9e 9ebd
00000340: 7a88 f6bc 6a33 36bc fcdc 99bb f6e1 b93d
00000350: bb03 2dbd e03a d1bd 2ddc a23d 6a79 3b3d
00000360: 9e89 d53c 30ac 513d 21ff 98bc 7f59 6f3d
00000370: 5c84 3e3d 27e8 543d ec3d f0bb 591e aabd
00000380: a0ef 943d 86db bfba 2c16 113d c3e6 88bd
00000390: a4c3 9b3c 5e01 50bd 0809 8f3c 6d22 8ebc
000003a0: 6c38 b3bd bca9 9f3c ec7d 57bd f1cc 933d
000003b0: 7617 a5bd 0a23 8c3d a61d b5bd fb20 33bc
000003c0: 8997 a3bd 6aa8 093c 12f9 6c3c 0f57 463d
000003d0: f9b6 a1bd 8540 af3c 00d0 863d c924 87bd
000003e0: 8c06 46bc 0554 523d 0fb4 413d 0ac5 c43d
000003f0: e5ad 703c f0d8 afbd ec09 a8bd c4e6 e13d

pre_layers.0.bias f4 [64]
0.05969381 -0.100410424 0.051504258 0.02556509 0.022773767 0.037041 -0.061814938 -0.05710425
-0.10350323 0.0060704737 0.088331014 -0.094866 0.037685286 0.055290237 0.03646143 -0.015132898
-0.06886323 0.05392539 0.010392414 0.08076999 -0.006984553 -0.0799986 0.045045488 0.049301017
0.07879562 0.07142917 0.026618183 0.08348147 0.030006343 0.03245111 0.034764662 0.07439084
0.09323352 0.056216147 0.0005494572 -0.07354038 0.06141142 -0.0250034 0.040481545 -0.03240616
0.03805872 -0.015101006 0.08042072 0.040817194 0.09681279 0.02105078 -0.062545635 0.047089446
0.023197742 0.03998356 -0.069592305 0.07179458 0.097118355 -0.0044746553 0.06579236 0.010313484
-0.06884805 0.052528642 0.06401864 -0.065108 0.055241656 0.06471639 0.08988817 0.0109866895
00000000: 7f81 743d fba3 cdbd 21f6 523d e16d d13c
00000010: 0d90 ba3c 4eb8 173d a931 7dbd 25e6 69bd
00000020: 80f9 d3bd d3ea c63b e4e6 b43d 1b49 c2bd
00000030: e35b 1a3d 0478 623d 9558 153d faef 77bc
00000040: 2a08 8dbd dfe0 5c3d f244 2a3c bd6a a53d
00000050: adde e4bb 4ed6 a3bd 9e81 383d ddef 493d
00000060: 995f a13d 7549 923d 600e da3c 55f8 aa3d
00000070: ddcf f53c 75eb 043d 6465 0e3d 3a5a 983d
00000080: 37f1 be3d e742 663d 7309 103a 579c 96bd
00000090: 8b8a 7b3d eed3 ccbc facf 253d 52bc 04bd
000000a0: 76e3 1b3d 366a 77bc 9eb3 a43d ee2f 273d
000000b0: c945 c63d af72 ac3c ed17 80bd dde0 403d
000000c0: 3109 be3c cdc5 233d 6986 8ebd 0909 933d
000000d0: fde5 c63d 21a0 92bb 25be 863d e3f9 283c
000000e0: 3500 8dbd 4628 573d 341c 833d 5857 85bd
000000f0: 1345 623d 078a 843d 4a17 b83d 8401 343c

post_layers.0.weight f4 [64, 64]
-0.0071352283 -0.051020544 0.09132969 -0.021650901 -0.110932395 0.04201478 -0.026399955 -0.004419507
0.11747624 -0.0065344446 -0.0064087096 -0.050477937 -0.06532674 -0.06231041 0.08697725 -0.07854856
-0.14068341 -0.017460462 0.04806345 0.13080506 -0.07532374 0.0821161 0.032607034 0.115740925
0.088304825 -0.047198072 0.0508725 0.019656705 0.03872518 0.12934503 -0.05070334 0.06559828
-0.07079735 0.09735157 -0.065008104 -0.049897693 -0.06671185 0.058152266 -0.034112483 -0.050224382
-0.05546637 -0.022322653 -0.04999618 -0.11747726 -0.07402547 -0.032590542 0.015399774 -0.036619015
-0.052252095 -0.069109 0.0804119 -0.0921436 0.12443178 0.10115725 -0.1364037 0.13020024
-0.07687124 -0.09652971 0.033738904 0.02561371 0.039831627 0.070216656 0.06034174 0.08371969
-0.11414903 0.074983194 -0.0060849297 0.15797584 -0.046997458 0.0499846 0.03202144 -0.064732656
0.12426059 0.045026727 0.13127315 0.055116374 0.07148169 0.056301225 -0.0054456103 -0.035541095
-0.071530245 0.10548488 -0.08224934 0.054986317 -0.016740914 0.04933043 -0.10865614 0.017134095
0.02350175 -0.086141504 0.03912119 -0.017456625 0.0024353678 -0.02853849 -4.8891878e-05 0.12788667
0.034037244 0.10316392 -0.058679428 0.11148648 0.12398239 0.039907813 -0.006194728 -0.109160505
-0.117000006 -0.0037633704 0.017133685 0.07284257 0.054741647 0.047532175 -0.02279315 0.050361797
0.012550362 0.10265023 0.031559262 0.107671395 0.057650473 -0.09466777 -0.015994461 0.117118426
-0.025366683 0.028234871 0.058097966 -0.0040374147 -0.08193811 0.12524498 0.06337146 0.1120678
-0.121710725 0.031943586 -0.010515476 -0.07243821 0.08276512 -0.12811814 -0.0034491315 0.037309438
-0.053762265 -0.07291269 0.08495708 -0.095385924 -0.13115601 0.1087751 -0.091939956 0.017409679
0.10980329 -0.055339318 -0.00097447046 0.028201658 -0.022434173 0.009197865 -0.13891004 -0.025419865
-0.0050693736 0.067230225 -0.025338382 0.017334493 -0.015244066 0.00190456 -0.097184695 -0.04673077
-0.07754307 0.12846674 0.12147588 0.00841312 0.031643987 0.08757887 -0.08958597 -0.037486944
-0.09024119 -0.12099906 0.058229808 0.041732218 0.02086004 0.07238937 0.042568013 -0.028176047
0.035408035 0.098414294 -0.033268176 -0.032100275 -0.048215695 -0.073397815 -0.023750596 -0.024561256
-0.016762698 -0.05122072 0.13028908 0.026108177 -0.044591665 0.08550633 -0.018770006 -0.095051855
0.016977496 -0.03370399 0.051246867 -0.017571112 0.009972688 -0.07176558 0.07702524 0.05246384
-0.029433345 -0.05127986 -0.054068904 0.031839073 -0.06645976 0.00011457106 -0.023597602 0.09335342
0.1404619 -0.089481816 -0.121349216 0.011679634 -0.0071600736 -0.11815853 -0.042587582 0.0042961007
-0.08293678 -0.08818293 -0.052932363 -0.08919862 0.07605343 -0.10867808 0.1263883 0.123680845
-0.006650869 -0.009705665 0.14043808 -0.054879483 -0.13268597 -0.0070272894 0.039576445 0.13896142
-0.005010817 -0.08886107 -0.06806179 0.13521619 0.041994262 -0.083866626 -0.03339885 0.036070712
-0.11040597 -0.089965925 -0.07105611 0.05540718 0.14920112 -0.11815419 0.06154319 -0.041721452
0.00020260242 0.10309825 -0.14928079 -0.11122775 0.025780976 -0.1289236 -0.01583074 0.08681329
00000000: a2ce e9bb ebfa 50bd 0f0b bb3d 3b5d b1bc
00000010: 8630 e3bd b117 2c3d b844 d8bc 83d1 90bb
00000020: 6297 f03d e51e d6bb 2700 d2bb f4c1 4ebd
00000030: 07ca 85bd 3339 7fbd 2121 b23d 11de a0bd
00000040: 500f 10be 3e09 8fbc 2ede 443d c3f1 053e
00000050: 5543 9abd 7c2c a83d f48e 053d 9409 ed3d
00000060: 29d9 b43d c452 41bd af5f 503d 1907 a13c
00000070: 4b9e 1e3d 0673 043e 4eae 4fbd 6458 863d
00000080: 33fe 90bd 4360 c73d f822 85bd 8661 4cbd
00000090: 39a0 88bd 1231 6e3d 88b9 0bbd 15b8 4dbd
000000a0: b430 63bd ffdd b6bc cbc8 4cbd eb97 f0bd
000000b0: aa9a 97bd a97d 05bd 554f 7c3c d2fd 15bd
000000c0: 4b06 56bd 0589 8dbd ffae a43d c9b5 bcbd
000000d0: 17d6 fe3d 882b cf3d 69ad 0bbe 3653 053e
000000e0: ab6e 9dbd 5eb1 c5bd ce31 0a3d d8d3 d13c
000000f0: 7d26 233d c0cd 8f3d e628 773d 3b75 ab3d
00000100: f7c6 e9bd ca90 993d 1764 c7bb 6bc4 213e
00000110: 6880 40bd a7bc 4c3d ea28 033d 8e92 84bd
00000120: 567c fe3d f26d 383d 786c 063e b5c1 613d
00000130: fe64 923d 1d9c 663d 1771 b2bb 8a93 11bd
00000140: 737e 92bd 7508 d83d 5872 a8bd 5539 613d
00000150: 3e24 89bc b40e 4a3d 1c87 debd cd5c 8c3c
00000160: be86 c03c f56a b0bd 8a3d 203d 3201 8fbc
00000170: b19a 1f3b 8dc9 e9bc 4111 4db8 b9f4 023e
00000180: a36a 0b3d 9b47 d33d d759 70bd 0653 e43d
00000190: 7bea fd3d 6076 233d 25fd cabb 8b8f dfbd
000001a0: b39d efbd e1a2 76bb f15b 8c3c 7c2e 953d
000001b0: c738 603d 19b1 423d b3b8 babc 2c48 4e3d
000001c0: 09a0 4d3c 493a d23d 4944 013d d282 dc3d
000001d0: e722 6c3d 2de1 c1bd d106 83bc c9db ef3d
000001e0: cacd cfbc d14c e73c 22f8 6d3d 4a4c 84bb
000001f0: 2bcf a7bd 3840 003e e5c8 813d cd83 e53d
00000200: 7943 f9bd 47d7 023d 1a49 2cbc 7c5a 94bd
00000210: c280 a93d 6731 03be d30a 62bb c8d1 183d
00000220: d235 5cbd 4053 95bd fafd ad3d b259 c3bd
00000230: c34d 06be 7bc5 de3d 044b bcbd be9e 8e3c
00000240: 8ce0 e03d 7bab 62bd 9b73 7fba 2a07 e73c
00000250: dfc7 b7bc a4b2 163c 6f3e 0ebe 523d d0bc
00000260: fd1c a6bb 00b0 893d 7092 cfbc 1101 8e3c
00000270: 3fc2 79bc 6ea2 f93a c508 c7bd c468 3fbd
00000280: e7ce 9ebd c98c 033e 59c8 f83d 2fd7 093c
00000290: 209d 013d 8d5c b33d d978 b7bd e98b 19bd
000002a0: 5fd0 b8bd 5bce f7bd 6182 6e3d 67ef 2a3d
000002b0: ade2 aa3c e140 943d cc5b 2e3d 74d1 e6bc
000002c0: 0408 113d 6f8d c93d 3644 08bd 947b 03bd
000002d0: d27d 45bd 9851 96bd 9c90 c2bc b034 c9bc
000002e0: ed51 89bc d1cc 51bd 806a 053e d1e0 d53c
000002f0: c0a5 36bd f11d af3d 8ec3 99bc 8caa c2bd
00000300: 6414 8b3c 320d 0abd 3ce8 513d 4bf1 8fbc
00000310: 7c64 233c d5f9 92bd 69bf 9d3d 53e4 563d
00000320: 331e f1bc d50a 52bd 5b77 5dbd b069 023d
00000330: 0e1c 88bd df45 f038 c24f c1bc 1430 bf3d
00000340: 3fd5 0f3e 3e42 b7bd f085 f8bd f05b 3f3c
00000350: 0d9f eabb 19fd f1bd 5170 2ebd 4ec6 8c3b
00000360: c2da a9bd 4199 b4bd 9bcf 58bd c4ad b6bd
00000370: e7c1 9b3d 9d92 debd ef6b 013e 624c fd3d
00000380: 88ef d9bb 8204 1fbc 00cf 0f3e 4fc9 60bd
00000390: d5de 07be 2d45 e6bb e91a 223d e74b 0e3e
000003a0: c831 a4bb cbfc b5bd fb63 8bbd 1d76 0a3e
000003b0: 2d02 2c3d 44c2 abbd 3ccd 08bd e2be 133d
000003c0: 861c e2bd 0e40 b8bd de85 91bd a4f2 623d
000003d0: 2ec8 183e d3fa f1bd b614 7c3d 1de4 2abd
000003e0: ac71 5439 2d25 d33d 10dd 18be 60cb e3bd
000003f0: a032 d33c 8c04 04be 78af 81bc 2bcb b13d

post_layers.0.bias f4 [64]
0.14569336 0.047577545 -0.029640215 0.10021446 0.055787098 0.05635085 0.030735837 0.116543815
0.13908195 0.025461333 -0.08663086 -0.05125807 0.0776923 -0.10325964 -0.12812796 0.08277513
-0.0017026165 -0.011282709 0.101521805 0.09720685 0.07718473 0.07260726 0.05060855 -0.06485789
0.055120412 0.024168076 -0.124547064 0.07748708 -0.1310166 0.0032028514 -0.097309366 0.022485426
0.07176666 -0.026312767 0.0735614 0.087537974 -0.07430241 0.052124694 -0.06433458 0.0692077
0.02371053 0.04866135 0.07218618 -0.042261276 0.029659929 -0.057163566 -0.017004643 0.057377893
0.081952915 0.08614511 -0.07120719 -0.016275011 0.0007055145 0.07804142 -0.028850174 -0.12259126
-0.09959346 0.12325171 -0.11101413 -0.10572712 0.03819533 -0.08251564 0.011339527 0.025976826
00000000: a430 153e ace0 423d 09d0 f2bc 3d3d cd3d
00000010: 0381 643d 26d0 663d b9c9 fb3c 86ae ee3d
00000020: 806b 0e3e 4994 d03c 856b b1bd fbf3 51bd
00000030: 241d 9f3d ca79 d3bd fa33 03be 0286 a93d
00000040: 542a dfba 1ddb 38bc aaea cf3d 6314 c73d
00000050: 0713 9e3d 1db3 943d e94a 4f3d 37d4 84bd
00000060: f1c5 613d 21fc c53c 8812 ffbd 8cb1 9e3d
00000070: 3729 06be eee6 513b 224a c7bd 5b33 b83c
00000080: 66fa 923d df8d d7bc 5ca7 963d 1c47 b33d
00000090: dd2b 98bd b480 553d d9c1 83bd c4bc 8d3d
000000a0: 963c c23c 2051 473d 59d6 933d 291a 2dbd
000000b0: 61f9 f23c 5824 6abd 524d 8bbc 1505 6b3d
000000c0: eed6 a73d d96c b03d 13d5 91bd 2c53 85bc
000000d0: 47f2 383a 2ed4 9f3d 3357 ecbc 2011 fbbd
000000e0: a8f7 cbbd 646b fc3d 605b e3bd 7687 d8bd
000000f0: b572 1c3d f6fd a8bd 6cc9 393c 5acd d43c

post_layers.1.weight f4 [64, 64]
0.029343884 0.107104614 0.10700718 -0.07758348 0.07401961 -0.015542939 0.05756801 0.0900824
-0.066808514 0.0160146 -0.04671881 -0.032228183 -0.013446273 -0.11959251 -0.093839556 -0.08729246
-0.09945384 -0.078086294 0.13506846 -0.07043663 -0.015716989 0.13151605 -0.10325302 -0.003485332
0.124639146 -0.07060112 0.037162274 -0.009945156 -0.031145532 0.019396726 0.112225 -0.041559365
-0.07717328 0.10365174 -0.082722746 -0.043809682 -0.12485086 0.004718484 -0.039670654 0.1392113
0.070093244 -0.07009294 -0.0060556605 -0.06285776 -0.22688818 -0.12903403 0.06292735 -0.005774071
0.11398351 0.1665634 -0.15518333 -0.029588236 -0.0685708 -0.13428433 -0.062381208 0.15167488
-0.029476833 0.03907252 -0.29148576 0.035866406 -0.18329567 -0.07606219 0.06336172 -0.10053154
0.059709307 -0.05665113 0.06270556 0.029829167 0.071028925 0.14518923 -0.029376034 -0.089836515
-0.10203534 -0.041666087 -0.0923113 0.014032814 -0.13626906 0.040195264 0.05373664 0.0228804
0.02698665 -0.0043960675 0.012296514 0.009120849 -0.06908313 -0.037774272 -0.06426721 -0.07359376
-0.06395222 -0.10284179 -0.08375454 0.046094026 -0.045597322 -0.018666502 0.12434096 0.1291469
-0.040688492 -0.073138565 -0.08840949 -0.09493733 0.010647161 0.1070715 -0.115006894 -0.06999108
0.15295532 0.08716128 -0.05715514 0.041134853 0.0025442757 0.1188616 -0.016373677 0.052642383
0.13670045 -0.03187574 -0.19451009 -0.004282106 0.12328282 0.028347297 0.022125069 0.038424313
0.09015567 0.00012390724 -0.058542468 0.04966086 0.03196835 0.051572952 0.15619047 0.08466251
-0.072945654 0.057655033 0.008380391 -0.08924053 -0.034489024 0.11849112 0.07143614 -0.107982464
0.09877463 0.004745824 0.12336826 -0.051343337 0.078742616 -0.09234536 -0.055673853 0.089408666
0.1119319 0.04227012 0.113577954 0.1183376 0.05199231 -0.061040904 -0.12022334 -0.0061292653
0.10927513 -0.14113761 0.0020514245 0.008737856 -0.076934814 0.06919042 -0.10280894 0.055853598
-0.06624463 0.0941022 0.08115178 0.116500445 0.13442518 0.021767024 -0.11702887 -0.06098916
0.13316905 -0.004245764 -0.10728932 -0.029370831 -0.11590166 -0.060519934 0.008347472 -0.07596136
-0.037629943 -0.10564846 0.017389398 0.1076705 0.016916264 0.08229246 -0.003942871 0.15869515
0.15586446 -0.016569505 0.12179793 -0.067593016 0.050821815 -0.13294269 -0.007238679 -0.07107353
-0.023389027 0.07545959 -0.084405586 0.08302593 -0.10612754 0.11667785 0.0092356205 0.102288514
0.12350061 0.13705075 0.059711944 0.0805761 0.122571 -0.06429922 -0.1561246 0.008408028
0.069731854 -0.084883675 0.065246195 -0.08670408 -0.03876801 -0.008876534 0.0075062034 -0.014781545
-0.09196338 0.07646591 -0.11182784 0.05131319 0.08421038 0.004413299 -0.07714089 -0.0046371147
0.12864985 0.11209429 0.0049119317 -0.03970539 -0.05324937 -0.023109071 0.047923207 0.026518634
-0.051835872 -0.029341253 0.08701994 -0.10569424 0.057709422 0.12436186 -0.0710417 0.12287455
-0.06905182 -0.07905299 -0.011484988 -0.08941532 0.16377191 0.014015054 0.119323164 0.011288831
0.102282874 -0.0024848015 0.0827268 -0.029226933 -0.0165866 -0.15000561 -0.04994905 0.021632176
00000000: 9662 f03c aa59 db3d 9526 db3d 16e4 9ebd
00000010: 9897 973d d0a7 7ebc 6fcc 6b3d 1f7d b83d
00000020: e7d2 88bd 0d31 833c 395c 3fbd b301 04bd
00000030: c24d 5cbc ebec f4bd f42e c0bd 64c6 b2bd
00000040: 74ae cbbd b5eb 9fbd 634f 0a3e 1441 90bd
00000050: eac0 80bc 25ac 063e 5276 d3bd 2b6a 64bb
00000060: cf42 ff3d 5297 90bd 7837 183d 02f1 22bc
00000070: ea24 ffbc e2e5 9e3c 39d6 e53d 273a 2abd
00000080: 060d 9ebd 5d47 d43d 8b6a a9bd c871 33bd
00000090: cfb1 ffbd 839d 9a3b b27d 22bd 688d 0e3e
000000a0: 0c8d 8f3d e38c 8fbd 906e c6bb 92bb 80bd
000000b0: 6055 68be 7f21 04be 0ee0 803d 6b34 bdbb
000000c0: 3070 e93d 998f 2a3e 61e8 1ebe 0763 f2bc
000000d0: d96e 8cbd d581 09be 7083 7fbd a950 1b3e
000000e0: 6679 f1bc 820a 203d 9f3d 95be a7e8 123d
000000f0: dcb1 3bbe 7ec6 9bbd cac3 813d 7be3 cdbd
00000100: bf91 743d 040b 68bd c66b 803d 4c5c f43c
00000110: 9d77 913d 7cac 143e 02a6 f0bc 35fc b7bd
00000120: e8f7 d0bd 0faa 2abd b50d bdbd e3e9 653c
00000130: 1e8a 0bbe caa3 243d f31a 5c3d ad6f bb3c
00000140: 1b13 dd3c e30c 90bb 5177 493c 9d6f 153c
00000150: 757b 8dbd 32b9 1abd 879e 83bd 53b8 96bd
00000160: 62f9 82bd b79e d2bd 8087 abbd 17cd 3c3d
00000170: 42c4 3abd 7eea 98bc 79a6 fe3d 163f 043e
00000180: faa8 26bd acc9 95bd 0910 b5bd 816e c2bd
00000190: 6e71 2e3c 4d48 db3d bc88 ebbd 7c57 8fbd
000001a0: 52a0 1c3e 9d81 b23d 821b 6abd 057d 283d
000001b0: ddbd 263b b66d f33d 1722 86bc 8a9f 573d
000001c0: 34fb 0b3e 2390 02bd a72d 47be e950 8cbb
000001d0: b47b fc3d 9738 e83c a23f b53c d062 1d3d
000001e0: 89a3 b83d 19ed 0139 3aca 6fbd 3069 4b3d
000001f0: 3ff1 023d 293e 533d 65f0 1f3e 8a63 ad3d
00000200: 8864 95bd af27 6c3d e84d 093c bdc3 b6bd
00000210: 5d44 0dbd 79ab f23d 1c4d 923d e925 ddbd
00000220: 5a4a ca3d db82 9b3b 80a8 fc3d 644d 52bd
00000230: cf43 a13d 901f bdbd 440a 64bd e41b b73d
00000240: 8d3c e53d 6f23 2d3d 8f9b e83d fc5a f23d
00000250: e3f5 543d 0706 7abd a837 f6bd 01d8 c8bb
00000260: a4cb df3d 6186 10be 3171 063b 3929 0f3c
00000270: 0090 9dbd b5b3 8d3d 7e8d d2bd bec6 643d
00000280: 44ab 87bd a7b8 c03d e832 a63d c997 ee3d
00000290: c1a6 093e c250 b23c d5ac efbd c5cf 79bd
000002a0: 785d 083e 0d20 8bbb 81ba dbbd 199b f0bc
000002b0: d95d edbd c0e3 77bd d6c3 083c a191 9bbd
000002c0: db21 1abd 385e d8bd 3674 8e3c 5a82 dc3d
000002d0: fa93 8a3c f388 a83d 3333 81bb fb80 223e
000002e0: ef9a 1f3e c5bc 87bc 3171 f93d 356e 8abd
000002f0: 892a 503d 2122 08be 7132 edbb 008f 91bd
00000300: 589a bfbc 8f8a 9a3d d6dc acbd 8009 aa3d
00000310: 6559 d9bd ccf4 ee3d 0051 173c a47c d13d
00000320: e3ed fc3d 0857 0c3e 8394 743d 1505 a53d
00000330: 8106 fb3d 4faf 83bd 21df 1fbe d3c1 093c
00000340: 93cf 8e3d 7ed7 adbd cc9f 853d e991 b1bd
00000350: 34cb 1ebd e26e 11bc 99f6 f53b 4b2e 72bc
00000360: 4c57 bcbd 299a 9c3d ff05 e5bd c82d 523d
00000370: 7e76 ac3d 6f9d 903b 0bfc 9dbd f0f2 97bb
00000380: c9bc 033e b191 e53d 45f4 a03b 1ea2 22bd
00000390: 031c 5abd 3c4f bdbc 204b 443d 9b3d d93c
000003a0: da51 54bd 115d f0bc 8337 b23d 3976 d8bd
000003b0: b760 6c3d 6eb1 fe3d 507e 91bd a7a5 fb3d
000003c0: 0a6b 8dbd 89e6 a1bd 882b 3cbc 611f b7bd
000003d0: d3b3 273e 669f 653c b45f f43d caf4 383c
000003e0: af79 d13d 0dd8 22bb ab6c a93d 526d efbc
000003f0: 9fe0 87bc 129b 19be 6097 4cbd f635 b13c

post_layers.1.bias f4 [64]
0.008027752 -0.066280454 -0.014014209 -0.029189017 0.11036966 -0.06294575 -0.060997345 0.08306658
0.049058426 0.027125323 0.036662597 0.02806311 -0.08011392 0.002444182 0.15080413 -0.10135645
0.039236072 0.07900509 -0.055076305 -0.011974412 -0.044803407 -0.026128104 0.071191885 0.11294174
0.0067971856 -0.08895262 -0.04712356 -0.013099936 -0.11459689 -0.105080925 0.1296412 0.05849475
0.12466918 0.08291274 0.016953921 0.0781667 -0.057308454 0.08095533 0.03214874 0.001648462
-0.015442432 0.14861752 -0.06771531 0.09022543 -0.050044287 0.020393569 -0.037217915 0.14423701
0.0071546477 -0.05178165 0.05929698 0.025468491 0.0440728 -0.06436108 0.08763104 -0.06843025
-0.10720061 0.07380377 0.058070783 0.048091024 -0.12402345 -0.07386254 -0.08241605 -0.08718814
00000000: d586 033c 0cbe 87bd da9b 65bc ce1d efbc
00000010: 7d09 e23d b4e9 80bd 5ad8 79bd d01e aa3d
00000020: 7df1 483d ed35 de3c 852b 163d 9be4 e53c
00000030: c412 a4bd 922e 203b 666c 1a3e f893 cfbd
00000040: 01b6 203d 6ccd a13d b197 61bd 5330 44bc
00000050: c783 37bd 9b0a d6bc 0dcd 913d 004e e73d
00000060: edba de3b cb2c b6bd a204 41bd 1da1 56bc
00000070: c6b1 eabd ab34 d7bd aac0 043e 3198 6f3d
00000080: 8e52 ff3d 28ce a93d f3e2 8a3c dd15 a03d
00000090: 45bc 6abd e8cb a53d 66ae 033d 3511 d83a
000000a0: 4102 7dbc 312f 183e 53ae 8abd 1cc8 b83d
000000b0: 3dfb 4cbd 6a10 a73c d071 18bd deb2 133e
000000c0: 8971 ea3b ff18 54bd 64e1 723d 4ca3 d03c
000000d0: ae85 343d becf 83bd e777 b33d 2925 8cbd
000000e0: fe8b dbbd 6e26 973d a1db 6d3d 18fb 443d
000000f0: 0200 febd 3e45 97bd bfc9 a8bd b28f b2bd

post_layers.2.weight f4 [64, 64]
-0.0969743 -0.10214777 -0.11095597 -0.086914234 -0.11941554 0.07101999 -0.0035044553 -0.03165732
-0.05290229 0.016338386 0.03567463 -0.010656714 0.119786784 -0.124762505 -0.04863523 -0.041518763
-0.114542656 -0.03234735 0.04064047 0.04527959 0.046319637 -0.04186988 0.10025119 -0.11232456
-0.11983162 -0.038701586 -0.04847757 0.047814026 0.009658492 -0.09321125 -0.11728886 0.11850256
-0.103963815 -0.09531289 0.0015611202 -0.1103971 0.11344108 -0.029863298 -0.08666834 -0.115918696
-0.11282703 0.042932298 0.056916103 0.06967185 -0.10500916 -0.09287831 -0.00036615133 -0.04286018
-0.041701794 0.086276345 0.06379246 -0.10176575 -0.093646094 0.11662821 -0.12820658 0.08654959
-0.022520691 -0.01250807 0.06372398 -0.09680328 -0.09686859 0.07140872 0.09157397 0.051684562
-0.008562361 0.1521428 -0.0831283 -0.09174359 -0.025756588 -0.10629628 -0.078045204 -0.04885298
0.012237178 -0.11798378 0.071763605 0.022523282 0.05566267 -0.16729365 -0.115546465 0.054817937
-0.07394861 -0.057035614 0.0659589 -0.06904184 0.11555718 -0.044326972 0.046920747 -0.0652626
-0.05882751 -0.082295835 0.008247528 0.04272998 -0.055257987 0.11125888 0.07514189 -0.09655963
0.008795573 0.020966692 0.15326233 -0.04012729 -0.022441283 0.012604152 0.019209146 0.013223207
-0.11703908 0.059974555 -0.0060872566 -0.09472735 0.19137676 0.047690608 -0.052572507 0.062032793
-0.044803694 0.053797394 -0.07413125 0.123258635 0.00743536 -0.12039251 0.13648467 0.022323646
0.059932552 -0.06360721 -0.07729954 0.03267048 0.0914422 0.065362535 -0.019147888 0.17593543
0.09950894 0.0628188 -0.0806483 0.006357256 -0.011031499 -0.08480708 0.049709663 -0.08690295
-0.027574623 -0.04669005 0.08273978 0.09133269 0.026961014 0.030438611 0.011736601 0.098583505
0.09638927 -0.020418819 -0.06660418 0.03869902 0.06948612 0.0034212817 -0.1077113 -0.09895335
0.092013314 -0.001876823 -0.048833504 -0.061637953 0.094218396 -0.07429567 0.025387729 0.09590735
-0.07020757 -0.040413078 0.012683568 -0.015887309 0.031214671 0.05413693 -0.10301482 -0.030652337
0.07863259 -0.052626073 0.024118057 0.0125815645 -0.09269942 0.021677198 -0.0023713703 -0.020927735
-0.07551105 0.06744775 -0.0739926 0.006622619 -0.1297957 -0.06803934 -0.0037316915 -0.010743898
0.08435857 -0.029493727 -0.11626913 0.06467143 -0.025545895 -0.03853187 0.012705726 -0.10420652
0.028883107 -0.08305231 -0.1204741 0.09918167 0.009918279 -0.0545437 -0.1114311 -0.042549517
0.020055348 0.093890816 0.08180603 0.0760623 -0.096188545 0.05970012 0.08183837 0.07492655
0.06633945 -0.06599125 0.14192459 -0.12703896 0.055961758 -0.079694755 0.0212525 -0.02819476
-0.12013321 0.037196424 -0.08780614 -0.14883924 -0.102860995 0.08558744 0.090509795 -0.024362542
0.05382875 -0.01951368 -0.07783553 -0.11966541 -0.015285329 0.109053895 -0.0811356 -0.02259557
-0.06882167 -0.15636101 -0.037661735 0.08548863 -0.007984798 -0.09183168 -0.035859223 0.11428174
0.09550597 -0.035895694 0.037370358 -0.019720256 -0.066527575 0.057195555 -0.13536824 0.084224395
-0.060609784 -0.14944257 0.055376254 0.009541718 0.12264402 0.07874913 0.027687889 -0.065412916
00000000: 769a c6bd da32 d1bd e23c e3bd 1700 b2bd
00000010: 2290 f4bd ee72 913d 01ab 65bb 1bab 01bd
00000020: 12b0 58bd 14d8 853c 901f 123d 8099 2ebc
00000030: c652 f53d 7c83 ffbd bc35 47bd 940f 2abd
00000040: 5795 eabd a87e 04bd 9f76 263d 1777 393d
00000050: a9b9 3d3d c07f 2bbd 7f50 cd3d 6b0a e6bd
00000060: 486a f5bd 8e85 1ebd 6b90 46bd a4d8 433d
00000070: a73e 1e3c 8ae5 bebd 2435 f0bd 78b1 f23d
00000080: fbea d4bd 6833 c3bd 809e cc3a e017 e2bd
00000090: cc53 e83d e0a3 f4bc 2c7f b1bd c866 edbd
000000a0: dc11 e7bd c7d9 2f3d dc20 693d 1db0 8e3d
000000b0: 0b0f d7bd fc36 bebd 00f8 bfb9 288e 2fbd
000000c0: 80cf 2abd a7b1 b03d 9fa5 823d 906a d0bd
000000d0: 86c9 bfbd c5da ee3d 9648 03be e940 b13d
000000e0: 507d b8bc a6ee 4cbc b881 823d cc40 c6bd
000000f0: 0a63 c6bd bc3e 923d 228b bb3d 31b3 533d
00000100: 2549 0cbc 52cb 1b3e 2c3f aabd 10e4 bbbd
00000110: 7bff d2bc ddb1 d9bd 2ad6 9fbd 101a 48bd
00000120: 727e 483c 7ba1 f1bd ccf8 923d bf82 b83c
00000130: 8afe 633d 074f 2bbe a0a3 ecbd c688 603d
00000140: 5e72 97bd 2d9e 69bd 7615 873d cf65 8dbd
00000150: 3ea9 ec3d 3390 35bd f82f 403d 66a8 85bd
00000160: 1df5 70bd b88a a8bd a420 073c a205 2f3d
00000170: 3356 62bd b2db e33d fee3 993d 0ec1 c5bd
00000180: 4f1b 103c 57c2 ab3c cdf0 1c3e 835c 24bd
00000190: c8d6 b7bc a581 4e3c 805c 9d3c 26a6 583c
000001a0: 2fb2 efbd e1a7 753d 9c77 c7bb 6a00 c2bd
000001b0: 45f8 433e 3a57 433d 4556 57bd 1916 7e3d
000001c0: 1484 37bd a85a 5c3d 20d2 97bd 066f fc3d
000001d0: 52a4 f33b 5990 f6bd a3c2 0b3e 14e0 b63c
000001e0: d67b 753d 7f44 82bd 394f 9ebd 7bd1 053d
000001f0: 0c46 bb3d cbdc 853d 08dc 9cbc 6b28 343e
00000200: 58cb cb3d 25a7 803d f02a a5bd 8750 d03b
00000210: 76bd 34bc 56af adbd 5c9c 4b3d 2dfa b1bd
00000220: 2de4 e1bc 113e 3fbd 7973 a93d a20c bb3d
00000230: 58dd dc3c 655a f93c df4a 403c 26e6 c93d
00000240: bd67 c53d 5e45 a7bc c667 88bd dd82 1e3d
00000250: bd4e 8e3d 9537 603b be97 dcbd 0ea8 cabd
00000260: 7a71 bc3d bbff f5ba a405 48bd 1478 7cbd
00000270: 93f5 c03d 5428 98bd edf9 cf3c 136b c43d
00000280: fdc8 8fbd 2f88 25bd bdce 4f3c 1a26 82bc
00000290: e9b5 ff3c afbe 5d3d 6ff9 d2bd 9c1a fbbc
000002a0: 200a a13d 708e 57bd 3b93 c53c e822 4e3c
000002b0: 32d9 bdbd 6194 b13c fe68 1bbb a470 abbc
000002c0: 8aa5 9abd 0c22 8a3d 6f89 97bd 8e02 d93b
000002d0: 2ae9 04be 3658 8bbd 658f 74bb 2d07 30bc
000002e0: 30c4 ac3d d49c f1bc 821e eebd 7472 843d
000002f0: a045 d1bc 98d3 1dbd ad2b 503c 3a6a d5bd
00000300: 449c ec3c 5417 aabd 20bb f6bd c21f cb3d
00000310: 4780 223c 3769 5fbd fd35 e4bd 6748 2ebd
00000320: 1d4b a43c d449 c03d eb89 a73d 8dc6 9b3d
00000330: 80fe c4bd 1d88 743d e09a a73d 1773 993d
00000340: fadc 873d 6c26 87bd ae54 113e 8016 02be
00000350: 2838 653d 0137 a3bd b919 ae3c b3f8 e6bc
00000360: 6708 f6bd 475b 183d b5d3 b3bd 5069 18be
00000370: c9a8 d2bd 7848 af3d 335d b93d f493 c7bc
00000380: 897b 5c3d 27db 9fbc 3c68 9fbd 2313 f5bd
00000390: 516f 7abc a657 df3d 6c2a a6bd 581a b9bc
000003a0: 60f2 8cbd 1a1d 20be 3143 1abd aa14 af3d
000003b0: acd2 02bc 3f12 bcbd 1fe1 12bd 8b0c ea3d
000003c0: a298 c33d 5d07 13bd a911 193d 608c a1bc
000003d0: 9c3f 88bd e345 6a3d f99d 0abe d77d ac3d
000003e0: f741 78bd 7907 19be 36d2 623d de54 1c3c
000003f0: ca2c fb3d 3947 a13d b6d1 e23c 35f7 85bd

post_layers.2.bias f4 [64]
-0.011844428 -0.09634503 -0.09501947 -0.08863225 0.07963679 0.08415964 0.13287455 -0.12071278
0.07349713 0.037051525 0.021418314 -0.01987084 0.099336356 0.034210023 0.03419024 -0.057162553
0.08010508 -0.021596383 0.10285783 -0.079494335 0.103839315 0.10389925 0.008371608 0.025176767
-0.08617273 0.026985615 -0.14245808 -0.050800428 -0.042961113 0.09732261 -0.10462907 0.060141213
-0.03539195 0.09980739 -0.01475504 0.12487286 0.13377877 0.032225177 0.0029676137 -0.082802825
-0.023062972 -0.060956202 0.04177261 0.098518364 0.09520765 -0.06891482 0.10883858 0.11515329
-0.03144607 0.10943295 -0.12336005 0.06521749 0.046782 0.06470127 0.08860526 0.029419048
0.004929285 0.07462079 -0.03380576 -0.049696676 0.060636908 0.041070703 -0.045561194 0.088226534
00000000: 220f 42bc 8b50 c5bd 9199 c2bd d384 b5bd
00000010: 9d18 a33d e45b ac3d 4410 083e 4338 f7bd
00000020: aa85 963d 57c3 173d 7675 af3c 2cc8 a2bc
00000030: dc70 cb3d cf1f 0c3d 110b 0c3d 4823 6abd
00000040: 220e a43d e6ea b0bc 20a7 d23d edcd a2bd
00000050: b5a9 d43d 21c9 d43d 1229 093c 823f ce3c
00000060: 547b b0bd f010 dd3c 88e0 11be 1c14 50bd
00000070: fef7 2fbd 1451 c73d c447 d6bd a256 763d
00000080: 26f7 10bd d167 cc3d 20bf 71bc 58bd ff3d
00000090: 4dfd 083e 8cfe 033d 4c7c 423b 8794 a9bd
000000a0: 8fee bcbc 36ad 79bd c219 2b3d ffc3 c93d
000000b0: 3afc c23d 3723 8dbd c3e6 de3d 7dd5 eb3d
000000c0: 98cd 00bd 621e e03d 32a4 fcbd bf90 853d
000000d0: 7c9e 3f3d 1982 843d ad76 b53d 3700 f13c
000000e0: d785 a13b c9d2 983d e977 0abd be8e 4bbd
000000f0: 685e 783d c139 283d 609e 3abd 1db0 b43d

output_layer.weight f4 [1, 64]
-0.04346441 -0.14444304 0.10279505 -0.20414433 0.085579894 -0.14382792 0.13552916 0.13692221
-0.14663632 -0.05106112 0.045124527 0.11378517 0.034541484 0.11487712 -0.10516824 0.14510638
0.11615695 0.104691 0.041169222 0.1319606 -0.08507299 0.09045201 -0.14783297 -0.13635767
-0.24977458 -0.23804288 -0.04635132 0.10975243 -0.1359752 -0.10393437 0.20747744 -0.1744937
-0.13275036 -0.1573164 0.10019195 0.09254282 0.1177774 0.07065982 0.11756648 0.0995401
0.07551867 -0.34050056 0.10724651 -0.103669316 -0.01985818 -0.027177207 -0.13516279 0.0734169
-0.11272632 -0.14031772 -0.069705546 0.08049065 -0.15731852 0.037551645 0.016583858 -0.10622206
0.07240505 0.088460594 -0.1905723 0.018975588 0.12955849 -0.108682804 -0.17278717 0.07918694
00000000: bd07 32bd e0e8 13be 3686 d23d 360b 51be
00000010: 8344 af3d a047 13be 28c8 0a3e 5635 0c3e
00000020: d527 16be 7725 51bd 7fd4 383d 3308 e93d
00000030: 5f7b 0d3d b244 eb3d 7262 d7bd c496 143e
00000040: b2e3 ed3d 3c68 d63d 0fa1 283d ae20 073e
00000050: bf3a aebd e73e b93d 8761 17be 58a1 0bbe
00000060: e8c4 7fbe 83c1 73be e2da 3dbd e2c5 e03d
00000070: 153d 0bbe 8bdb d4bd f774 543e 7aae 32be
00000080: b6ef 07be 8d17 21be 7031 cd3d 1787 bd3d
00000090: 4735 f13d 19b6 903d b2c6 f03d aedb cb3d
000000a0: 88a9 9a3d 1756 aebe 0fa4 db3d 9450 d4bd
000000b0: 9fad a2bc bca2 debc 1d68 0abe 9a5b 963d
000000c0: 0fdd e6bd 73af 0fbe c8c1 8ebd 48d8 a43d
000000d0: 1b18 21be c1cf 193d dfda 873c f48a d9bd
000000e0: 1949 943d d42a b53d 6325 43be b172 9b3c
000000f0: fbaa 043e 1795 debd 1fef 30be c32c a23d

gc_layers.0.lin_f.weight f4 [64, 160]
0.038683012 0.014977453 0.06270376 -0.07003297 0.08091042 -0.08295199 -0.052102897 -0.098615244
-0.039465714 -0.058241673 -0.04046766 0.03922227 0.04503295 -0.054368638 -0.009718278 0.004199529
-0.056648117 -0.059007183 -0.01554858 0.07257328 0.037480466 -0.007718139 0.06451638 0.046667483
-0.05687311 -0.009628449 0.06592092 0.023140777 0.006152421 -0.019540258 -0.057279073 0.022054553
-0.060001798 0.065063395 0.0029910821 0.03623094 0.051541757 0.08484292 0.063266814 0.037358027
-0.037157126 -0.004966582 -0.057010856 0.08666484 -0.033076588 -0.04214588 0.044466406 -0.0279327
-0.05118604 0.053122975 0.00033509248 0.069384575 -0.013157999 0.016758645 0.018937793 -0.005847804
-0.03139353 -0.017184196 0.075180575 0.07001937 0.026778664 0.02547466 0.016585745 -0.055956546
-0.0522785 -0.057493154 0.036255673 -0.051210593 0.033636365 0.064896494 0.02929696 -0.030286036
-0.04063837 0.013994058 0.07160689 0.04569336 -0.052271683 -0.053849105 -0.003918388 -0.015603805
-0.07890672 -0.06277549 0.031673167 -0.06399882 -0.044809695 -0.008660347 -0.046904184 -0.061240535
0.051261112 0.0063158004 -0.038072243 -0.006519028 0.011020203 -0.10995987 -0.018813921 -0.097388774
0.022366151 0.06690896 0.024986293 -0.0844271 -0.066752106 -0.0781499 -0.04718633 -0.014570696
0.006514606 0.07479884 0.03817978 0.08221777 -0.055708513 -0.02503194 -0.0018256557 -0.0019486165
-0.009877722 -0.069526665 0.027439132 -0.057620052 -0.07781092 -0.013720305 0.018115303 0.029128544
-0.049962033 0.013126254 -0.028692247 0.018149337 0.06464236 -0.085025914 -0.055517342 -0.06815318
-0.11631132 0.006448073 -0.11706254 -0.10423547 -0.053586937 -0.06870369 0.0041714716 0.108018205
0.08222891 0.015755087 -0.019602407 0.062378593 -0.027245568 -0.06829125 0.02179472 -0.031258203
0.013585693 0.0071721342 -0.01018927 0.063301735 0.022468533 -0.0077486527 0.0903016 0.051819056
-0.022903081 0.037219983 0.031554777 0.05972226 -0.021744197 0.054982457 0.049521994 -0.02963228
-0.020326883 0.05149711 0.035190377 0.06599985 -0.037838656 0.0054180757 0.08273665 0.07284789
0.04912883 0.06994487 -0.051468816 0.020780189 0.014720013 0.06119514 -0.04922415 0.028361589
-0.0049251905 -0.047443938 -0.05405783 0.011032252 0.0793337 0.083935134 -0.0067601977 -0.044426996
0.018395696 -0.000495007 -0.0605066 -0.024905784 0.010649236 -0.022321004 0.06737236 0.022503152
0.044323266 -0.06229939 -0.068045 0.058929767 0.017779032 -0.020478932 -0.04347037 -0.09599253
-0.0007637463 -0.0028467632 -0.07704603 -0.045799572 -0.050688203 0.013699203 0.070270926 0.036984112
-0.017338296 0.041030876 -0.07806352 -0.0195609 0.053914364 -0.075307846 0.029899916 0.06770285
0.031718478 0.040788103 0.080992535 0.040360436 0.008380257 -0.048766926 -0.06786656 0.045619734
0.016371556 -0.016323278 -0.069176294 0.060433287 -0.01359459 0.038044292 0.040430926 -0.043536156
-0.068064556 0.041059516 0.057176404 0.06326429 -0.054837584 -0.041790362 0.059703104 0.021965545
-0.08513043 -0.035400175 0.050724402 0.05344013 0.062952206 -0.02277692 0.045274317 -0.010377523
-0.039945435 0.01603358 0.0007756607 0.029623572 -0.039954185 0.00038516446 0.053238083 -0.01600475
00000000: 1472 1e3d fe63 753c d46a 803d 726d 8fbd
00000010: 5db4 a53d bce2 a9bd d969 55bd caf6 c9bd
00000020: cda6 21bd d28e 6ebd 6bc1 25bd 88a7 203d
00000030: 7874 383d a6b1 5ebd 6a39 1fbc 349c 893b
00000040: db07 68bd 84b1 71bd 79bf 7ebc 4da1 943d
00000050: 1e85 193d 71e8 fcbb 2a21 843d 6726 3f3d
00000060: c7f3 68bd a4c0 1dbc 8c01 873d ba91 bd3c
00000070: 3f9a c93b e412 a0bc 769d 6abd c0ab b43c
00000080: 72c4 75bd f53f 853d 0806 443b e566 143d
00000090: 731d 533d 20c2 ad3d 0892 813d bb04 193d
000000a0: 1232 18bd b6be a2bb 3784 69bd 567d b13d
000000b0: 517b 07bd 29a1 2cbd 6822 363d 1ed3 e4bc
000000c0: 74a8 51bd 7a97 593d 5aaf af39 8019 8e3d
000000d0: a694 57bc 6d49 893c 6e23 9b3c ef9e bfbb
000000e0: 8196 00bd dfc5 8cbc 46f8 993d 5166 8f3d
000000f0: ee5e db3c 3cb0 d03c d4de 873c b132 65bd
00000100: fb21 56bd f17d 6bbd d480 143d 33c2 51bd
00000110: 49c6 093d 74e8 843d 2e00 f03c 6c1a f8bc
00000120: 6b74 26bd 5547 653c a2a6 923d f628 3b3d
00000130: d51a 56bd e190 5cbd d265 80bb 1aa7 7fbc
00000140: d999 a1bd 7090 80bd b9bb 013d d011 83bd
00000150: 5f8a 37bd 21e4 0dbc 9a1e 40bd 5bd7 7abd
00000160: 2cf7 513d c6f4 ce3b a4f1 1bbd 929d d5bb
00000170: 158e 343c a432 e1bd a71f 9abc c473 c7bd
00000180: 3839 b73c 9107 893d 0eb0 cc3c 1ee8 acbd
00000190: 54b5 88bd 0e0d a0bd 7446 41bd eeb9 6ebc
000001a0: 7a78 d53b 2230 993d 6762 1c3d ca61 a83d
000001b0: 9c2e 64bd c80f cdbc d74a efba b868 ffba
000001c0: 2bd6 21bc ff63 8ebd 08c8 e03c 0103 6cbd
000001d0: 555b 9fbd 21cb 60bc 8b66 943c fc9e ee3c
000001e0: fda4 4cbd 800f 573c 010c ebbc ebad 943c
000001f0: 3763 843d 1122 aebd 2766 63bd e593 8bbd
00000200: a134 eebd 5b4a d33b 7cbe efbd 6879 d5bd
00000210: fa7d 5bbd 85b4 8cbd d7b0 883b a638 dd3d
00000220: a167 a83d d010 813c 3a95 a0bc b280 7f3d
00000230: 1932 dfbc 48dc 8bbd d78a b23c 9a08 00bd
00000240: 8796 5e3c 3904 eb3b e5f0 26bc 57a4 813d
00000250: ee0f b83c 69e8 fdbb 0cf0 b83d 3840 543d
00000260: 3e9f bbbc fb73 183d 953f 013d 549f 743d
00000270: e320 b2bc 4935 613d 93d7 4a3d 65bf f2bc
00000280: 9084 a6bc a2ee 523d c923 103d ee2a 873d
00000290: b5fc 1abd 1d8a b13b d571 a93d 4631 953d
000002a0: 503b 493d 423f 8f3d f7d0 52bd 373b aa3c
000002b0: 362c 713c c1a7 7a3d 439f 49bd 9056 e83c
000002c0: 7e63 a1bb 9354 42bd be6b 5dbd 9ec0 343c
000002d0: b579 a23d 2fe6 ab3d a684 ddbb 15f9 35bd
000002e0: 92b2 963c 5cc3 01ba c5d5 77bd 3707 ccbc
000002f0: 227a 2e3c 8ada b6bc 85fa 893d 8858 b83c
00000300: 508c 353d a52d 7fbd 2d5b 8bbd 5760 713d
00000310: 55a5 913c 6fc3 a7bc fd0d 32bd bb97 c4bd
00000320: 2636 48ba c390 3abb 4fca 9dbd 5598 3bbd
00000330: 6f9e 4fbd 9f72 603c 34ea 8f3d a77c 173d
00000340: 0b09 8ebc fe0f 283d c4df 9fbd 2e3e a0bc
00000350: 4fd5 5c3d 003b 9abd abf0 f43c cba7 8a3d
00000360: 3ceb 013d 6d11 273d 6adf a53d fc50 253d
00000370: 584d 093c d4bf 47bd 9ffd 8abd c2db 3a3d
00000380: a41d 863c 65b8 85bc 4dac 8dbd e588 773d
00000390: d8bb 5ebc 55d4 1b3d e69a 253d f852 32bd
000003a0: 6e65 8bbd 062e 283d ce31 6a3d b590 813d
000003b0: 609d 60bd 5f2c 2bbd 3e8b 743d 16f1 b33c
000003c0: dd58 aebd c6ff 10bd 64c4 4f3d 0ae4 5a3d
000003d0: 16ed 803d aa96 babc 9071 393d 7c06 2abc
000003e0: d39d 23bd db58 833c b555 4b3a 22ad f23c
000003f0: 00a7 23bd e6ef c939 2d10 5a3d 651c 83bc

gc_layers.0.lin_f.bias f4 [64]
-0.06461105 -0.048864312 0.06831522 -0.0651885 -0.03041437 -0.042540632 0.07886908 0.040974688
0.0011238048 -0.02340586 -0.003942221 0.07104825 0.031502612 -0.015251104 0.007959404 0.05796727
0.058651756 -0.10046622 0.105264224 -0.0152699705 0.10244176 -0.09732513 0.037175003 0.05750448
0.069805555 0.036893252 0.05724341 0.036275618 -0.06432161 -0.084210746 0.014708984 0.044679325
0.053888287 0.029953727 0.03425431 0.045590665 -0.034343213 -0.046719227 -0.062102843 0.043183677
-0.019966943 -0.000921679 -0.012927091 -0.068042316 -0.062278636 0.02359201 0.01917931 -0.07908149
0.06564953 0.03083447 0.038324084 -0.07024469 0.0450748 0.0077435556 0.023950176 -0.029961228
0.02702766 -0.069822095 0.0393743 0.03574528 0.07989095 -0.008086799 -0.07715163 -0.048573624
00000000: cc52 84bd f225 48bd dae8 8b3d 8c81 85bd
00000010: 8f27 f9bc 163f 2ebd 1d86 a13d 13d5 273d
00000020: a24c 933a a5bd bfbc bf2d 81bb bf81 913d
00000030: e208 013d c4df 79bc 2968 023c 176f 6d3d
00000040: d33c 703d 3cc1 cdbd c594 d73d e62e 7abc
00000050: fccc d13d 6652 c7bd d144 183d d189 6b3d
00000060: 37f6 8e3d 611d 173d 1178 6a3d be95 143d
00000070: 0cbb 83bd af76 acbd f3fd 703c ab01 373d
00000080: f7b9 5c3d 8561 f53c 3f4e 0c3d 47bd 3a3d
00000090: 78ab 0cbd a95c 3fbd 8d5f 7ebd 5ee1 303d
000000a0: b791 a3bc d59c 71ba 26cc 53bc c559 8bbd
000000b0: e217 7fbd 0844 c13c ee1d 9d3c 7af5 a1bd
000000c0: 4373 863d 9298 fc3c b7f9 1c3d 73dc 8fbd
000000d0: 5aa0 383d a7bd fd3b 2933 c43c 4071 f5bc
000000e0: 1c69 dd3c e3fe 8ebd f246 213d a569 123d
000000f0: de9d a33d 7e7e 04bc ac01 9ebd 23f5 46bd
