saved_models/2023-04-18_23-05-57/model.pth (torch, 465682 bytes, 44 tensors)

type_embedding.weight f4 [100, 100]
00000000: 0f4c 0e3f b33f 323f 2c05 1e3f 9e72 e4be
00000010: 8fea 9e3d 1fa4 b0be c1bb 1f3f 6cc6 ae3f
00000020: 7fc5 1940 713d 6d3f e6b3 21c0 3515 0440
00000030: c718 633d 9d09 5f3f fa6e 563e 94e7 c53d
00000040: de2f 8d3e c9d8 fd3d fdba 603f 530f 43bf
00000050: d498 383f 00dd 8b3f 7468 04bf 0fe0 923e
00000060: 8049 8b3e f0fc 13be 5ee1 d73f 8738 813f
00000070: dc4d 0bbf 8a5f f2be e33b 1cc0 df28 0e3e
00000080: b9cc 1540 94cf debd 50f8 9e3f 111a d43e
00000090: 0fb4 0bbd 796c 63be b968 383f 234f 63bf
000000a0: 8f2f 46bf 1796 b93f 61b2 7abf 357e ac3d
000000b0: 7fbf 1f40 57f4 c23f 5554 143f 0a91 56bf
000000c0: c0b0 f9be 8427 c1be 72e4 99bd f418 b2bf
000000d0: bc5a e4bf 45eb 4f3f a56f cf3e 6308 e6bd
000000e0: bf69 0abf b4c3 34bf 9162 69bf 288a 0e3f
000000f0: 0f23 a93f f6ed 9d3f bbc5 a33f 50e7 413e
00000100: ee54 c8be 594b 0f3f 4041 c7be b772 cabf
00000110: fd9b 433e 4a78 653f d31f b53e 5f42 703e
00000120: 598a 73bf f19a 1cbe 8e5e 663f 18f3 14bf
00000130: 9b5e b63e eab5 2d3f ea67 00c0 d8c1 e83f
00000140: 73c8 163f ac9a a2bf f58a 5b3f c7f4 bcbf
00000150: 696e a63d 10f9 58bf 2a72 e63f 7942 7a3f
00000160: d2e3 32be c469 b3be c3db 59bf 69b5 d03f
00000170: b2bf 413f 9cc2 8ebf 95bd 18bf c539 babf
00000180: 22c5 38bf be7b 3dbe 7b14 c3bf 3f26 ab3f
00000190: 7595 debf fe28 36bf 7caa 843d f386 f6bf
000001a0: a0f3 603f bd69 97bf a1ac dbbf bb11 3fbf
000001b0: 9cfb 653f f2ce 583f 6e35 bd3d eb86 fbbe
000001c0: 0726 143e f229 c83f 7be4 e5bf 89e0 673e
000001d0: bd6d fb3e 4d14 43be 4a0b c73e ec1d e93e
000001e0: e91c fc3f f19a c6be 35f4 81bf 41f9 97bf
000001f0: 8370 e7bc 4ac0 693f 6a80 62bf a3b9 4c3f
00000200: b6e7 6cbd 26b7 25bf a1cc 2dbd 0dd8 9ebe
00000210: 19e9 acbe 7584 683f 04f9 49bf 1b43 91be
00000220: ce17 78bf 4407 9dbe 2c45 a7bf df71 8d3f
00000230: 1e37 32be 8f94 72bf 472a efbe 3cf3 493f
00000240: 9afc e0be cfcc adbf b21f 403e c68a 85bf
00000250: 16b7 7c3f 8d4e 6cbf fc5b 30be 9212 1c3f
00000260: 51af 73bf 6931 9c3f 9bc9 3b3f 7eee b73e
00000270: 4ac7 5440 6cb3 983f 044c c0bf bd63 51bf
00000280: 1cff 953f f9e6 97bd d4de 473f 06e2 5bbf
00000290: 8902 343d 2246 c5be 99c6 94be 5e01 003f
000002a0: 2534 f33e d3dd f8be a5d2 103f d1e0 71bf
000002b0: 79ae e53e c1c7 96be 7278 fa3e 5cdb 9ebf
000002c0: 3581 ccbc 4667 c33d c1ac 4cbe c6ba 31be
000002d0: d32d 07bf 6d4c 95bf c1a4 393f b778 98bf
000002e0: cb18 bc3d 69c3 4abe 0d45 81bc 63e0 363f
000002f0: 3a74 1640 55bf 65bf 396d 96bd 6ac5 1bbd
00000300: f2d4 853e d4b5 93bf 372f e63e fe17 083e
00000310: da64 2dbf db3d f5bf 7190 f63e d8a9 67bf
00000320: ee76 ad3d 0359 5b3e c747 bebd f168 a13f
00000330: eaeb 143f 70a3 dfbf 470e 1cbf db86 f9bf
00000340: 4d3d 34bf cd64 82be 741f 52bf d7b7 9c3f
00000350: 34e1 efbe 44d4 34bf 2090 8b3e 79dd 593f
00000360: d7ab d33e d5ea 21bf cfc7 c43e 28fd 9e3e
00000370: d71f f6be 00b8 023f d910 d13e 6a39 f8be
00000380: f5fd c03e 8164 713d 29c5 66bf aa3f 943f
00000390: 1c30 0040 b6f7 5c3f 6a4c 34bf bf39 a53d
000003a0: 323b 0d3d 3807 203e 9dd1 d83d cd8f debe
000003b0: 5ae0 15bf 3d35 b63d 78cc 1fbf 39a7 8c3e
000003c0: c48d 9cbf 622d 95bf 992e 803b 6e44 473f
000003d0: 2db3 193f 2f27 8a3f c8cd ecbf 1cd3 d13e
000003e0: c12f bdbf be7d c1bd 0e40 923f e7a3 d3bf
000003f0: 163e 3c3f 5c1e e7be 5b7e c83f a579 81bf
0.55584806 0.6962845 0.6172664 -0.44618696 0.07759582 -0.34500214 0.62395865 1.3654304
2.4026792 0.9267188 -2.5266051 2.0637944 0.05544355 0.87124044 0.20940772 0.09663311
0.27575582 0.12394864 0.8778532 -0.7619526 0.721082 1.0926819 -0.5172188 0.28686568
0.27204514 -0.14451957 1.6865652 1.0095376 -0.5441568 -0.47338516 -2.4411552 0.13882779
2.3406203 -0.10879436 1.2419529 0.41426137 -0.034107264 -0.22209348 0.72034794 -0.8879263
-0.7741632 1.4498929 -0.97928435 0.084225096 2.496063 1.5230817 0.5794118 -0.8381506
-0.48767662 -0.3772546 -0.075142756 -1.3913865 -1.784019 0.8121837 0.40514866 -0.112320684
-0.54067606 -0.7061112 -0.91166025 0.5567956 1.3213824 1.2338245 1.2794718 0.18935895
-0.39127296 0.55974346 -0.3891697 -1.5816258 0.19102474 0.8963667 0.35375842 0.23462819
-0.95132977 -0.1529348 0.8998803 -0.5818343 0.35619053 0.67855704 -2.0063424 1.8184156
0.5889961 -1.2703452 0.85758907 -1.47622 0.08126528 -0.8475504 1.800359 0.9775768
-0.17469719 -0.3504163 -0.85100955 1.6305362 0.7568313 -1.115314 -0.5966428 -1.454888
-0.721758 -0.18504235 -1.5240625 1.3371047 -1.7389361 -0.711563 0.0647783 -1.9259933
0.8787174 -1.1829144 -1.7162057 -0.7463643 0.8983705 0.84690773 0.092387065 -0.49126372
0.14467631 1.5637801 -1.7960352 0.22644247 0.4910716 -0.19050713 0.388758 0.4553064
1.9696323 -0.38790086 -1.0152651 -1.1872941 -0.028251892 0.91309035 -0.88477194 0.7997076
-0.057838164 -0.6473259 -0.042431477 -0.3102421 -0.3377159 0.90827113 -0.7889559 -0.2837151
-0.96911323 -0.30669606 -1.3067985 1.1050376 -0.17403838 -0.9475793 -0.46711943 0.7888677
-0.4394272 -1.3578128 0.18762091 -1.0432975 0.98716867 -0.9230736 -0.17222589 0.60965836
-0.95189387 1.2202579 0.733545 0.35924143 3.3246636 1.1929755 -1.5023198 -0.81792814
1.1718478 -0.074171014 0.78074384 -0.8589176 0.04394773 -0.3853007 -0.29057768 0.50002086
0.4750072 -0.48606738 0.5657142 -0.9448367 0.44859675 -0.29449275 0.48920017 -1.2410693
-0.024963954 0.09541182 -0.19987775 -0.17356405 -0.528043 -1.1663948 0.7251702 -1.1911839
0.091844164 -0.19801106 -0.015779996 0.71436137 2.350844 -0.89745075 -0.07345051 -0.038030066
0.26139027 -1.1539865 0.44957897 0.13290402 -0.6773201 -1.9159502 0.48157075 -0.90493536
0.0846995 0.21420674 -0.09291034 1.261015 0.58172476 -1.7471752 -0.60959285 -1.949428
-0.7040604 -0.2546753 -0.82079244 1.2243603 -0.46851504 -0.7063639 0.27258396 0.85103565
0.4134204 -0.6324895 0.38433692 0.31052518 -0.48071167 0.5106201 0.40833166 -0.48481303
0.37693754 0.05893374 -0.9014459 1.1581929 2.0029364 0.86315477 -0.704291 0.08067655
0.03448028 0.15627754 0.105868556 -0.43469086 -0.5854546 0.08896873 -0.6242137 0.2747133
-1.2230763 -1.1654475 0.003911805 0.7783879 0.60039026 1.0793208 -1.85003 0.40981376
-1.4780198 -0.094478115 1.1425798 -1.6534394 0.73532236 -0.4514035 1.5663561 -1.0115248

distance_expansion.means f4 [32]
00000000: de75 903d f078 633d 5ece ca3d 8135 df3d
00000010: 4bd5 df3d d45e 143e 71fc 363e e4f8 663e
00000020: 2c4b 743e ebb7 843e 94cc 933e 13d1 a23e
00000030: 6e15 b83e 82ef c43e dac8 d03e d471 d93e
00000040: 4351 f63e 7585 fe3e ba5f 0b3f cbc7 0e3f
00000050: 0cea 263f c45b 313f 47e0 373f 3265 3c3f
00000060: fc86 463f 127c 4e3f 7a71 6f3f ac9c 713f
00000070: 2996 703f 9528 7d3f c4c8 7f3f 0e00 803f
0.070537314 0.055535257 0.09902643 0.10898877 0.10929354 0.14489299 0.17869736 0.22555882
0.23856801 0.25921568 0.28867018 0.31800136 0.3595385 0.3846398 0.40778238 0.42469656
0.48108873 0.49711195 0.5444294 0.5577361 0.6520088 0.6928065 0.71826595 0.7359191
0.7754972 0.80658066 0.93532526 0.9437969 0.93979126 0.9889005 0.9991572 1.0000017

distance_expansion.betas f4 [32]
00000000: dbbc 8143 3cbc 8143 5bc4 8143 ccc3 8143
00000010: 7bc3 8143 2dbd 8143 c6bb 8143 27bb 8143
00000020: 41ba 8143 13b8 8143 d0b8 8143 89b8 8143
00000030: 93b9 8143 ccb7 8143 9fb7 8143 b9b6 8143
00000040: 27ba 8143 3bb9 8143 e8bc 8143 cbbc 8143
00000050: b9bd 8143 38be 8143 2cbe 8143 27be 8143
00000060: 15be 8143 15be 8143 5bb5 8143 25b6 8143
00000070: 00ba 8143 05b9 8143 debb 8143 febd 8143
259.47543 259.47058 259.53403 259.52966 259.5272 259.47794 259.46698 259.46213
259.4551 259.43808 259.44385 259.44168 259.4498 259.4359 259.43454 259.42752
259.4543 259.4471 259.47583 259.47495 259.4822 259.48608 259.48572 259.48557
259.48502 259.48502 259.41684 259.423 259.45312 259.44547 259.4677 259.4843

pre_layers.0.weight f4 [64, 100]
00000000: 8454 83bd 83c9 b9bd 025c 043c 6964 623d
00000010: 1831 b03d f229 95bd 2e4c a4bc ed64 f73d
00000020: 2090 d03c 1e31 82bd 57a2 a5bd ed12 343d
00000030: 67a4 c0bd 093d a83d 4873 9dbd 2e7b 0f3d
00000040: 6458 3a3d 16b3 c4bd 7cfd 303d 0ee8 02bd
00000050: 3ac1 16bb da94 7f3d 6bc5 c83c 610c b2bd
00000060: 640e 09bd f8bb ffbb 37c9 2c3c 92be 61bd
00000070: 8f92 6fbc fae6 d53d 7a30 dc3c 959a ab3d
00000080: 9be1 babd bad3 c33d 9403 633d 5392 a1bd
00000090: 184f 3abd 5330 44bd 0327 d43d c53d 6f3d
000000a0: 1e58 6ebd 1601 0abb 9898 9e3d a175 b7bd
000000b0: 8b4f 0d3d d4cc f73c 1c2d 8f3d fc6b 8e3d
000000c0: a7cf a2bd fa33 6fbd 1ea7 42bd e7db 80bd
000000d0: fc3b a63c c547 e83c cc4f 11bd d3d8 51bd
000000e0: afa7 a03d 9798 93bd 14af adbd 2a09 dfbc
000000f0: 46d4 48bd 0e1b 8c3d 706a b63d abf1 aa3b
00000100: 74ff e0bc 660a 38bd 8a39 213d 95c5 94bc
00000110: 62b8 283d 7ebe 8d3d 0f33 e0bd 95fe aa3d
00000120: 5c87 d3bc 9a10 66bd db19 95bd 591c cf3d
00000130: 7973 7f3d a89f cbbd 65b1 a5bc 796c cd3d
00000140: ac2e be3d e147 c3bb 5f6c c83d fd4f fcbc
00000150: 4399 1dbd e5f8 a33d 6191 9d3d ad06 6b3b
00000160: 6724 8b3d 2384 66bc 13ce 763d 844a eb3c
00000170: 914c bdbd 9b64 80bd 41c0 913d 4f84 e0bc
00000180: 0fcc 063c 6f5d 983d aa01 af3c 2be3 c8bd
00000190: 66ad aa3b 362d 81bd e63d 403d 14a8 d53c
000001a0: fa4e 9ebc e15c a7bb bd1f 0fbd d29c 23bb
000001b0: 99e9 10bd d9f2 9ebd 7f1b 91bd cf0a 2d3c
000001c0: 287f 6f3c 04ae a73d cec4 ecbc 6ccc 94bd
000001d0: 25b9 643d faa3 00b9 8bd4 943d 1852 013c
000001e0: 43f8 05bc d2f0 2a3d 27d8 93bd fc1b bfbd
000001f0: aa28 1b3d 6340 fb3c 12ee 693d 9bce 87bd
00000200: fbab ca3d abb9 70bd 3767 4b3d 61b2 b2bd
00000210: 6bcb 55bc 7bae be3d 63b5 aa3d 5f97 81bc
00000220: 63e0 4ebd 17f5 153d 03b8 9c3b df37 a7bd
00000230: 0766 cfbd 4553 983d db81 b53c 0eee a63c
00000240: ff81 a3bd 0884 3b3c fae0 bb3c 9cfc b13b
00000250: 32f0 47bd 00ee 82bd 6861 cb3c b8b8 9b3d
00000260: e403 f83b 291e 9f3d b5be e3bc cb96 993c
00000270: 783e 47bd a73b d33d 6376 553d ccec 953b
00000280: 862c b4bd 86c1 cfbc 4506 a13d 2998 6fbd
00000290: 2919 37bc 7b45 93bd 7c22 873d fa0e 80bd
000002a0: 37ac c2bd 4e20 45bd 2e7e 91bd 93e8 8ebd
000002b0: 8ff9 b4bd 2a1e f13a 658c 3f3d 510c 4dbd
000002c0: 9680 84bd 8eae b3bd b897 bb3c b5be b13c
000002d0: 6d98 3fbd b1a6 253d 39f9 91bd f672 38bd
000002e0: 1f6b c13d f0c3 553d 123a 563b 2635 803d
000002f0: 0299 b6bd c229 06bc ec3f f73d f692 8bbd
00000300: 35ba 2e3c 8250 963d 04ae f4bc df63 2ebd
00000310: 4dfb 77ba 4afe 46bb 7ef1 833d 5e63 5ebd
00000320: f624 423d 44bc 2a3d dbcb a03c f18d 9c3c
00000330: b567 6d3d 22e3 193c e546 9d3c 9746 7f3d
00000340: 33da 323d 5ce3 893d 5417 82bd 6c76 2fbd
00000350: 8a62 42bb de2a a5bc 0bac cd3c d8a1 2cbd
00000360: 37d7 20bd 9ca9 7c3d 312e cbbc 4fe4 5fbc
00000370: 7e9e d93c 8761 41bd a75b ce3c 06ba a1bd
00000380: 4d0b 86bd 9108 4d3d 762b 27bd 08c3 16bd
00000390: 5cc7 6a3d 5ebb 97bd 3a1d 823d 26d5 4ebb
000003a0: 10b7 cdbd fa6d 623d 6e41 35ba 7274 a9bd
000003b0: b8e4 863d 7923 bcbd 8064 a2bd 976a ef3b
000003c0: 3449 aa3d bcf8 193d 8622 a4bd 210b 2cbc
000003d0: 58df 36bd bdbb 793d 207a 56bc 6882 543c
000003e0: eaa9 0fbc 8ea5 b43c 1964 a73d a1fa 103d
000003f0: 9467 873d 50f0 84bd d258 1e3d e8ab cd3d
-0.064126045 -0.090716384 0.008078577 0.05527154 0.08603114 -0.07283391 -0.020055857 0.12079797
0.02545935 -0.063570246 -0.080876045 0.04396336 -0.09406357 0.082147665 -0.07688004 0.035029583
0.045494452 -0.096044704 0.04321049 -0.031959586 -0.0023003356 0.062397815 0.024508199 -0.08693767
-0.03346099 -0.00780439 0.01054602 -0.055113383 -0.014622345 0.10444446 0.026878584 0.083790936
-0.09125062 0.09561868 0.055423334 -0.07889237 -0.045485586 -0.047897648 0.103590034 0.058408517
-0.058189504 -0.0021057776 0.07743949 -0.08957983 0.034499686 0.030249037 0.06991026 0.0695419
-0.07949763 -0.058399178 -0.047522657 -0.06291943 0.020292275 0.028354535 -0.03547649 -0.05123217
0.07844483 -0.072068386 -0.08480659 -0.02722605 -0.049030565 0.06841098 0.0890702 0.0052167973
-0.02746556 -0.04493179 0.039361514 -0.01816062 0.041191466 0.06921099 -0.10947239 0.08349339
-0.02582138 -0.056168176 -0.07280322 0.10112829 0.062365983 -0.099425614 -0.02022619 0.10030455
0.09286246 -0.0059594964 0.09786295 -0.03079986 -0.03847624 0.08006457 0.076937445 0.0035862133
0.067940526 -0.01406959 0.06025512 0.028722055 -0.092431195 -0.06269189 0.07116748 -0.02740684
0.008227362 0.07439696 0.021363098 -0.09808954 0.005208659 -0.063074514 0.04693403 0.026081122
-0.019324768 -0.0051075076 -0.034942377 -0.0024965298 -0.035379026 -0.07761163 -0.070853226 0.010561659
0.014617719 0.08187488 -0.028902438 -0.07265553 0.05584063 -0.00012268117 0.07267102 0.007893108
-0.008176866 0.04173357 -0.07218962 -0.093315095 0.037880577 0.03067035 0.057111807 -0.06631204
0.09896084 -0.058770817 0.04965898 -0.08725429 -0.013048987 0.09310623 0.08335378 -0.01581925
-0.05050696 0.03661069 0.004782678 -0.081649534 -0.10126882 0.074377574 0.022156646 0.020377185
-0.07983779 0.011445053 0.022934426 0.0054317247 -0.048813052 -0.06393051 0.02482672 0.07603592
0.007568823 0.077694245 -0.027800897 0.018748662 -0.04864356 0.10314112 0.052114855 0.0045753475
-0.08797555 -0.025360834 0.07862524 -0.05849472 -0.011175432 -0.07190987 0.06598374 -0.062528566
-0.095055036 -0.04812651 -0.07104145 -0.06977954 -0.08836662 0.001839583 0.04676475 -0.050060574
-0.06469838 -0.08773528 0.022899494 0.021697382 -0.046776224 0.040442172 -0.071276136 -0.04503151
0.0944426 0.052188814 0.0032688421 0.06260137 -0.08915903 -0.008188667 0.12072739 -0.0681514
0.010664512 0.073395744 -0.029868133 -0.042575713 -0.0009459749 -0.003036397 0.06442545 -0.054293983
0.04739853 0.04168345 0.019628456 0.019110652 0.05796023 0.009392532 0.019198844 0.06232318
0.043665122 0.067328185 -0.06352106 -0.042837545 -0.0029660785 -0.020162042 0.02510645 -0.042146534
-0.039267745 0.06168519 -0.0248023 -0.013665273 0.026564833 -0.04721215 0.025190188 -0.07896809
-0.06545124 0.050056998 -0.040812932 -0.03680709 0.05731903 -0.07408784 0.06353231 -0.0031560152
-0.10044682 0.055280663 -0.0006914352 -0.08274163 0.065865934 -0.09186453 -0.07929325 0.0073064077
0.08314744 0.037590727 -0.08014397 -0.0105007 -0.04464659 0.060970057 -0.01309064 0.012970544
-0.008768538 0.022051599 0.08173389 0.03539527 0.06611553 -0.064911485 0.038658924 0.10042554

pre_layers.0.bias f4 [64]
00000000: b646 0d3c f182 883d aab6 bb3d 9ec6 bc3c
00000010: 1e6c 82bd fe12 843d 0761 b13d b8e9 d53d
00000020: 8b43 ca3c 0063 a43c d2ff c6bc 5103 86bd
00000030: 3913 273d 27ae c1bb 6385 06bd 9a63 033d
00000040: de5c e0bd 37f8 7cbd 643e b6bc 859f 6abb
00000050: 9d7b b3bd 0237 9f3c f439 52bd b59e af3d
00000060: 552b 993d c2b4 183d b3bd 043b 60ec 9abc
00000070: 320f 1fbd 34e5 893c ae0e 58bd 750c 863d
00000080: 49d8 39bd 9b22 ef3c 30a6 99bb 1b79 283d
00000090: 4d8f a83d 8821 323d 3546 923d f553 533d
000000a0: b21b 483d 1131 cf3d f3e1 923d b055 8bbc
000000b0: 60db 86bc 508c 22bd 4cf8 313d 294c be3d
000000c0: ac84 233d 21d7 a8bd aeab ebbd 41aa 9c3d
000000d0: a8be 87bd 8c89 a73c ce5b b3bc 2eef 1bbd
000000e0: ea15 8e3d eaa9 08bc 7969 a13d 9da1 a33d
000000f0: 42c6 0c3c 2152 a43d 0c71 e3bd 1996 d2bd
0.008622816 0.066656 0.091657 0.023043927 -0.06368278 0.06448935 0.086610846 0.10444969
0.02469041 0.020066738 -0.024291907 -0.06543601 0.040789817 -0.005910653 -0.03284205 0.03207741
-0.10955213 -0.061760154 -0.022246547 -0.0035800647 -0.08763812 0.01943541 -0.0513248 0.08575193
0.07478968 0.03728176 0.002025467 -0.01891154 -0.03883285 0.016832925 -0.052748375 0.06545345
-0.04537228 0.029191306 -0.0046890005 0.04113112 0.082304575 0.04348901 0.07142297 0.05159374
0.048854537 0.101167805 0.07172003 -0.017008632 -0.016462028 -0.039684594 0.043449685 0.0929187
0.039921448 -0.082441576 -0.11507355 0.07649661 -0.06628162 0.02045133 -0.021894362 -0.038069896
0.069377735 -0.008341292 0.078814454 0.0798981 0.00859219 0.08023477 -0.11105546 -0.10282535

post_layers.0.weight f4 [64, 64]
00000000: a46e 99bd d672 333c 4e28 a33d 4c16 f2bd
00000010: 0202 6abc 1b5a ffbc 9b6a dcbc 4153 a8bd
00000020: d07e ebbd adb8 63bd 864f c03c 013c b33b
00000030: 22ea 013d 4792 733d 0184 c7bd 5699 20bd
00000040: da02 f8bd 65b4 a63d 908c 923d dc51 0abe
00000050: f069 07be 00f1 5f3c 1b22 9dbd ad99 ac3d
00000060: 27f7 833b e5af ab3d f2e3 99bd 4323 4abc
00000070: ab42 013e 3f14 51bd 5440 823d 0df9 fe3d
00000080: 4fb9 d53d 8e4e b4bd 5eb8 c6bd 343d 2ebd
00000090: 0e8d 65bc 2b6c 643d d59a 06be 0aa9 6ebd
000000a0: 6b1a fb3d 9412 c8bc d073 afbd 9471 953d
000000b0: 07bc 583d 5bd6 d63b 23c0 c03d 55e7 093e
000000c0: 5358 94bd 7cde bf3d 6d78 94bd 93d4 ca3c
000000d0: b4df cdbb b31e c03d 328f c8bd 9acf 933c
000000e0: 5476 873d db33 a43d ef4d b23d 42fa 803d
000000f0: 3748 82bd a1a2 d5bd 47b3 f4bd 24a1 73bd
00000100: 3123 893d 7c48 a6bd ed6c 94bd 6e76 033e
00000110: 099e 92bd 9080 6d3d 6aab 3abd dbdc c13c
00000120: 0642 da3d 7301 ec3d 9403 753d ad4a b23d
00000130: f6d1 f6bd a0f7 b1bb 27f3 343d d276 a83c
00000140: 5f21 f13d 24ba e0bc 66d8 4a3d 4730 413d
00000150: 588a 003e 06fb 2c3b 43f0 9dbd 3804 50bc
00000160: a77b e8bd b0d3 e7bd 6235 acbd d3ca 023d
00000170: 623e bc3d f98d b53d 2bec d53d 2e4f dd3d
00000180: 3902 da3d 1a68 9e3c 387f 55bd b2f3 bebd
00000190: f220 033d 9163 2abe dc66 b6bd 6bd8 b83d
000001a0: 5cf5 c8bc 72d0 fabd 52ec 2d3d be85 053d
000001b0: 436e 003d 4e55 29bd 0a61 b93d ab16 d6bd
000001c0: 304b ad3d af48 e7bd c0b6 30bd cbf7 07be
000001d0: 9cce 453d cb1f cb3d d2a0 65bd 8b14 3bbc
000001e0: 481a b43b b6f6 7d3d f973 fdbb 682e 1ebc
000001f0: 4ba3 813b 55bb 953d bd95 84bd 0272 3c3d
00000200: 21b9 d13d e7b9 b53c 24e5 fd3d 32f3 b9bc
00000210: 6db2 9b3d dd1e e63d 9aec 31bd 13ce bb3d
00000220: 1dcf 943a 4c6d 4e3d ca5b 7d3a 4ec9 c23b
00000230: 2ee2 2abd cb5e c0bd 0574 5ebc d4ca 4f3d
00000240: 2f2e 063e de13 f13c 0c7e 67bc c76d 933d
00000250: 7fab e63d dbe0 0dbe 7f88 afbd 5aab a83d
00000260: 1529 3d3d 4493 c0bd c372 093d 260e a2bd
00000270: e622 e93c ff99 d0bd 7a90 06be d649 123a
00000280: 49cd b73d dbee b3bd f5cc 8c3d 6c2b 283c
00000290: f21e 593d b8b0 e7bd f006 d6bb 1631 f0bd
000002a0: fe11 f9bd 46eb 0ebe a0f4 aebc 719f 3cbd
000002b0: c72a a3bc 6f51 54bd 7e1d 873d 4c23 6c3d
000002c0: 371b 13bd bb93 bf3c 3e19 e03d 4a73 8f3d
000002d0: ac91 b03d 07f5 0dbe 2021 893c cad7 cfbd
000002e0: 93b1 103d fbab 103e 017e 323d dd1f 15bd
000002f0: 76bd 03be af9d e6bd 0add 073d 0f82 573d
00000300: 6027 f0bd 3bb2 02be 0580 763d 0d4c cdbd
00000310: 909d 09bd 546b 543d 2384 e73d 79f5 d33d
00000320: 77a0 e13d 2fe5 00be 39f2 91bd 497c e1bd
00000330: ed27 ab3d 9da9 9dbd 3b44 aabc 8bd2 bcbd
00000340: 8a09 a33d 8e64 893d 307c bb3d 9ce9 c13d
00000350: 5247 003c f2bc c4bb 7049 bebd 0a20 b7bd
00000360: c92c 643d 9ffe 50bd f11f e03d dcc4 e3bd
00000370: 2d3b 9f3d fe31 303c f080 adbd 19b9 b6bd
00000380: eef2 a0bc 7e72 ca3d 299b 7e3d 60d1 463d
00000390: 572d 00be 965d 063c 974c 96bd ad10 913d
000003a0: 2419 4c3d 3e2d dabc 44a9 07be b788 7dbd
000003b0: dd49 8a3d 5660 1239 a8bc 07bc 8e13 fe3d
000003c0: 275c c7bd fb44 4d3d 3e15 ca3d d1ca 03bd
000003d0: a371 12be f0b1 5b3d ce39 c3bd 1456 b63d
000003e0: 5f01 b7bd 38b6 033e ef12 ce3d 98e4 01bc
000003f0: b302 d23d 5aac 7e3c 9ace cf3d 2b1d f4bc
-0.07491806 0.010952672 0.07966672 -0.11820659 -0.014282705 -0.031170895 -0.026906302 -0.082190044
-0.11498797 -0.055596042 0.02347542 0.0054697995 0.031717427 0.059465673 -0.097419746 -0.039208733
-0.12109919 0.08139876 0.071557164 -0.1350779 -0.13224006 0.013668299 -0.07672521 0.08427749
0.0040272656 0.083831586 -0.0751418 -0.012337509 0.12623088 -0.0510447 0.06359926 0.124498464
0.104357354 -0.088040456 -0.09703134 -0.042538837 -0.014010681 0.05576722 -0.13145001 -0.058266677
0.12260898 -0.024422921 -0.08567011 0.07297054 0.05291369 0.006556315 0.09411647 0.13467152
-0.07243409 0.093686074 -0.07249532 0.024759566 -0.006282771 0.093808554 -0.09792937 0.018043328
0.06614366 0.08017703 0.08706271 0.06297733 -0.0636143 -0.104314096 -0.11948257 -0.059479848
0.06696165 -0.08119294 -0.072473384 0.12838146 -0.07159049 0.057983935 -0.04557363 0.023664882
0.10657124 0.11523714 0.059817865 0.087056495 -0.120517656 -0.0054311305 0.0441772 0.02056447
0.11773943 -0.027432509 0.04952278 0.04716518 0.12552774 0.0026394739 -0.07711842 -0.012696318
-0.1135171 -0.11319673 -0.084086195 0.03193171 0.09191586 0.0886497 0.10445436 0.10806118
0.10644955 0.019336749 -0.05212328 -0.09323825 0.03201384 -0.16639544 -0.089063376 0.090256535
-0.024531059 -0.12246789 0.0424617 0.03259825 0.031355154 -0.04134112 0.09051712 -0.10453542
0.084616065 -0.1129316 -0.043143034 -0.1327812 0.04829274 0.099181734 -0.056061573 -0.011418472
0.005496297 0.06200286 -0.0077347723 -0.009654619 0.0039562336 0.073111214 -0.06473873 0.046007164
0.10240389 0.022183372 0.12397221 -0.022698972 0.076023914 0.112363555 -0.04343853 0.09170165
0.0011353228 0.050397202 0.0009664862 0.0059444075 -0.041719608 -0.0939308 -0.013577466 0.05073054
0.13103555 0.029428419 -0.014129173 0.07198673 0.11263179 -0.13855307 -0.085709564 0.08235808
0.046181757 -0.09403089 0.03355671 -0.07912855 0.028459024 -0.101856224 -0.13141051 0.00055804604
0.08974702 -0.087857924 0.0687503 0.010264259 0.053008027 -0.11313003 -0.0065315887 -0.117281124
-0.12161635 -0.13956937 -0.02135688 -0.046050493 -0.019917859 -0.051835474 0.06597422 0.05765085
-0.035914626 0.023385873 0.109423146 0.070044115 0.08621535 -0.13863002 0.016739428 -0.1014858
0.035325598 0.14128105 0.043577198 -0.03640734 -0.12865242 -0.112605445 0.033169784 0.052614268
-0.1172626 -0.12763302 0.060180683 -0.10024271 -0.03359753 0.05186017 0.113045 0.103495546
0.11016934 -0.12587427 -0.071262784 -0.11010034 0.083572246 -0.07698367 -0.020784488 -0.092198454
0.07960804 0.067086324 0.09154546 0.094683856 0.007829504 -0.0060039693 -0.09291351 -0.08941658
0.055706773 -0.051024076 0.10943592 -0.11121532 0.07774959 0.010754107 -0.084718585 -0.08922023
-0.019647088 0.09885119 0.06215969 0.04853952 -0.12517296 0.008201024 -0.07338827 0.07083259
0.049828663 -0.026632901 -0.13248163 -0.06189796 0.067523696 0.00013959533 -0.008284725 0.124060735
-0.097343735 0.050114613 0.09867333 -0.032175843 -0.14301161 0.05363649 -0.0953251 0.08903137
-0.089358084 0.1286248 0.10062205 -0.007928036 0.10254421 0.0155440215 0.10146828 -0.029799065

post_layers.0.bias f4 [64]
00000000: cf17 af3d 9c12 93bd 05f8 653d f050 e13d
00000010: af1f aebd 22a4 a23d 96d8 c43d fd82 543c
00000020: cd50 fb3d 74d2 9fbd fffd a5bd 875b 3b3d
00000030: d0e6 9e3d 42b0 6f3d 05db f03d 15e9 0fbd
00000040: cf3b 823d 8b69 2bbd 5e04 e23c 6791 b8bd
00000050: 900e efbd 8c74 c43d 270c cfbd d709 0f3d
00000060: 77a5 673d 4b47 07be 64d6 b9bd 7b99 92bd
00000070: 01ef 903d c92d 063e 5a50 e4bd 9ad2 50bd
00000080: c11f c7bd afff a0bd 5462 de3d 0bfd 3a3d
00000090: 55be 2b3d 2c1b 0abd 4a1b be3c 794b 9b3d
000000a0: 2146 05bd 4e23 69bd 6e74 0c3c cce1 8fbd
000000b0: cda8 113e 4190 553d b8c1 c4bd 1fc7 833d
000000c0: 6360 22bd 52f6 93bd 77b8 673d adb4 34bd
000000d0: c72b 9d3d fd43 8e3d 41a6 1abd a745 fe3d
000000e0: 59fd 1c3b 6b0c ba3b 09d6 26bc 4f2f b3bd
000000f0: 823b debd 7f3c c13d e789 86bd 9eb3 f6bd
0.08549463 -0.07181284 0.056144733 0.11001766 -0.08502137 0.07941462 0.09611623 0.012970683
0.12271271 -0.078038126 -0.081050865 0.045741584 0.07758868 0.058517702 0.11760525 -0.035134394
0.06359064 -0.0418487 0.027589973 -0.09012108 -0.116726995 0.09592542 -0.1010974 0.034921493
0.056554284 -0.1321079 -0.09074095 -0.0715818 0.070768364 0.13103403 -0.11148138 -0.050982095
-0.097228535 -0.07861268 0.10858598 0.045651477 0.04192956 -0.03371732 0.023206372 0.07582755
-0.032537583 -0.056918435 0.008572681 -0.07025489 0.14224549 0.052139524 -0.096072614 0.06434464
-0.039642703 -0.07224716 0.056572404 -0.04411762 0.076743655 0.069465615 -0.03775621 0.12415629
0.0023954718 0.00567775 -0.010182866 -0.08749258 -0.10851194 0.09435367 -0.065692715 -0.12045978

post_layers.1.weight f4 [64, 64]
00000000: 958e b6bd bb80 a43d a484 a5bd 97b1 2b3d
00000010: da0a 083b a3d0 1d3e 4b8a 623d f474 6abd
00000020: 6e7d b3bc 2050 19bd 74a9 f03d 11b6 a63d
00000030: 62ae eb3d 0c26 073e 9ec5 bfbd f3ca ddbc
00000040: d269 67bd 1a25 143e aa9b 2c3d 77d9 0b3c
00000050: 42da 16be 9b3c 923d 8a1b 57bd 45f9 843d
00000060: 8f00 003e 0685 00bd 6604 dcbd 422b e3bd
00000070: 6b7b d13d f86b 2dbd 261e babd 4432 21be
00000080: 1033 643d 8693 f5bb 6208 f73d 37ca dc3c
00000090: f560 06bd c3f0 c23d 0d5f 9e3d a196 bb3c
000000a0: 10e7 013c 0fa8 14bd 2c6d c83c 6220 c23d
000000b0: 239a 003e 0b3f afbd 9edf 27bc ccfa e1bb
000000c0: 00fc 12bc 2830 343d dfce ae3d 67b4 9bbd
000000d0: 801f aabd b1ee 01bd 08ef d8bc 494f 073d
000000e0: 6a07 8a3d 49e3 0d3e 90bc 7f3d c9f1 0b3c
000000f0: 81bd 70bd df3f 813d bcaa 5c3d cc2a 9bbd
00000100: 2b91 b63d 83d5 45bd 1b7b 5bbc bdf9 c63d
00000110: 6cc7 dc3d 9ac3 0fbd e83a 8b3d b976 f53a
00000120: 0542 dd3c d236 52bd 3fb0 b1bd bb31 f1bd
00000130: e467 db3d e021 13be f072 a23d 26b4 753d
00000140: dc92 e93d 2505 47bd 41c6 f13d 4f76 e33d
00000150: 0f59 a63c d5ef 123d 8e2f 603d ded2 b2bd
00000160: 7b03 c93d 627a 973d 0ed5 1d3c 24ad 2cbd
00000170: 79d8 423c 7bfd 043d 77e9 c43d c458 9bbd
00000180: 756a 4d3d cfe8 e4bd 75d2 efbd 5d1b 98bd
00000190: 91ab 68bd 3097 debd 7e8e 033c 2bd3 523d
000001a0: 37a1 af3d 283f 433d 284c 593d 90f9 883d
000001b0: 03b8 a0bd 308c 153c fc5f 173d 5f39 f63d
000001c0: 58e8 c3bd 44ca 923d d96b 20bd a1fc ad3c
000001d0: 7e4c 6d3d 97e4 8a3d d6ac 033d 89f0 d2bc
000001e0: a13b c2bd a966 52bd 78b0 4dbd ff1d 0ebe
000001f0: 546d 98bd 430d 4f3c 2716 a73d 4b56 62bd
00000200: d204 1d3e a20a 7f3d c49b 853d 0564 f13d
00000210: 8dee 563d 6e74 d7bb e117 12bb 3161 e53d
00000220: c9c5 f63c 64ab 43bd 22cb 02bc 4414 5e3b
00000230: a978 33bd c37f d8bd ce51 b43c a8ad b53d
00000240: 7db3 6abd 5f2e a0bd cd28 863d ea31 513d
00000250: 4de6 b6bd 83fc 8bbd 6ab8 493d 44e7 6f3d
00000260: 0fc7 8d3d 6128 103b d6b0 1bbb f941 a43d
00000270: 4359 e73c cca0 a9bc 5d42 9a3b 7566 59bd
00000280: 0200 6d3d 262b 9fbd 87c6 58bd 79f7 54bd
00000290: 33b0 89bd e46d 953d b20f 16b9 585e e83c
000002a0: 79e9 7dbd ccf9 003e 6736 653d e6a4 a2bc
000002b0: 36ef 093e 29bc 043e b629 fe3d dc14 11be
000002c0: 63de eb3d 8370 54bc 3659 0a3d f7a3 383d
000002d0: fb4c ec3c c834 5fbd c2ca 29bd 8d26 633d
000002e0: 3621 6e3b 524a 003e 641c 5dbc ac08 9c3d
000002f0: 9f0b 8c3d e3dc 743d dab0 a53d 96c8 123d
00000300: f1c5 bbbd cdd0 d8bc c45f ab3d 3498 2e3d
00000310: 84f5 acbd 2b92 973d 1e0b 003e 0ac2 053e
00000320: 76cd 0d3e 4e77 063d 6272 ccbc 927d f2b9
00000330: 3ddc 553d d040 a13d 9dcf 343d f35d f3bd
00000340: f665 89bd f62a 8cbd abaa a4bd 897b 33bd
00000350: 32b3 213d 7bb3 d43d ef23 80bd d8d3 913b
00000360: a74d d9bc 7b56 96bd 75b2 fbbd 8820 c13d
00000370: 9c44 9e3d c574 ad3d 1702 bb3b c00c cbba
00000380: 887e 933c b900 8cbc 1458 193d 0194 e53d
00000390: 5b98 923c 4124 333c 5ca9 03be 404e 933c
000003a0: 3b6f 90bd 5aae 80bd 9d58 523c 9c05 0e3d
000003b0: a1c7 4dbd 26b3 5a3a e5b3 a8bd 64cd a1ba
000003c0: b079 fb3d 1521 dcbc 037e 523c e69f 933d
000003d0: 350d 7d3d b958 143e 666a a73d 44fa 25bd
000003e0: 0781 b23d f844 a93d f3ca e43b 6fed dcbd
000003f0: 7778 fa3c 2f51 af3d 6dcf debd e5bf 40bd
-0.08913914 0.08032366 -0.0808194 0.04191741 0.002075842 0.1541162 0.055307668 -0.05724044
-0.021910395 -0.03742993 0.117510706 0.08140195 0.1150787 0.13198107 -0.09363864 -0.027074313
-0.056497402 0.14467278 0.04214064 0.008535734 -0.14731696 0.07140466 -0.052516498 0.06492857
0.12500213 -0.03137686 -0.107430264 -0.11092235 0.10228618 -0.042339295 -0.090877816 -0.15741831
0.05571276 -0.007494393 0.12062146 0.026951892 -0.03280731 0.09518578 0.07732973 0.022898974
0.007928625 -0.036293086 0.02446612 0.09478833 0.12558798 -0.08556946 -0.010246186 -0.0068963524
-0.008971214 0.043991238 0.08535551 -0.076027684 -0.083067894 -0.031721774 -0.026481166 0.033034597
0.06739695 0.13856234 0.062435687 0.008541533 -0.058774475 0.063110106 0.053873762 -0.07576522
0.08914407 -0.048299324 -0.01339605 0.097156025 0.10780224 -0.03509865 0.06798345 0.0018727399
0.02700902 -0.051321812 -0.086761944 -0.117770635 0.10713175 -0.14368391 0.07932079 0.059986256
0.11404964 -0.04858889 0.11805392 0.1110655 0.020306138 0.035873253 0.05473285 -0.08731626
0.09815117 0.073963895 0.009633316 -0.042157307 0.011892431 0.0324683 0.096148424 -0.0758529
0.050150353 -0.11177217 -0.11710063 -0.07427094 -0.056804243 -0.108686805 0.008029578 0.051470917
0.08575671 0.047667652 0.053051144 0.06688225 -0.078475975 0.009127662 0.036956772 0.120226614
-0.095658004 0.07167485 -0.03916535 0.021238627 0.057934277 0.06781881 0.03214725 -0.025749462
-0.094840296 -0.051367436 -0.05021712 -0.1387863 -0.07442728 0.012637439 0.08158522 -0.055258077
0.1533387 0.062266 0.065238506 0.11786655 0.052473594 -0.006575159 -0.0022292065 0.112001784
0.030123608 -0.047770873 -0.007983001 0.003388659 -0.043816242 -0.105712436 0.022011664 0.08871013
-0.05730008 -0.078213446 0.06550751 0.051072992 -0.08930645 -0.06835272 0.049248137 0.05857016
0.06922733 0.0021996724 -0.0023756525 0.08020396 0.028240805 -0.020706557 0.004707618 -0.053076226
0.057861336 -0.07771902 -0.052923705 -0.05199382 -0.067230605 0.072963506 -0.00014310962 0.0283653
-0.061990235 0.1259529 0.055960085 -0.01985402 0.13470158 0.12962402 0.124102995 -0.14168113
0.11517026 -0.012966278 0.033776484 0.045078244 0.0288453 -0.054493695 -0.04145313 0.055456687
0.0036335713 0.12528351 -0.013495538 0.076188415 0.06838154 0.059780966 0.080903724 0.035835825
-0.09168614 -0.026466751 0.08367875 0.04262562 -0.08445266 0.07400926 0.12504241 0.13062301
0.13847908 0.03282862 -0.024956886 -0.00046251394 0.05221199 0.0787369 0.044143308 -0.11883154
-0.06708901 -0.06844132 -0.08040365 -0.043818984 0.039477535 0.10385796 -0.06256854 0.0044503026
-0.026526285 -0.073407136 -0.12289897 0.09430033 0.0772793 0.08469538 0.0057070362 -0.0015491471
0.01800467 -0.017090188 0.037437513 0.1120987 0.017894914 0.010933937 -0.12857574 0.017981648
-0.070524655 -0.06283255 0.01283851 0.03467332 -0.05023921 0.0008342735 -0.08237437 -0.0012344536
0.122790694 -0.026871243 0.012847426 0.072082326 0.061780173 0.1448697 0.08174591 -0.040521875
0.08716016 0.08265108 0.0069822012 -0.10787474 0.03057502 0.085604064 -0.10879407 -0.047058005

post_layers.1.bias f4 [64]
00000000: a849 84bd ec5d 5abd 7bd0 dbbb 4742 2abd
00000010: 2cff 81bd 91bf acba 250b 473d 4f24 fabc
00000020: 6bc3 53bd e397 7abd ed93 a83d 7a66 b6bd
00000030: 7ae8 b0bd e954 9dbd a4dc 083d 7b38 193e
00000040: 8400 daba c251 87bd a98a 013c 0ed0 0a3e
00000050: ef29 813d daaa aa3c d1f7 313d 4425 4cbd
00000060: f9e9 803d 4170 98bd 9483 9fbd b11b 2abd
00000070: 41dd 103e 06e4 a0bd 8784 d33d 4415 f5bc
00000080: afbb f93c 3be4 a8bd 547e d03d 5c9b 203c
00000090: b4d4 67bc 8499 29bd c768 d4bd b47c bc3d
000000a0: d92f 9a3c d12e a0bd 3e66 a8bd 24a5 3bbd
000000b0: 89d2 aa3d d8f8 b5bd c5fb fc3c 02d2 38bd
000000c0: 71f8 fb3c d21a 68bd efd0 eebc 0468 acbd
000000d0: 1d19 fa3c 5c4d 57bd 7e8b 393d 522b f73d
000000e0: a017 0d3e 7339 bdbc 86e2 9fbd 18af 403b
000000f0: 2db2 713d 9e48 6c3c 3a11 443d bf9a ef3b
-0.06459361 -0.053312227 -0.0067082024 -0.041567113 -0.06347498 -0.001317965 0.048594613 -0.030534891
-0.051700037 -0.061180007 0.082313396 -0.089062646 -0.086380914 -0.07682211 0.033413544 0.14962952
-0.0016632234 -0.06607391 0.007906594 0.13555929 0.06306826 0.020833421 0.043449227 -0.049840227
0.06294627 -0.07443286 -0.077887684 -0.041530315 0.14146902 -0.07855992 0.10328012 -0.029917367
0.030485002 -0.082466565 0.10180345 0.009802666 -0.0141498335 -0.04140617 -0.10371547 0.09203473
0.018821644 -0.078214295 -0.08222626 -0.045811787 0.08340938 -0.08885354 0.030881772 -0.045122154
0.030758115 -0.056666203 -0.029152362 -0.08418277 0.030529553 -0.05256401 0.045299046 0.120688096
0.13778543 -0.023098683 -0.07806878 0.002940124 0.059007812 0.01442161 0.04786799 0.0073121483

post_layers.2.weight f4 [64, 64]
00000000: a2b5 8c3d e898 c33d e639 3a3c 62f2 b63d
00000010: bb51 30bd 2a4c 543d 0ad4 5d3d 1696 8f3d
00000020: 9465 a63c 3c10 d6bd 9cbc 513d 6508 13bc
00000030: a60d 5a3d db27 043e 03f1 dd3c 62ef 40ba
00000040: 0066 8abd 1926 8f3d feae b5bd d3f8 2abd
00000050: e153 b7bd 5832 21bd 7093 843d 13bc 163d
00000060: 6918 33be f808 cdbd f2a9 f3bd 0738 bc3d
00000070: 3dd3 b8bd bd47 dc3d 4726 863d 552a fd3c
00000080: 042d c3bd b1ef 26bd 6807 80bd 861c d839
00000090: b5ad b43d a92d 82bd 71d3 e53d 3df8 fcbd
000000a0: d8ff 373d 79ce 9e3d 3b04 71bd cdfa 14bd
000000b0: a102 02bd 38f4 933d a12e d23d 5379 c53d
000000c0: c2cb c23d 1f66 0cbe b6c6 523d 31dc 373d
000000d0: 267f 5abc d690 2c3a 41e9 61bd 764a ae3d
000000e0: be15 963d 9405 88bd e313 90bb 24ab 24bd
000000f0: 6040 e23d 296b 013e 20a1 e93d 60ec 72bd
00000100: 32af c23c ff4b e03d d6c8 c93c ccbd be3d
00000110: 6eab f3bd 1637 83bd 4cdb e9bd ec83 3dbc
00000120: dbbe a8bd 50f5 a83d 214b 09bb 0819 f9bd
00000130: 63c7 c2bd 3cf7 c5bc 6dcc 59bd 643c 603d
00000140: ea65 dd3c dfe3 3bbc fee6 eeba 109d 84bd
00000150: 7a75 c8bd 8098 a83c 83da 0cbc 1330 79bd
00000160: 5d3a e83d 715b c03c 40e0 f0bd d5dd ecbc
00000170: d1f3 a2bd 352a 09be 45de a23d d05a cebc
00000180: 2953 e4bd 11cf d8bc 4abf bfbd 8f9c 473c
00000190: ede3 b7bc 45cb adbd 4b18 cf3d 160d 473d
000001a0: d347 91bd 6d10 38bd 83cc b63d 8d7e f03d
000001b0: fd9b 283d e643 c43d eb31 313d 52d4 4e3c
000001c0: 252d 813d 4c2b f33c a17d ef3c 2fbc 97bd
000001d0: db78 acbd 7ac2 223d 89d8 21bd e7aa aebc
000001e0: c746 44bc 5f2c 02be e8f0 cfbd 2008 eebd
000001f0: 7b65 503d 5f07 89bd 36e6 a2bd 0b46 9ebd
00000200: 7350 eb3d c3ce 97bc 6389 e8bb 2670 983d
00000210: 7976 5b39 22b6 9a3d 8c28 e63d 2cb8 4bbe
00000220: 37a5 fa3d b6d1 dbbd cb5e db3d b801 1d3c
00000230: 5037 a7bd 6076 9abd 6814 143d 910d de3c
00000240: 2c4f 07be dfbd 163d f674 e13d d396 09bc
00000250: ac72 85bd a947 c0bd 6671 e0bd 58ee 1c3d
00000260: 449c 98bc 1d36 5cbd 505a d7bd 1527 4b3d
00000270: 72a1 cfba 7c7f 823d ab6f 51bd 1cc4 ab3d
00000280: 1578 4ebd 72e2 ebbc efff 443c 4e9f 973d
00000290: 4e1d f0bc b677 0b3e d78a f7bd dddf 7ebd
000002a0: 3a59 09bd fa58 32be 7a53 523d ce70 4e3d
000002b0: 468e 92bd 1f34 0abe 4d58 fc3d 79a7 083e
000002c0: d801 8a3c 7564 b93d 606b 9f3d 56e8 e93d
000002d0: f264 d73d f25f f83d d6db 21bd ab5c 2fbd
000002e0: 732e 4cbd ced8 fd3d ac0a 8e3d 2ed8 593b
000002f0: 18b0 97bc 7234 87bd 04c8 a13d e587 323d
00000300: d260 aabc c2b0 253d 973f e83d d22b 243d
00000310: c67e 2dbd e001 ea3d 63cd c83d e545 57bd
00000320: 23ac 97bc 22b2 cc3c 1890 8abd a185 52bd
00000330: 0bbd 3dbd b754 853d 2526 fbbc 7b0c d33b
00000340: 0515 363b eddb f53d 62ff d43d 13a2 9ebd
00000350: b191 6ebd a705 5abd b65e a8bd 19fd 4bbd
00000360: 8540 e9bc f45d fb3d 3643 46bd b9fb 9cbd
00000370: 1432 123e e1ca c3bc 7ccc 87bd 87e9 86bd
00000380: c51c 173e 6e7e 82bc 65b6 78bd 59e0 81bd
00000390: 2707 f3bd 1340 963d 4691 3cbd fb0b 3d3d
000003a0: 082b f5bc 1224 e7bd 36be a33d 208c 9dbd
000003b0: b8ca 51bd 4559 76bd d09f 873d ae9a f03d
000003c0: 0b99 023e 5abc 9fbd 92e9 6ebd 40c5 523c
000003d0: 81ce 4a3d e2f2 cc3d a64c 283b 34bb 893d
000003e0: bd07 b23b c645 f93d aba4 4f3c fe83 a4bd
000003f0: 4007 1cbd d2de 1abd 9096 3cbb 14cb c2bb
0.06870581 0.09550649 0.011366343 0.089329496 -0.043046694 0.05183045 0.054157294 0.070110485
0.020312108 -0.10452315 0.051205263 -0.008974169 0.053235672 0.12905829 0.027092462 -0.00073598896
-0.06757736 0.069896884 -0.08871268 -0.041741204 -0.089515455 -0.039354652 0.06473434 0.036800455
-0.1748978 -0.10011476 -0.11897649 0.09190374 -0.090246655 0.107558705 0.065502696 0.030903975
-0.095300704 -0.04075593 -0.06251413 0.00041219982 0.088221945 -0.06356365 0.1122197 -0.12352035
0.044921726 0.07754225 -0.058841925 -0.036371995 -0.03174079 0.072243154 0.102628 0.096422814
0.0951152 -0.13710831 0.051459037 0.044887725 -0.013335979 0.00065828615 -0.05515409 0.08510296
0.07328366 -0.06641689 -0.004396902 -0.040202275 0.11047435 0.12638535 0.11407685 -0.059307456
0.02376518 0.10951995 0.024631899 0.09313545 -0.11897932 -0.06406991 -0.11418781 -0.011567097
-0.08239528 0.08249915 -0.0020949321 -0.121629775 -0.09510686 -0.024165742 -0.05317347 0.054745093
0.027026135 -0.011467903 -0.00182268 -0.0647527 -0.09788032 0.02058053 -0.008597019 -0.060836863
0.11339257 0.023481103 -0.11761522 -0.028914372 -0.079566605 -0.13395007 0.07952551 -0.025189787
-0.11148674 -0.026465924 -0.09362657 0.012183323 -0.02244755 -0.08486036 0.101120554 0.048596464
-0.070937775 -0.04493754 0.08925726 0.11742888 0.041164387 0.09583263 0.043260496 0.012623863
0.06307439 0.029683731 0.02923471 -0.0740894 -0.08421489 0.03973625 -0.039513145 -0.021321727
-0.011979765 -0.12712239 -0.10153371 -0.116226435 0.05087803 -0.06690859 -0.079540655 -0.077282034
0.11489954 -0.018531209 -0.007096456 0.074432656 0.00020929602 0.0755427 0.112382025 -0.19894475
0.122385435 -0.107333586 0.1071144 0.009582929 -0.08164847 -0.075421095 0.036152273 0.027106078
-0.13213795 0.03680217 0.11008637 -0.008397776 -0.065160125 -0.09388668 -0.10959129 0.03831324
-0.0186292 -0.053762544 -0.105152726 0.04959782 -0.0015840961 0.06371972 -0.051131885 0.08387014
-0.050407488 -0.028794501 0.01202391 0.07403432 -0.029310849 0.13619885 -0.120870285 -0.06222521
-0.03353236 -0.17416754 0.05134914 0.050400548 -0.07156043 -0.13496445 0.123215295 0.13345136
0.016846582 0.09052364 0.07784152 0.11421268 0.10517301 0.12127675 -0.039516293 -0.042812984
-0.049848985 0.12394868 0.06935629 0.0033240425 -0.018516585 -0.066018 0.07899478 0.04358663
-0.02079812 0.040451773 0.11340254 0.040080853 -0.04235723 0.11426139 0.098047994 -0.05255689
-0.018514698 0.024987284 -0.06765765 -0.05139697 -0.046322864 0.06510299 -0.030657837 0.006440697
0.0027783525 0.12004838 0.10400273 -0.07745757 -0.05824441 -0.053228047 -0.0822119 -0.04980192
-0.028473148 0.122737795 -0.04840394 -0.076652 0.14276916 -0.023900451 -0.06630799 -0.065875106
0.14757068 -0.015929427 -0.06072082 -0.06341619 -0.118665986 0.0733644 -0.04603698 0.046154004
-0.029927745 -0.11286177 0.07995264 -0.07692742 -0.05121872 -0.060143728 0.06622279 0.11748253
0.12753694 -0.07799597 -0.05832822 0.012864411 0.049513344 0.10007264 0.0025680452 0.06725159
0.0054330514 0.12171511 0.012673537 -0.08032988 -0.03809285 -0.037810154 -0.0028776266 -0.005944619

post_layers.2.bias f4 [64]
00000000: e73c 85bd 0d6c af3c 60ed f13d 8c10 b1bd
00000010: 9935 ec3d 5513 c93d 2951 dbbd fc3a ce3d
00000020: 1182 76bd 4868 f6bc 947b 8c3d 1077 b73d
00000030: c6a1 debd 1e95 803d b07e c73d 227a 883d
00000040: d913 953d 9842 a2bd 5dc2 0c3e ef35 3b3d
00000050: 0061 10be 21a8 7c3b 4736 f03c dbfa 31bd
00000060: 457f 693c 18e7 313d d139 cc3d 0849 9ebd
00000070: ee6c d23d 5881 003d 24ac 2dbd 9b7a 903d
00000080: 0113 af3c 3eff 5b3d 2f28 ab3d 9205 5dbd
00000090: 1a4d d03d 32dd 9f3c fef5 ba3a eb07 ccbd
000000a0: 306b b63c 9915 f83d c995 7d3d 6851 ddbd
000000b0: b63c e63d d7c4 eb3d 164f 9fbd e872 8dbc
000000c0: 0ff6 39bd 5d72 08bd e276 ccbd 7296 2a3d
000000d0: b7d9 4e3d 9865 013c dc8f d73c 0640 45bd
000000e0: 4592 f43c 9da1 d1bd 1164 d6bd d172 4bbb
000000f0: 59ab 4fbd 70a4 f0bd 3dcf ba3d 20b7 85bd
-0.06505757 0.021413827 0.11812854 -0.08645734 0.115336604 0.098181404 -0.107088394 0.10069844
-0.060182635 -0.030079022 0.06859508 0.08958256 -0.108706996 0.06278442 0.097409606 0.0666392
0.07279176 -0.07922858 0.13746019 0.045705732 -0.14099503 0.003855236 0.029322756 -0.043452125
0.014251535 0.04343328 0.09971965 -0.07728773 0.10274683 0.03137335 -0.042400494 0.07054635
0.021371366 0.053710215 0.08357274 -0.05396039 0.10170956 0.019514654 0.0014263985 -0.09962448
0.022267908 0.121134944 0.061910424 -0.10806543 0.112420484 0.115121536 -0.07778756 -0.017266706
-0.045400675 -0.03331219 -0.099836126 0.041647382 0.050500598 0.007897757 0.026313715 -0.04815676
0.029854903 -0.102359034 -0.10468305 -0.0031043778 -0.05070052 -0.11750114 0.09121559 -0.06529069

output_layer.weight f4 [1, 64]
00000000: 2b8c f7bd 2b76 b9bd bf99 d13d 3978 0b3e
00000010: b596 3c3d a0a9 af3d 4260 053e 986c f23d
00000020: c1f2 923c 15dc 163e 5a6f 003e 56d3 7b3d
00000030: 25af 8e3d 38b3 283d fb72 b3bd f83e 60bc
00000040: 8c81 793d 2771 d0bd a2ce c93c 3ec3 863d
00000050: fb76 cabd 88cb 843d 7b24 90bd 90cb df3d
00000060: ade4 333d e9e5 143e 56ee 003b 1b83 8f3d
00000070: c9b6 223d e544 f0bd 828a 19be 6783 c53d
00000080: eae6 57bd 2ddb cc3d 05f3 833d 5c88 973d
00000090: ef52 953d 85bf 8abd 3811 15bc 26d0 a4bb
000000a0: acd1 9f3d 2331 243d 1991 d73d 5bf1 16be
000000b0: f5b1 413d 97d4 2cbd 64b1 0b3d c5a7 81bd
000000c0: 3a14 f23d 852f 11bc 5fcd 5ebd b06e e6bd
000000d0: 0505 163d 5573 b03d 670c 3c3d 433e 673d
000000e0: ed7b b4bd 3d63 bebd a8d3 cfbd 309e c2bd
000000f0: 41db 3fbc 0875 4abd 2e87 023d d0ae 8d3d
-0.12087282 -0.09055742 0.10234403 0.1362008 0.046042163 0.08577275 0.13025 0.11837119
0.01793802 0.14732392 0.12542477 0.061480843 0.06967 0.04118654 -0.08762165 -0.013686888
0.06091456 -0.10177832 0.024634663 0.06580208 -0.09885975 0.06484133 -0.07038208 0.10927498
0.043919254 0.14540829 0.001967331 0.07007428 0.0397251 -0.117318906 -0.14994243 0.09644204
-0.05271045 0.10002742 0.06442837 0.07399055 0.07291209 -0.06774811 -0.009098344 -0.005029696
0.078036636 0.040085923 0.10525722 -0.14740507 0.047288854 -0.04219493 0.03410472 -0.063308276
0.11820264 -0.008861427 -0.054395076 -0.11251581 0.03662588 0.08615748 0.045910265 0.05645586
-0.088126995 -0.09296272 -0.10147792 -0.09502828 -0.011709989 -0.049428016 0.0318672 0.069181085

gc_layers.0.lin_f.weight f4 [64, 160]
00000000: e67d 793d 0b8b c8bb 0123 abbc 669a 603d
00000010: 8ac2 9dbd c3c1 cbbc 409f c53b 851a bcbc
00000020: 7298 45bd 01b8 18bd 4ead e8bc 497b 92bc
00000030: dd8d 743d 4f29 97bc 42ea 4abd b806 c23c
00000040: 4187 783d e58d db3d b2ec 1fbc 5c2d 403c
00000050: d801 95bb 58f7 cebd f9cd 183b 28f9 66bd
00000060: 5b37 1fbc f6d4 d23c 4d4b 29bc dda5 75bd
00000070: fdfa e7bc 9458 633d 6bac 8c3d dded 503d
00000080: 74bd c9bc 69ca 9d3c 8e27 50bd 9595 4e3d
00000090: 62b4 22bd 5904 253c 1768 65ba dafe 34bd
000000a0: 95d2 0abd 8bf3 f6bc 1a57 0abc c335 6cbb
000000b0: e2f7 c23c eb51 263d db21 e6bc dfef 713c
000000c0: 4f9d 44bd 362a 423d 8f7d 15bd b10c dfbc
000000d0: 06d9 83bd 68d7 e23c fdf5 8abd ec35 82bd
000000e0: 3090 563c 12d1 303c 8bda 403d e36e aebb
000000f0: e572 34bd 5828 7bbd ac35 fa3c 7cbf 8f3b
00000100: a6a6 b63d 0935 72bd b2e8 b73d 7465 ce3c
00000110: a111 04bd e7d1 0dbd 8c4a 7c3c 37ad 993d
00000120: dd3f 06bc d3c6 7d3d 8652 683a 316e 883d
00000130: b206 8cbd 8416 10bc 0dea 95bd 74c9 c73d
00000140: f42f ab3d f4c0 cb3d e1eb 6ebd 4432 d9bc
00000150: 461f 1c3d 075b 3dbd c41e 58bd e3ac f6bc
00000160: 4621 6b3d 1038 8ebd ecd9 7b3c 6e9a 82bd
00000170: a58a 453d 5258 78bd a2da 94bd 8988 d23c
00000180: eadf 503d d92c e93b 1916 8fbd e04c 1c3c
00000190: 9f72 81bd f7e8 a53d 2526 013d 6b52 9fbd
000001a0: cd27 88bd c871 1fbd 21d9 3f3c 1ce0 c5bd
000001b0: de92 5bba 9355 b4ba 6271 39bd 5f4c 8c3d
000001c0: 5324 983d 3428 22bb 57d4 00bd 5dc6 2d3d
000001d0: 5f4f 623d d4d5 8dbc 9d59 6c3c f601 113c
000001e0: 25df 81bd 7cf4 7c3c 7bb5 133d 3c27 1f3d
000001f0: 2d2b 283d 1b9e 803d 10b9 1dbd 6a5a 193d
00000200: c10a 9dbc 19ea db3c 7e79 0cbd e3ca e839
00000210: 7113 65bc c7d8 ab3a 2668 703d fbfe dbbc
00000220: 0d27 af3b 121b 71bd bd93 c6bc 3902 d9bd
00000230: 1c06 22bd fe5f b03c 0e3d f2bc 4aa9 a53d
00000240: da60 2e3d c635 fbbc fca8 bdbc 11a3 743d
00000250: ce3c a33d b166 2d3d a585 26bd fca2 cd3c
00000260: e8a7 123d 551a 25bc 69fd 163b 7522 53bd
00000270: e407 973d 3f9a 81bc be45 8dbc 7c82 ae3d
00000280: cb5c 713d 8d19 963d b480 823d a68a 8bbd
00000290: daa5 b13c e77f 0c3d c8ce 6ebd 58a8 c5bc
000002a0: 8a9e 4dbd 158e 993d c36d 79bd f275 c23c
000002b0: 7cee 5fbd a68a e6bc 32e4 5dbb f026 65bd
000002c0: 7c01 2e3a 45a0 123d da17 19bd 9605 03bc
000002d0: 38d9 3e3d a15f a1bc 6968 9d3c a94c 7dbd
000002e0: 0a81 f83a 5262 a03d c275 6f3c c0ee 783d
000002f0: 1a48 ce3c 7e32 64bd f3f8 9f3d 96f3 d0bd
00000300: e0df 4d3d a635 d33c 7952 d23c 43f9 5fbd
00000310: 8d75 a0bd eaf6 1f3d 825d 74bd 3a96 a6bc
00000320: 5b76 323d 2d85 2d3d adcb 65bb 6a69 22bd
00000330: 39c1 8f3d e458 47bc c5f0 3b3d f190 4abd
00000340: 9988 f83c 1889 4e3d 9930 493d 4414 dabc
00000350: 01b0 8abd fbfb d4ba 18f1 a93b 39a2 89bd
00000360: b891 893d 92e5 2bbd 96c3 a6bd 17da 983d
00000370: 09ab b7bd d987 4aba dbbc b6bb 65e4 973c
00000380: b2fc 66bc a048 ad3d 2e28 613c f923 a0bd
00000390: 292a 7bbd cbb1 a13d d1d6 763d e56c 86bc
000003a0: 53ab 873d b867 55bc 2eb3 523c d10d 593d
000003b0: e524 ecbc 6095 f33b 2d35 ae3c 2fad 453d
000003c0: 517b 45bd db4a e43c 48f8 873d 6173 5ebd
000003d0: 66c1 9a3d 6680 863d e45e ac3d 7dcf 85bd
000003e0: f63d 2d3c 39f1 b33d baad 763d 13b4 a13c
000003f0: 9a25 a53d 2c27 d0bc 29ff 033c 1c21 f13c
0.06091108 -0.006120091 -0.020890715 0.054834746 -0.07703121 -0.024872666 0.006030947 -0.022961864
-0.048241086 -0.037284855 -0.02840295 -0.017881053 0.059705604 -0.018452315 -0.049539812 0.023684844
0.060675863 0.107204236 -0.009761022 0.0117295645 -0.004547339 -0.10105771 0.0023316129 -0.056389958
-0.009717788 0.025736313 -0.0103328945 -0.059972633 -0.028317923 0.055504397 0.068688236 0.051008094
-0.024626471 0.019261556 -0.050818972 0.05043562 -0.039722808 0.010071837 -0.00087511673 -0.044188358
-0.033892233 -0.030145427 -0.008443618 -0.0036042787 0.02379984 0.040605467 -0.028092315 0.014766662
-0.048001584 0.047403537 -0.036496695 -0.027227731 -0.06437878 0.027690604 -0.067852 -0.06357941
0.0130959 0.010792034 0.04708342 -0.0053232773 -0.044054884 -0.06131777 0.03054317 0.0043868404
0.089185044 -0.05913261 0.0897993 0.025194861 -0.032243375 -0.034624007 0.015398633 0.07503741
-0.008193937 0.06195719 0.00088623946 0.06661642 -0.068372145 -0.008794431 -0.07320032 0.09755221
0.08358756 0.09948912 -0.05833042 -0.026513226 0.038115762 -0.04622939 -0.052763715 -0.030111736
0.05740478 -0.06944287 0.015371781 -0.063771114 0.048227925 -0.060631104 -0.072682634 0.02569987
0.05099479 0.007115942 -0.06986637 0.009539813 -0.0632069 0.08101075 0.031530518 -0.07779392
-0.066482164 -0.03892687 0.011709482 -0.09661886 -0.0008376072 -0.0013758413 -0.045274146 0.06850504
0.07428803 -0.0024743201 -0.031452503 0.042425502 0.055251475 -0.017313875 0.014425662 0.008850565
-0.063413896 0.015439149 0.036061745 0.038855776 0.0410568 0.06280156 -0.038506567 0.03743974
-0.019170167 0.026845025 -0.03429555 0.0004440165 -0.013981686 0.0013110869 0.058693074 -0.026854983
0.0053452314 -0.058863707 -0.024240369 -0.10596127 -0.039556608 0.021530148 -0.029570129 0.0808893
0.042572834 -0.03066529 -0.023151867 0.059725825 0.07970582 0.042334262 -0.040654797 0.025102131
0.03580466 -0.010077079 0.0023039228 -0.051546533 0.07374552 -0.01582062 -0.01724517 0.08520982
0.058926385 0.07329092 0.063722044 -0.068135545 0.02168553 0.034301665 -0.05830267 -0.024128124
-0.050200023 0.07497803 -0.060895693 0.023737881 -0.054670796 -0.028142285 -0.0033857939 -0.055945337
0.00066377944 0.035797376 -0.037376262 -0.007996937 0.046593875 -0.01969892 0.019214826 -0.061840687
0.0018959355 0.07831253 0.014615478 0.060774565 0.025180865 -0.055712216 0.07811155 -0.1020271
0.050262332 0.025782418 0.025674092 -0.054681074 -0.07834921 0.039053835 -0.05965949 -0.020335305
0.043569904 0.042363334 -0.0035064027 -0.039651312 0.07019276 -0.012167189 0.045883913 -0.049454633
0.030338572 0.05042371 0.049118612 -0.026620992 -0.06771851 -0.0016249412 0.0051862113 -0.06720395
0.06717247 -0.041966982 -0.08142774 0.07463472 -0.08968169 -0.00077259314 -0.0055767125 0.018541524
-0.014098333 0.08461118 0.01374249 -0.07819361 -0.061319504 0.078952394 0.06026346 -0.016409347
0.066244744 -0.013025217 0.012860103 0.052991692 -0.028826186 0.0074335784 0.02126559 0.048260864
-0.048213307 0.027867725 0.06639153 -0.054309253 0.07556419 0.06567459 0.084165365 -0.06533716
0.010573855 0.08786244 0.060224272 0.019739186 0.080638126 -0.025409304 0.00805644 0.029434733

gc_layers.0.lin_f.bias f4 [64]
00000000: 3a84 efbc dfc1 a6bb 1ad1 cf3c d2a0 9bbc
00000010: b1be b53d 41e5 61bd c6df 4c3d 49b0 38bd
00000020: 4b8b 073e 96cd 06bd 240f c33d 197c 8abd
00000030: ae32 34bd 59a4 b0bc e2fe 153d c062 293d
00000040: 56ed 883c aa39 793d b2eb fcbb 3108 783d
00000050: cd7c a0bb 5c16 babc 5a25 ab3d 73c1 a33d
00000060: 50e9 5a3d 00d1 973d c382 a33d 91f1 c73d
00000070: dfe3 8c3d 887e a63d 79eb a3bc d2d5 de3a
00000080: b65f 75bd 3e22 473d da22 6abd f882 c7ba
00000090: 8817 87bd 21fd ea3b c709 213d a8ad fc3a
000000a0: f2b9 a33d 342b da3d 1a28 5cbc 05b2 86bd
000000b0: ca3a 2dbd acd2 46bd 88c0 d2ba 3bbd 3c3d
000000c0: c6aa 9b3c 563e bd3d 6e58 9e3d 361c 0e3d
000000d0: 2f53 04bd 1af1 4dbd 3331 463d d710 54bd
000000e0: 1dd6 5dbd 088c 263d 22cd fbbc 5c6a 7fbc
000000f0: 3ff6 73bd 95f4 603d 9986 13bc 4a88 083d
-0.029237855 -0.005089029 0.025368262 -0.018997584 0.08874262 -0.055150274 0.050018094 -0.045089994
0.1323673 -0.032910906 0.09524372 -0.06761951 -0.043993644 -0.021562742 0.03662003 0.04135394
0.016714733 0.06084601 -0.0077185268 0.060554687 -0.00489769 -0.02271574 0.083567336 0.07995882
0.05344516 0.074129105 0.07983925 0.09762872 0.068794005 0.08129603 -0.020009743 0.0017000979
-0.05990573 0.04861664 -0.057162143 -0.0015221527 -0.06596285 0.0071712886 0.039315965 0.0019277828
0.07994451 0.106527716 -0.013437295 -0.06576923 -0.042292394 -0.048540756 -0.0016079107 0.0460789
0.01900233 0.09240405 0.077317104 0.034694873 -0.032305893 -0.05027876 0.048386764 -0.051773872
-0.054159272 0.040660888 -0.030737463 -0.015589323 -0.05956101 0.05492075 -0.009004259 0.0333331
