saved_models/2023-04-19_23-40-06/model.pth (torch, 984115 bytes, 92 tensors)

type_embedding.weight f4 [100, 100]
0.9077874 -1.6124622 -0.97745055 -0.95879364 0.87566733 -1.2166984 -2.0971017 0.06545217
0.6454812 -0.111639366 -2.0078487 -0.53027964 0.7910342 -0.3942196 1.6588545 -0.5156942
0.35629582 1.6870575 -1.4335994 0.7867816 0.04184602 -0.51238173 -0.42620733 0.98598933
-2.7666695 0.56841123 -0.93573236 -0.4108704 0.13367023 -0.8071678 -0.15046188 1.7456545
0.39142707 -0.47760594 0.5118256 -1.2281895 -0.63465005 0.14430578 1.4397191 -1.0954316
0.4064446 0.22760342 0.38043073 0.2142046 0.9411282 -0.065820165 1.4547642 0.24670304
1.5933331 -0.28048822 -0.4168458 -0.3846058 0.059951793 -0.724546 -0.83179617 -0.71950716
1.2779044 0.30198383 2.2308686 1.0596576 -0.54778224 0.9380463 -0.42041373 1.1328084
-1.0216504 0.13859986 -0.898862 1.6796814 -0.23434792 -0.7312758 -0.36191562 0.61527544
0.730442 -1.1664203 0.2215355 -1.7214022 0.3446715 1.0979451 -0.98466706 0.37993532
-1.5948975 1.3076487 1.0012002 -0.7617383 -0.9445743 -0.74617404 0.57766867 0.12542081
-1.7348125 -0.74664915 -0.39808574 -0.775647 0.68651074 0.09125854 -0.49138123 -0.21054393
-0.48970038 0.020316938 0.70842814 -1.0235765 0.4380098 -0.20751855 -0.94241256 -0.6172901
-0.45288473 -0.21571846 0.9721243 0.8556052 1.2905272 0.17678614 1.0228003 2.630566
0.98195386 0.68199325 -0.00097450527 1.6795607 -0.6268196 -0.8867248 0.85787106 1.2759198
-2.0767043 1.0983696 -1.9493889 -0.86944526 -0.22242627 -0.78362674 -0.087530665 0.22072692
-1.3713286 0.3336392 1.4506146 1.6540873 -1.4220642 0.5284939 -0.43334085 0.08411913
-0.5384113 2.8555572 -0.75561446 0.47633478 0.3793781 -0.7870427 0.95185864 -1.0398952
-0.957375 -0.31397268 0.18536578 0.33458212 -0.81230956 0.64424324 -0.6857313 -0.37055326
-0.84698874 0.75615144 -0.5964067 -0.8485997 1.0166401 -0.6152734 -1.1470009 0.036608566
-0.23696917 0.80051166 -2.9712558 -1.3167217 1.5645804 1.0941875 0.34741622 -1.5600463
-0.9676701 0.35373124 -0.23690532 0.6972731 -1.4545733 1.7830225 1.2495711 0.22949688
0.52910346 1.6471473 0.5001019 -1.6955179 1.426222 1.2705497 -1.4612092 0.13875757
1.5070987 0.5950584 -0.29942393 -1.3712308 0.25487936 -0.7059053 -1.1205921 0.8372631
-0.298724 -1.5042756 0.9274385 0.95746315 0.34124961 -0.5453723 -0.07097127 -0.039314903
0.65770006 -1.1569271 -1.4209055 -0.20754603 -1.1580622 -2.0962617 0.40060678 0.7900548
1.209824 2.2191374 -0.75566167 0.094166294 -0.03570478 0.40632206 -0.3003054 0.16718934
0.093273714 0.6609093 -0.8207051 0.6271728 -0.5640219 -1.7617472 -0.7363516 0.47203043
0.5428701 0.103864394 0.05886105 0.073890485 0.10087106 1.7241702 0.18814811 0.053963143
-0.76772076 -1.6664469 -0.7519017 0.07331016 -0.10771676 0.390615 1.0378814 0.20457889
-0.2913401 -1.1129788 -0.25515753 0.6667412 0.26776293 -1.0704082 0.29106778 -2.129817
-0.0921432 -0.17917053 1.6867406 0.23681219 0.7793551 -0.67220885 1.2209926 -1.6432191
00000000: c164 683f 2965 cebf 333a 7abf 8073 75bf
00000010: bc2b 603f c6bc 9bbf ea36 06c0 ca0b 863d
00000020: 423e 253f 2ea3 e4bd 9880 00c0 68c0 07bf
00000030: 3881 4a3f 27d7 c9be 5855 d43f 8904 04bf
00000040: 686c b63e 80f1 d73f 2f80 b7bf 856a 493f
00000050: bb66 2b3d 732b 03bf d937 dabe cc69 7c3f
00000060: 1d11 31c0 6683 113f 288c 6fbf 9b5d d2be
00000070: d9e0 083e 8da2 4ebf ae12 1abe 9b71 df3f
00000080: 2169 c83e c488 f4be 0107 033f 5035 9dbf
00000090: 6d78 22bf e5c4 133e b748 b83f 1a37 8cbf
000000a0: 8219 d03e df10 693e d1c7 c23e 7358 5b3e
000000b0: c7ed 703f b9cc 86bd b735 ba3f b99f 7c3e
000000c0: 57f2 cb3f 279c 8fbe d06c d5be 0deb c4be
000000d0: 0390 753d d97b 39bf 98f0 54bf 9f31 38bf
000000e0: 5f92 a33f a09d 9a3e 8dc6 0e40 dca2 873f
000000f0: 753b 0cbf cd23 703f 7840 d7be deff 903f
00000100: 71c5 82bf 1fed 0d3e d21b 66bf cdff d63f
00000110: e7f8 6fbe e434 3bbf 014d b9be b182 1d3f
00000120: 3ffe 3a3f 434d 95bf 34da 623e e856 dcbf
00000130: c878 b03e 7789 8c3f 2413 7cbf e286 c23e
00000140: 9a25 ccbf 0861 a73f 5427 803f 4801 43bf
00000150: 9fcf 71bf 4305 3fbf 18e2 133f 506e 003e
00000160: 560e debf 6624 3fbf e5d1 cbbe cd90 46bf
00000170: 2bbf 2f3f c2e5 ba3d 5296 fbbe d498 57be
00000180: 02ba fabe b56f a63c 8c5b 353f 8e04 83bf
00000190: d242 e03e be7f 54be f341 71bf b906 1ebf
000001a0: 82e0 e7be 4de5 5cbe 23dd 783f f108 5b3f
000001b0: ff2f a53f 6d07 353e 1feb 823f 315b 2840
000001c0: 5461 7b3f 1c97 2e3f f175 7fba d8fb d63f
000001d0: 4077 20bf 6600 63bf 709d 5b3f 5751 a33f
000001e0: b9e8 04c0 6097 8c3f 9385 f9bf f793 5ebf
000001f0: b6c3 63be c39b 48bf 4743 b3bd 3d06 623e
00000200: b287 afbf c2d2 aa3e bdad b93f 22b9 d33f
00000210: 3306 b6bf 604b 073f dade ddbe a746 ac3d
00000220: 53d5 09bf 73c1 3640 f36f 41bf 27e2 f33e
00000230: d93d c23e a17b 49bf 02ad 733f 491b 85bf
00000240: 8716 75bf 07c1 a0be 87d0 3d3e 594e ab3e
00000250: 85f3 4fbf 20ed 243f 168c 2fbf 28b9 bdbe
00000260: 41d4 58bf 2493 413f 1cae 18bf d43d 59bf
00000270: 4321 823f 8f82 1dbf edd0 92bf ddf2 153d
00000280: 0ca8 72be 55ee 4c3f 0e29 3ec0 568a a8bf
00000290: 2c44 c83f 560e 8c3f 8ae0 b13e 99af c7bf
000002a0: 3ab9 77bf 431c b53e 4f97 72be 7d80 323f
000002b0: 752f babf 153a e43f f2f1 9f3f 3b01 6b3e
000002c0: 5373 073f b9d5 d23f ae06 003f bb06 d9bf
000002d0: 718e b63f 5fa1 a23f e708 bbbf 7716 0e3e
000002e0: 9ce8 c03f bf55 183f 184e 99be 7e84 afbf
000002f0: 8c7f 823e 36b6 34bf 906f 8fbf e056 563f
00000300: 5af2 98be 1a8c c0bf 9c6c 6d3f 4e1c 753f
00000310: 45b8 ae3e 859d 0bbf 6359 91bd aa08 21bd
00000320: 085f 283f 3016 94bf 3be0 b5bf f286 54be
00000330: 623b 94bf 2729 06c0 551c cd3e 0841 4a3f
00000340: 83db 9a3f 5906 0e40 0b73 41bf 42da c03d
00000350: 2d3f 12bd 7209 d03e a1c1 99be af33 2b3e
00000360: 4a06 bf3d 5a31 293f bb19 52bf 668e 203f
00000370: bd63 10bf ef80 e1bf 8a81 3cbf f9ad f13e
00000380: 89f9 0a3f dbb6 d43d 4918 713d e553 973d
00000390: 7c95 ce3d 9cb1 dc3f e6a9 403e 7508 5d3d
000003a0: 5989 44bf 224e d5bf a17c 40bf a323 963d
000003b0: 9b9a dcbd b0fe c73e 4cd9 843f 217d 513e
000003c0: 882a 95be 1776 8ebf 02a4 82be 8daf 2a3f
000003d0: 3918 893e 2303 89bf d606 953e ec4e 08c0
000003e0: 93b5 bcbd 7b78 37be 1ee7 d73f e57e 723e
000003f0: d183 473f e115 2cbf 7c49 9c3f 0155 d2bf

distance_expansion.means f4 [32]
0.019833557 0.084366195 0.088649765 0.09426582 0.10374375 0.13469166 0.16210787 0.20537803
0.24975538 0.26931584 0.29957783 0.33019316 0.3504258 0.3962589 0.41222006 0.45156834
0.48602003 0.5324044 0.5620388 0.5785921 0.61399025 0.64673483 0.7101637 0.73529613
0.7566918 0.797479 0.9061759 0.960511 0.9659738 0.99497575 0.99999946 1.0000056
00000000: fc79 a23c 2fc8 ac3d 028e b53d 700e c13d
00000010: 9a77 d43d 9cec 093e 9bff 253e 9e4e 523e
00000020: e0bf 7f3e c4e3 893e 4462 993e 140f a93e
00000030: 036b b33e 72e2 ca3e 820e d33e f733 e73e
00000040: 9ed7 f83e a84b 083f c6e1 0f3f 9d1e 143f
00000050: 772e 1d3f 6a90 253f 4acd 353f 5e3c 3c3f
00000060: 8eb6 413f 9527 4c3f 25fb 673f 0de4 753f
00000070: 0f4a 773f bbb6 7e3f f7ff 7f3f 2f00 803f

distance_expansion.betas f4 [32]
259.50705 259.55252 259.57672 259.59586 259.52985 259.4734 259.44968 259.42676
259.4433 259.43088 259.42902 259.4276 259.39062 259.38687 259.39105 259.4203
259.41583 259.4419 259.45056 259.45352 259.4491 259.45404 259.47964 259.48688
259.48416 259.48102 259.43558 259.41046 259.4323 259.44287 259.46814 259.48694
00000000: e7c0 8143 b9c6 8143 d2c9 8143 45cc 8143
00000010: d2c3 8143 98bc 8143 8fb9 8143 a0b6 8143
00000020: beb8 8143 27b7 8143 eab6 8143 bcb6 8143
00000030: 00b2 8143 85b1 8143 0eb2 8143 ccb5 8143
00000040: 3ab5 8143 90b8 8143 acb9 8143 0dba 8143
00000050: 7cb9 8143 1eba 8143 65bd 8143 52be 8143
00000060: f9bd 8143 92bd 8143 c1b7 8143 8ab4 8143
00000070: 56b7 8143 b0b8 8143 ecbb 8143 54be 8143

pre_layers.0.weight f4 [64, 100]
0.066830926 -0.025467802 0.07311715 -0.06534562 -0.036612052 0.011064731 0.037974548 -0.09629545
0.08893307 0.035026737 -0.081984095 0.007997082 -0.09542992 -0.101999864 -0.054541197 0.055830237
0.09819952 -0.10127793 0.0144899115 -0.070192635 -0.061513174 -0.08557079 0.067712456 -0.0052621844
-0.10686343 0.014351701 0.09913495 0.018402617 0.06130177 0.048467454 0.03795484 0.0034309775
-0.051514544 0.06666794 0.100461185 0.009719425 0.0566878 -0.06733572 -0.047959585 0.03712309
-0.088766485 0.01251411 -0.040218566 -0.02081123 0.03209868 0.020271447 0.05871123 0.031191343
-0.0877528 0.080569 -0.06466407 -0.024965743 -0.054841314 0.07326811 0.004849656 -0.027980318
-0.08464621 -0.05603886 0.051377133 -0.0015153524 -0.034809034 0.09617158 0.10933424 0.031595543
-0.012362575 -0.056641214 0.08355828 -0.063222915 0.0597419 -0.032308474 -0.06957017 -0.08213113
-0.016667904 -0.017344166 0.059773877 0.0007279545 -0.03768938 -0.09724649 0.07008595 -0.06628333
-0.05296321 0.097844034 -0.008876472 -0.098563716 0.009209608 -0.052093513 0.04256738 -0.020615626
-0.064126246 0.048818395 0.0854691 -0.011463307 -0.09955704 -0.086798415 -0.07536358 -0.004902215
-0.03141934 0.016229454 -0.0914133 0.05386442 -0.13363062 -0.061619602 0.071394384 0.103528656
-0.02913277 -0.091903284 -0.052091334 -0.029051743 0.12803592 -0.056240674 0.10473664 -0.11258777
0.032744 -0.06057921 -0.04776124 -0.048771814 -0.08726708 0.0789291 0.018904084 -0.002745353
0.058915365 -0.058737427 -0.06284511 0.06872125 0.02846277 -0.058287032 0.0024591563 0.046679433
-0.08563109 -0.03548936 -0.09533864 0.034262735 0.04193122 -0.07059425 0.094654955 -0.052470293
-0.121666394 0.07793281 -0.010638415 0.04837916 0.024392238 -0.0427405 -5.8555102e-05 0.029369382
-0.08827237 -0.04091647 0.07451456 -0.05601878 0.07158762 -0.09141811 -0.0054021263 -0.087972105
0.07320457 0.07883141 -0.018564919 -0.10031338 -0.07343117 -0.017181182 0.096671805 0.042438827
-0.0705308 0.022893282 -0.0020890452 -0.036210798 0.02067893 0.048974488 0.018157769 0.056459796
0.032941934 -0.008819249 -0.004201959 0.07599062 0.06588628 -0.07701852 0.10365805 0.10041908
0.09266045 -0.039770994 0.026593598 -0.09147921 0.003257327 0.09911478 0.040767144 0.012467649
-0.009916077 0.012429786 -0.0100132935 0.06660272 -0.084697396 0.06148762 -0.00079747674 -0.0051140846
0.04982519 -0.02602386 -0.08440588 0.0034663386 -0.023929385 0.09346973 0.06851488 0.100242645
0.014029582 -0.08048357 -0.0016546943 -0.033707093 0.054406613 -0.032010425 -0.03997703 -0.06965132
0.08073261 0.008463141 0.034905937 0.04481594 0.021681577 0.08335532 0.072334826 0.0933615
-0.08279389 0.0996596 -0.028147006 0.101486295 -0.013274774 -0.022177918 0.04209571 0.08646092
-0.016521443 -0.06785211 0.08369025 0.04691591 0.0701149 -0.010420153 0.06048166 0.03682237
0.050980195 -0.03681306 0.03419807 -0.011654511 -0.069838814 0.11278741 0.035980258 -0.06564609
-0.011178879 -0.048243508 -0.0146817 -0.094716005 0.07857914 -0.03767691 0.037111454 0.00031924262
0.048265032 0.03315187 0.10324127 -0.0062350496 0.020761587 -0.094178274 -0.0014731488 0.06557304
00000000: a7de 883d daa1 d0bc 72be 953d edd3 85bd
00000010: 85f6 15bd d848 353c 338b 1b3d 8d36 c5bd
00000020: 8b22 b63d 3278 0f3d 47e7 a7bd 3106 033c
00000030: c370 c3bd 4ee5 d0bd 9766 5fbd 3fae 643d
00000040: d41c c93d ce6a cfbd 1867 6d3c 28c1 8fbd
00000050: 3df5 7bbd bd3f afbd d4ac 8a3d 676e acbb
00000060: 37db dabd 6623 6b3c 4407 cb3d 16c1 963c
00000070: 9117 7b3d cf85 463d 8976 1b3d 40da 603b
00000080: ea00 53bd 3389 883d 98be cd3d 393e 1f3c
00000090: 7731 683d 4fe7 89bd 4571 44bd 620e 183d
000000a0: 34cb b5bd fb07 4d3c 39bc 24bd 507c aabc
000000b0: e879 033d 4e10 a63c 307b 703d fd84 ff3c
000000c0: bdb7 b3bd 5c01 a53d 996e 84bd f584 ccbc
000000d0: 49a1 60bd 970d 963d dde9 9e3b fb36 e5bc
000000e0: fe5a adbd 0189 65bd d470 523d ca9e c6ba
000000f0: eb93 0ebd 9bf5 c43d a1ea df3d 546a 013d
00000100: 668c 4abc 9e00 68bd 9a20 ab3d 047b 81bd
00000110: ecb3 743d e455 04bd ce7a 8ebd 5e34 a8bd
00000120: 218b 88bc 5a15 8ebc 74d5 743d 33d4 3e3a
00000130: 2e60 1abd 2b29 c7bd 3989 8f3d 8ebf 87bd
00000140: f3ef 58bd 7462 c83d 9f6e 11bc c6db c9bd
00000150: e5e3 163c 0260 55bd 225b 2e3d 1ae2 a8bc
00000160: 9f54 83bd ccf5 473d 6c0a af3d 98d0 3bbc
00000170: 90e4 cbbd 5ec3 b1bd 3858 9abd c3a2 a0bb
00000180: 91b1 00bd a2f3 843c e536 bbbd f0a0 5c3d
00000190: 77d6 08be d664 7cbd 3837 923d d506 d43d
000001a0: d9a7 eebc ca37 bcbd b95d 55bd ecfd edbc
000001b0: d91b 033e 9f5c 66bd 2a80 d63d 6b94 e6bd
000001c0: 931e 063d e821 78bd 4aa1 43bd f4c4 47bd
000001d0: 15b9 b2bd 94a5 a13d bddc 9a3c 61eb 33bb
000001e0: 3d51 713d a896 70bd f0b4 80bd babd 8c3d
000001f0: c12a e93c 62be 6ebd cc29 213b ef32 3f3d
00000200: 5a5f afbd 4b5d 11bd e840 c3bd 1557 0c3d
00000210: 12c0 2b3d b893 90bd 75da c13d 17eb 56bd
00000220: 3b2c f9bd 3d9b 9f3d bf4c 2ebc 3a29 463d
00000230: 3bd2 c73c aa10 2fbd 1099 75b8 0f98 f03c
00000240: 25c8 b4bd 0798 27bd 179b 983d f373 65bd
00000250: 889c 923d 6b39 bbbd 5204 b1bb b82a b4bd
00000260: 47ec 953d 5d72 a13d 7515 98bc 1a71 cdbd
00000270: 1563 96bd 8dbf 8cbc defb c53d 56d4 2d3d
00000280: 7472 90bd b18a bb3c 5de8 08bb c651 14bd
00000290: dc66 a93c 7999 483d 9abf 943c 6342 673d
000002a0: 1fee 063d 9d7e 10bc 96b0 89bb f8a0 9b3d
000002b0: 63ef 863d e3bb 9dbd ac4a d43d 85a8 cd3d
000002c0: c3c4 bd3d e9e6 22bd d1da d93c 7459 bbbd
000002d0: e178 553b b1fc ca3d 73fb 263d 1c45 4c3c
000002e0: 0b77 22bc 4da6 4b3c cc0e 24bc 0267 883d
000002f0: d475 adbd 71da 7b3d c20d 51ba 0d94 a7bb
00000300: 8015 4c3d fd2f d5bc fddc acbd 832b 633b
00000310: 8f07 c4bc 0f6d bf3d 8851 8c3d 044c cd3d
00000320: 55dc 653c 92d4 a4bd 54e2 d8ba 7310 0abd
00000330: 78d9 5e3d 5d1d 03bd f4be 23bd 5aa5 8ebd
00000340: 2357 a53d fca8 0a3c 87f9 0e3d eb90 373d
00000350: 909d b13c 32b6 aa3d 4824 943d 5034 bf3d
00000360: d88f a9bd 551a cc3d 8d94 e6bc 0cd8 cf3d
00000370: 707e 59bc 77ae b5bc 8d6c 2c3d 6c12 b13d
00000380: fa57 87bc 0cf6 8abd cb65 ab3d e62a 403d
00000390: 6798 8f3d 4ab9 2abc 9ebb 773d 0ed3 163d
000003a0: 9cd0 503d 4bc9 16bd 4713 0c3d 90f2 3ebc
000003b0: a707 8fbd 16fd e63d 0960 133d 7571 86bd
000003c0: 9e27 37bc fc9a 45bd 838b 70bc 77fa c1bd
000003d0: 1aee a03d 1b53 1abd 2e02 183d 0560 a739
000003e0: 8eb1 453d 41ca 073d 2970 d33d 634f ccbb
000003f0: 3414 aa3c 8ae0 c0bd ac16 c1ba 284b 863d

pre_layers.0.bias f4 [64]
0.082332075 0.025741009 -0.05784948 -0.05919869 -0.063308194 0.022158083 0.09909474 0.099693835
0.011294106 0.06334005 -0.043164577 -0.013528408 0.008195943 0.08169875 -0.014912872 0.011420454
0.005013161 0.08505237 0.09619423 0.06302742 0.042946003 0.06395018 -0.068440355 0.067772366
0.053482812 -0.014758922 -0.04290667 -0.0024351126 -0.05011791 0.07366973 -0.024428498 -0.0066675423
-0.04223874 0.034918293 -0.023329249 -0.078002386 0.061067473 0.059239775 0.013774398 0.027433274
-0.0020162303 0.003973738 -0.018978834 -0.0596358 -0.040921997 0.04771554 0.062049896 0.072159305
0.00393825 0.10770466 0.0215459 0.014408669 0.0092993 -0.045738317 0.081058376 -0.05416081
-0.065947086 -0.06209046 -0.012198576 0.110937245 -0.09097842 0.044630237 -0.052439675 0.03845277
00000000: b89d a83d cfde d23c 94f3 6cbd 537a 72bd
00000010: baa7 81bd de84 b53c 2ff2 ca3d 482c cc3d
00000020: ea0a 393c 6eb8 813d 57cd 30bd 41a6 5dbc
00000030: 4748 063c ad51 a73d 1e55 74bc db1c 3b3c
00000040: 7145 a43b f02f ae3d 7b01 c53d 8514 813d
00000050: 26e8 2f3d 50f8 823d 752a 8cbd 3dcc 8a3d
00000060: cb10 5b3d 68cf 71bc e8be 2fbd 6996 1fbb
00000070: 7048 4dbd 28e0 963d 461e c8bc 667b dabb
00000080: 8702 2dbd 7c06 0f3d fb1c bfbc b7bf 9fbd
00000090: e321 7a3d 68a5 723d 03ae 613c bfbb e03c
000000a0: bb22 04bb 2136 823b 8079 9bbc ab44 74bd
000000b0: d39d 27bd 5f71 433d 0828 7e3d 42c8 933d
000000c0: 6f0c 813b 4394 dc3d 0781 b03c 5712 6c3c
000000d0: 175c 183c 1a58 3bbd ef01 a63d bad7 5dbd
000000e0: 440f 87bd 9152 7ebd 89dc 47bc 1133 e33d
000000f0: e552 babd 32ce 363d fcca 56bd a780 1d3d

post_layers.0.weight f4 [64, 64]
0.015979735 0.013698869 -0.04312431 0.04663303 0.11249072 -0.15345395 -0.082035415 -0.0053872503
0.08476586 -0.008702381 0.06403012 0.019293547 0.11631715 0.13694184 0.090205714 0.016314773
-0.039294463 -0.058266032 0.04289427 0.024998566 0.008598542 0.083852425 -0.06064311 0.005864493
-0.099306725 0.09599389 -0.07133309 -0.048174195 -0.074644774 0.011097813 0.06786274 0.012882618
-0.030959979 -0.05875495 -0.07035923 -0.08367291 0.07134249 0.13346869 0.027065575 0.057457726
0.10941012 -0.1208556 -0.12858036 -0.058968704 -0.060348276 0.07032284 0.03956073 -0.036936775
-0.08867511 0.024450677 -0.10602551 0.06638837 0.04254891 -0.03186686 0.06518431 0.027837392
-0.13096604 0.037607916 -0.07605134 -0.13601102 -0.13979287 -0.044853892 -0.08855661 0.07032771
0.07631646 0.124376886 0.027577104 -0.058595147 -0.10791861 -0.012316478 0.06813107 0.010962367
-0.047435183 0.09792626 -0.021657271 -0.0037002882 0.021128537 0.024557635 0.07817658 0.06758481
-0.14741616 0.109595254 0.031517386 -0.1133025 -0.04079101 -0.0002511068 -0.14844485 0.04786654
0.11234044 0.012160668 -0.108573936 -0.12530649 0.07670428 -0.13675171 0.1069914 -0.07727678
0.11569332 -0.08110618 0.11891425 -0.08085055 0.023751952 -0.01645454 0.032857344 -0.06381014
-0.06455464 0.07463711 0.009121193 -0.09858922 -0.068548664 -0.031740315 0.055041585 0.0638678
0.12137921 -0.010007452 0.028495096 -0.066400945 -0.04366253 0.08162798 -0.12650461 0.014865068
0.03676512 0.034128614 -0.13078801 -0.00078276056 -0.03256286 -0.028465781 -0.013517589 0.07411294
-5.6290748e-05 -0.020192731 -0.035002317 0.041931503 -0.06194405 -0.059564054 -0.07459958 -0.022922767
-0.05427304 -0.025267089 -0.020395191 -0.10988942 -0.10100591 0.12191534 -0.012213364 -0.10959319
0.080480844 -0.04173467 -0.0066812253 -0.11461973 -0.061230343 0.09091967 0.108689636 0.018086573
0.046601444 0.08381056 0.037738644 -0.051753007 0.10252184 -0.011552789 0.059880245 -0.045774296
0.016360821 0.0291353 0.06507673 -0.12927493 0.071476996 -0.11041875 -0.12039102 -0.02777666
-0.00017511226 0.09976969 0.04251439 0.08473457 0.057393182 -0.08560344 0.09298211 -0.09003343
-0.10994747 -0.0788518 0.03446385 0.057732172 0.016801465 -0.08514487 0.030145504 0.0873945
-0.018180046 0.08430618 0.0472651 -0.12217595 -0.13623948 -0.09690674 0.10494577 -0.029166583
-0.0047377367 0.0704685 0.027321031 0.08053874 -0.063442536 -0.07374335 -0.08978685 -0.025618864
0.05037379 -0.08142564 -0.02110912 0.1075271 0.025435202 -0.051117 -0.09703613 -0.10979454
-0.029861484 -0.12994508 0.051865663 -0.12543948 -0.031869568 0.10173681 -0.146738 0.12767324
-0.07512146 -0.091664515 -0.1375439 0.100915164 -0.11901257 0.057177525 -0.01702046 0.060318604
-0.13869353 -0.028357062 -0.018055357 -0.0607214 -0.12109133 -0.068467684 -0.082996786 0.06867405
-0.10445374 -0.089474596 0.06775125 -0.040206492 0.09541359 -0.021530364 -0.097156234 0.061435986
-0.0063406187 0.13606037 -0.093552686 -0.059928466 -0.035359032 -0.0154506415 -0.0038581667 -0.109231785
0.0318503 0.12004805 -0.024997495 -0.11884078 0.066613995 -0.051482182 -0.13261592 -0.0023815397
00000000: efe7 823c 3971 603c 1ea3 30bd 4702 3f3d
00000010: 8961 e63d 0823 1dbe 2f02 a8bd 8887 b0bb
00000020: b999 ad3d 6e94 0ebc 3922 833d 800d 9e3c
00000030: b037 ee3d 7b3a 0c3e c6bd b83d 8fa6 853c
00000040: 3bf3 20bd 5da8 6ebd e7b1 2f3d cbc9 cc3c
00000050: e6e0 0c3c d2ba ab3d e964 78bd ef2a c03b
00000060: 5361 cbbd 7298 c43d 1517 92bd 4e52 45bd
00000070: 5cdf 98bd 9ad3 353c 9ffb 8a3d 9e11 533c
00000080: c89f fdbc 08a9 70bd 8018 90bd b45c abbd
00000090: 031c 923d 04ac 083e a0b8 dd3c cb58 6b3d
000000a0: 6a12 e03d 2483 f7bd 92aa 03be 2b89 71bd
000000b0: c12f 77bd 6c05 903d 6f0a 223d 044b 17bd
000000c0: 4c9b b5bd c94c c83c e723 d9bd a0f6 873d
000000d0: c447 2e3d d386 02bd 5a7f 853d 3e0b e43c
000000e0: f61b 06be c20a 1a3d cec0 9bbd 7946 0bbe
000000f0: dd25 0fbe b7b8 37bd 2b5d b5bd f907 903d
00000100: ce4b 9c3d 4fb9 fe3d 61e9 e13c 7701 70bd
00000110: 6f04 ddbd 0ecb 49bc 4d88 8b3d 809b 333c
00000120: 654b 42bd 908d c83d 976a b1bc 8980 72bb
00000130: c115 ad3c 182d c93c 0b1b a03d e869 8a3d
00000140: 43f4 16be 7a73 e03d 6018 013d 240b e8bd
00000150: 7914 27bd fca6 83b9 ed01 18be b40f 443d
00000160: bf12 e63d 8a3d 473c 035c debd 5850 00be
00000170: 2217 9d3d a408 0cbe 4f1e db3d 4a43 9ebd
00000180: 9ff0 ec3d ff1a a6bd 5089 f33d f994 a5bd
00000190: 7493 c23c accb 86bc 6c95 063d e4ae 82bd
000001a0: 3935 84bd 57db 983d 0e71 153c 25e9 c9bd
000001b0: 3e63 8cbd 2202 02bd 4973 613d 1fcd 823d
000001c0: aa95 f83d 4cf6 23bc 8c6e e93c 38fd 87bd
000001d0: 7bd7 32bd 922c a73d 6d8a 01be 9d8c 733c
000001e0: 0697 163d 72ca 0b3d 4bed 05be 2c32 4dba
000001f0: a260 05bd 1231 e9bc e178 5dbc 86c8 973d
00000200: bb19 6cb8 3a6b a5bc 975e 0fbd 5ec0 2b3d
00000210: 0bb9 7dbd 70f9 73bd aac7 98bd 87c8 bbbc
00000220: 684d 5ebd edfc cebc d113 a7bc b40d e1bd
00000230: 30dc cebd c0ae f93d 901a 48bc 6572 e0bd
00000240: 24d3 a43d f9f1 2abd 2eee dabb c0bd eabd
00000250: abcc 7abd 1834 ba3d ac98 de3d 4b2a 943c
00000260: 28e1 3e3d dfa4 ab3d d693 1a3d f6fa 53bd
00000270: f8f6 d13d e947 3dbc fd44 753d d47d 3bbd
00000280: 2107 863c 27ad ee3c f346 853d a660 04be
00000290: 8862 923d 3a23 e2bd 918f f6bd e18b e3bc
000002a0: 579e 37b9 0d54 cc3d 9223 2e3d 5189 ad3d
000002b0: 1d15 6b3d db50 afbd 686d be3d 7263 b8bd
000002c0: 242c e1bd 0d7d a1bd f729 0d3d 9278 6c3d
000002d0: 3aa3 893c 6f60 aebd b4f3 f63c e3fb b23d
000002e0: 52ee 94bc b8a8 ac3d 0d99 413d 6237 fabd
000002f0: 5d82 0bbe 0a77 c6bd cfed d63d c2ee eebc
00000300: 043f 9bbb ca51 903d 5bd0 df3c 7ff1 a43d
00000310: 29ee 81bd c106 97bd 2be2 b7bd a7de d1bc
00000320: bf54 4e3d 7cc2 a6bd 09ed acbc 2b37 dc3d
00000330: 7c5d d03c 0f60 51bd e1ba c6bd f6db e0bd
00000340: 12a0 f4bc 5310 05be 1771 543d 3573 00be
00000350: aa89 02bd 635b d03d 7c42 16be c6bc 023e
00000360: 48d9 99bd 9bba bbbd 4fd8 0cbe 9cac ce3d
00000370: ddbc f3bd fb32 6a3d 7e6e 8bbc a410 773d
00000380: ad05 0ebe 124d e8bc d4e8 93bc 01b7 78bd
00000390: bbfe f7bd c938 8cbd 38fa a9bd fba4 8c3d
000003a0: d8eb d5bd 753e b7bd 2bc1 8a3d 90af 24bd
000003b0: 3368 c33d 7260 b0bc d9f9 c6bd 4da4 7b3d
000003c0: f7c4 cfbb 6953 0b3e 8d98 bfbd 8d77 75bd
000003d0: a2d4 10bd b024 7dbc 4cd9 7cbb eab4 dfbd
000003e0: 7675 023d c1db f53d 8cc7 ccbc cb62 f3bd
000003f0: eb6c 883d fbde 52bd 78cc 07be 9b13 1cbb

post_layers.0.bias f4 [64]
0.11093221 0.11797769 0.040072925 -0.020999076 -0.08803232 0.049386874 -0.028141955 -0.06156714
0.013811993 -0.07623741 0.0756125 -0.0808062 0.116283506 0.11917271 -0.10372629 -0.14557077
0.11951227 -0.0212338 -0.047764245 0.03579887 0.01066083 -0.1496413 0.039182503 0.1002285
0.026776036 0.08873268 -0.0847446 -0.031131417 -0.07480385 -0.0059591117 -0.14909253 0.08584514
0.0066476744 -0.05514481 -0.07550518 -0.07583618 0.0004690267 0.024881717 -0.07980185 -0.036575165
0.13057217 -0.04637791 -0.03810175 0.0579299 -0.07726495 0.09982379 -0.07659367 0.11396926
-0.12918718 0.06926535 0.113978565 -0.03286446 -0.04603231 -0.06329946 0.031581998 0.09102981
0.053147662 -0.030545106 0.14404485 0.1359416 -0.12886943 -0.05665156 0.013687853 -0.06787017
00000000: 6d30 e33d 4a9e f13d 8223 243d 4106 acbc
00000010: 4a4a b4bd e449 4a3d f589 e6bc d32d 7cbd
00000020: b34b 623c 5c22 9cbd bada 9a3d b97d a5bd
00000030: 0c26 ee3d d210 f43d 736e d4bd 8110 15be
00000040: d9c2 f43d 82f2 adbc 71a4 43bd d6a1 123d
00000050: c3aa 2e3c 923b 19be d57d 203d 9a44 cd3d
00000060: 6b59 db3c 7bb9 b53d 948e adbd 5007 ffbc
00000070: c332 99bd a744 c3bb b6ab 18be 94cf af3d
00000080: bcd4 d93b 86df 61bd 76a2 9abd 0050 9bbd
00000090: b3e7 f539 bed4 cb3c 276f a3bd d7cf 15bd
000000a0: b6b4 053e c3f6 3dbd 9510 1cbd e747 6d3d
000000b0: 163d 9ebd 6a70 cc3d 24dd 9cbd b768 e93d
000000c0: a549 04be feda 8d3d 986d e93d e29c 06bd
000000d0: 608c 3cbd 26a3 81bd 205c 013d d66d ba3d
000000e0: 5db1 593d bb39 fabc 7e80 133e 4634 0b3e
000000f0: 59f6 03be 770b 68bd 0443 603c 84ff 8abd

post_layers.1.weight f4 [64, 64]
0.038768988 0.09958175 -0.048209023 -0.02153948 -0.011533188 -0.06382552 0.11009867 0.012517303
-0.0981541 0.10722259 0.0666568 -0.06975675 -0.120188236 -0.02826273 0.013284753 -0.035380952
-0.10244544 0.013128128 0.027331807 0.14212781 0.06045845 -0.19593443 0.0242174 0.1329377
0.0756606 0.12199899 0.031180842 0.00568094 0.030094154 0.08902903 -0.024441384 0.1462359
-0.028309675 -0.019185307 -0.115315236 -0.032809354 -0.09713587 -0.08874366 0.061629288 -0.025848517
-0.00308812 -0.10981606 0.08520939 -0.036445476 0.062994756 -0.023151463 -0.06858118 -0.06348219
0.0741764 -0.02982682 -0.048671912 -0.13918811 -0.028130636 0.072232604 0.060594 -0.07718466
0.12902023 -0.0036891585 0.028344179 0.12362636 -0.113446996 -0.058377765 0.038067415 0.0010536996
0.11538108 -0.112563536 0.061127115 0.12422761 -0.08432438 -0.123870686 0.04771347 0.11031242
0.012442145 0.008265118 -0.013680364 0.0028823973 0.006562846 0.0061454442 -0.10107606 -0.05747048
0.058504064 -0.14173642 0.035213936 0.09596822 0.068549626 0.07141273 0.08694662 -0.09326349
0.058825586 0.04561017 -0.10784026 0.012408497 0.065768376 -0.1570023 -0.11031423 -0.093637615
-0.11611862 -0.08647156 -0.018517667 -0.007458217 0.04690894 -0.15460263 -0.045872223 -0.0661158
0.09827095 -0.023093749 -0.1333699 -0.053408828 0.10821812 0.013633913 -0.09666761 -0.010560445
0.088931315 0.09243132 -0.03830325 0.051990904 0.06885276 0.12029837 -0.035446398 0.09598829
0.0077175847 0.028387154 0.0943993 0.015415952 -0.14372203 0.072363034 0.11050901 -0.09977401
0.10855912 0.06677078 -0.110162556 -0.097463556 -0.14365962 0.05502966 0.090758055 -0.10494807
-0.018005807 -0.116723485 -0.11339429 -0.021079497 -0.021151898 -0.102335624 -0.058866594 -0.017199647
-0.03981725 0.1164627 -0.11522883 -0.12644157 -0.034472186 -0.079796515 -0.0037759708 0.12591526
-0.12000816 0.11167456 0.007825858 0.034120716 0.08734608 -0.027697854 0.11320171 -0.072001494
-0.10413034 -0.09099682 0.039587792 0.020746859 0.024125282 -0.069949664 -0.026184062 0.07818454
-0.07772793 0.0047928183 -0.07199459 -0.10891819 0.007814001 0.1269677 0.11888571 0.04992658
0.12086439 0.05216395 0.06444106 0.047174025 -0.0983133 -0.0051834355 0.0059982757 0.025628595
0.03728306 0.07562792 0.069413565 -0.08914848 0.008202855 -0.037007302 0.12062753 0.13007438
0.05729182 0.08462234 0.03616051 -0.059566334 -0.14402077 0.051361196 0.08906856 0.05450399
-0.058679353 -0.10302503 -0.05742181 0.12223957 0.026157469 -0.11456563 -0.02745552 0.09417177
0.07151183 -0.0027243597 0.061744176 0.043006934 0.06468282 -0.041426554 0.06182352 0.13135591
0.11238961 -0.08960363 0.08772564 0.10753169 -0.029746408 -0.04394887 0.022094015 0.0702229
-0.017344844 0.043347035 -0.053930733 0.14391673 -0.0085353255 0.009182279 0.06174608 -0.009319866
0.06287533 0.019728545 0.089342356 -0.029093875 -0.11240339 0.068786934 -0.006274401 0.02334553
-0.04429524 0.08274996 0.11129477 -0.03416056 0.007661401 0.07476832 0.009110498 0.032397367
0.117808305 0.08072048 -0.08126409 0.09264982 0.108589716 0.03302215 -0.014453218 0.019866059
00000000: 3bcc 1e3d 84f1 cb3d d376 45bd 9073 b0bc
00000010: b2f5 3cbc f4b6 82bd 697b e13d 6015 4d3c
00000020: 0405 c9bd 8497 db3d 5c83 883d a0dc 8ebd
00000030: 4025 f6bd 3e87 e7bc 4ba8 593c 9eeb 10bd
00000040: eace d1bd 5c17 573c f4e6 df3c f489 113e
00000050: 48a3 773d 09a3 48be 9263 c63c d220 083e
00000060: f2f3 9a3d 9bda f93d f76e ff3c 2e27 ba3b
00000070: 0488 f63c da54 b63d 4c39 c8bc ddbe 153e
00000080: b1e9 e7bc 812a 9dbc 652a ecbd 1a63 06bd
00000090: 2cef c6bd 3cbf b5bd fe6e 7c3d 45c0 d3bc
000000a0: 0e62 4abb 3ee7 e0bd 4382 ae3d da47 15bd
000000b0: 6503 813d 23a8 bdbc 4a74 8cbd f302 82bd
000000c0: cce9 973d 6057 f4bc 335c 47bd 5487 0ebe
000000d0: 3872 e6bc b0ee 933d 6a31 783d fe12 9ebd
000000e0: e11d 043e cfc5 71bb 0d32 e83c d12f fd3d
000000f0: e656 e8bd 861d 6fbd 94ec 1b3d 4b1c 8a3a
00000100: ea4c ec3d b687 e6bd 6d60 7a3d 0c6b fe3d
00000110: 43b2 acbd eaaf fdbd 336f 433d 7aeb e13d
00000120: 23da 4b3c 6b6a 073c 9b23 60bc 9ae6 3c3b
00000130: 240d d73b b95f c93b f700 cfbd 2b66 6bbd
00000140: f5a1 6f3d 5a23 11be 7d3c 103d fc8a c43d
00000150: bf63 8c3d d640 923d 1211 b23d ee00 bfbd
00000160: 19f3 703d bbd1 3a3d 5bdb dcbd 024d 4b3c
00000170: 92b1 863d 36c5 20be 6dec e1bd 14c5 bfbd
00000180: 99cf edbd 0018 b1bd 5db2 97bc 0f64 f4bb
00000190: 9723 403d 2750 1ebe 83e4 3bbd b867 87bd
000001a0: 4842 c93d 1a2f bdbc 1e92 08be 37c3 5abd
000001b0: 76a1 dd3d c760 5f3c abf9 c5bd b705 2dbc
000001c0: 9f21 b63d a24c bd3d dee3 1cbd 6af4 543d
000001d0: ad02 8d3d fe5e f63d 3e30 11bd 8295 c43d
000001e0: cbe3 fc3b 2d8c e83c 6c54 c13d 3093 7c3c
000001f0: de2b 13be 1233 943d 8c52 e23d 5156 ccbd
00000200: 3e54 de3d 1ebf 883d e89c e1bd f99a c7bd
00000210: 821b 13be c866 613d 5cdf b93d 04ef d6bd
00000220: ea80 93bc b90c efbd 443b e8bd e9ae acbc
00000230: bf46 adbc 5795 d1bd 191e 71bd 46e6 8cbc
00000240: 6a17 23bd ff83 ee3d 18fd ebbd e679 01be
00000250: b532 0dbd 5b6c a3bd 4776 77bb eeef 003e
00000260: d7c6 f5bd a2b5 e43d 0738 003c 2ac2 0b3d
00000270: 80e2 b23d 9ce6 e2bc 4cd6 e73d 8575 93bd
00000280: 4a42 d5bd 8a5c babd cf26 223d 51f5 a93c
00000290: 62a2 c53c c541 8fbd f57f d6bc 371f a03d
000002a0: d22f 9fbd 130d 9d3b e671 93bd 8010 dfbd
000002b0: 4c06 003c d203 023e 5a7a f33d d07f 4c3d
000002c0: c087 f73d dea9 553d adf9 833d 8d39 413d
000002d0: 7c58 c9bd cfd9 a9bb 2f8d c43b 0ff3 d13c
000002e0: 1fb6 183d d0e2 9a3d b328 8e3d 7a93 b6bd
000002f0: 4465 063c f894 17bd 910b f73d 3832 053e
00000300: d4aa 6a3d 7a4e ad3d 0b1d 143d d4fb 73bd
00000310: 2e7a 13be 1e60 523d 9469 b63d 933f 5f3d
00000320: c359 70bd c9fe d2bd 2233 6bbd bd58 fa3d
00000330: 3048 d63c 63a1 eabd 66ea e0bc 21dd c03d
00000340: cb74 923d 2c8b 32bb 76e7 7c3d 0a28 303d
00000350: 6d78 843d e4ae 29bd a93a 7d3d 2a82 063e
00000360: 862c e63d 1c82 b7bd 80a9 b33d 9339 dc3d
00000370: bdae f3bc bb03 34bd 82fe b43c 06d1 8f3d
00000380: c616 8ebc a98c 313d 79e6 5cbd e85e 133e
00000390: c0d7 0bbc 4571 163c 75e9 7c3d 5ab2 18bc
000003a0: c8c4 803d c29d a13c 20f9 b63d 4756 eebc
000003b0: c033 e6bd 2ae0 8c3d 7e99 cdbb 203f bf3c
000003c0: ed6e 35bd d078 a93d 83ee e33d f2eb 0bbd
000003d0: 7d0c fb3b 2220 993d 3344 153c 1ab3 043d
000003e0: 7b45 f13d c750 a53d ca6d a6bd 30bf bd3d
000003f0: 4964 de3d 3c42 073d 31cd 6cbc 25be a23c

post_layers.1.bias f4 [64]
0.025112841 0.093448326 0.059157975 -0.103666015 -0.04459172 0.028250132 -0.042181138 0.08409122
0.11220714 0.12469598 -0.083464965 -0.07643322 -0.0072132475 -0.0066974163 0.032459218 -0.054445997
-0.14078608 -0.03906199 0.0014400348 0.009074699 0.11057715 0.10512266 0.08680691 -0.009333261
0.07704728 -0.0045091594 -0.070239246 -0.024624508 -0.024004828 -0.017948924 -0.04809167 -0.10465108
0.0952868 0.063433476 -0.11027488 0.06633545 -0.08112145 0.019837359 0.07242612 0.12332519
-0.014058451 0.10287146 9.66211e-05 -0.045980576 0.015409536 0.10374397 -0.020959659 0.10132714
-0.07478646 0.044598084 0.053356003 -0.017402288 0.06507238 0.009222941 0.09014107 -0.035778552
0.038298186 -0.08914288 0.10121285 0.1045565 -0.07544335 -0.006889852 0.012577834 0.06751619
00000000: 72b9 cd3c d661 bf3d a24f 723d d94e d4bd
00000010: cfa5 36bd d26c e73c 21c6 2cbd 0438 ac3d
00000020: dbcc e53d 9b60 ff3d aeef aabd 0589 9cbd
00000030: 1b5d ecbb 0076 dbbb f5f3 043d c402 5fbd
00000040: 3a2a 10be 77ff 1fbd 8dbf bc3a 0cae 143c
00000050: 4676 e23d 8d4a d73d d2c7 b13d 89ea 18bc
00000060: f7ca 9d3d 92c1 93bb 98d9 8fbd 56b9 c9bc
00000070: c6a5 c4bc 9f09 93bc c5fb 44bd 4e53 d6bd
00000080: ba25 c33d 69e9 813d ccd7 e1bd e1da 873d
00000090: 0123 a6bd f581 a23c 2554 943d eb91 fc3d
000000a0: 6b55 66bc 46ae d23d 0fa1 ca38 2156 3cbd
000000b0: 4778 7c3c b877 d43d 97b3 abbc 9b84 cf3d
000000c0: a529 99bd 7bac 363d d38b 5a3d 3e8f 8ebc
000000d0: ab44 853d d11b 173c e29b b83d 888c 12bd
000000e0: 8fde 1c3d 8b90 b6bd af48 cf3d b821 d63d
000000f0: 0b82 9abd 45c4 e1bb 4213 4e3c ee45 8a3d

post_layers.2.weight f4 [64, 64]
0.011572961 0.053788934 0.11887871 -0.08576461 0.09899554 -0.11050403 0.029864723 -0.10977929
0.095022656 -0.10546063 0.029690951 -0.0075423056 -0.008567029 -0.107520916 -0.058528848 -0.075579904
0.0920704 0.048339725 0.014248951 0.052741665 0.0146025745 0.12008991 -0.09778398 0.05855507
0.04659043 0.17688984 -0.08877873 0.036728464 -0.074683726 -0.013478469 0.05414465 -0.010401034
-0.028769312 0.023786759 0.047823418 -0.02543263 -0.009164365 0.0053030155 0.05453844 0.017242873
0.12614512 -0.034025367 -0.002300778 0.087959364 0.068912216 -0.12204075 0.002778694 0.033786997
0.093753815 0.05729338 -0.089667335 -0.022038812 0.09749942 -0.1312959 0.047977723 -0.0360754
0.028011445 -0.049691662 0.09496369 0.10755948 -0.02453857 -0.07314166 -0.041327406 0.012527489
-0.11532508 0.11527597 -0.0052187736 -0.08519803 -0.023988118 -0.074687526 -0.10608349 0.054740075
-0.04905179 -0.12617965 0.026700536 -0.10991856 -0.0073386664 -0.06598966 -0.04783451 -0.07799509
0.028413473 -0.09608623 -0.023558412 0.05301517 0.044875074 0.0792055 0.051193114 -0.006343187
0.051248815 0.016219316 -0.09378725 0.026039248 0.037045993 0.053947113 -0.10856149 -0.061534695
-0.11795623 0.013246534 -0.103942506 -0.04587632 -0.021745516 0.10296619 -0.092928246 0.10775376
0.039262213 0.08730117 -0.011933815 0.11829671 -0.07666761 -0.08697381 0.013632538 -0.07496124
0.11772209 -0.0031087594 0.053696565 0.021155579 0.02413152 -0.02755255 0.054426953 -0.035054754
-0.007666652 0.038094632 0.10522246 0.10927002 -0.013295595 -0.08952201 -0.071987085 0.041971
-0.023820106 -0.07021945 0.1649778 0.1073524 0.016069295 0.027855214 -0.046989545 0.070403755
0.06431046 -0.08683377 -0.13799745 0.07120043 -0.07903089 -0.060372107 -0.0052724443 0.11585614
0.19668289 -0.03323484 -0.0713527 -0.09411506 0.12717916 0.021970559 0.1024249 0.1160393
0.061740432 0.21848539 -0.11603749 0.16815726 -0.04362045 -0.0027354176 -0.046453107 0.006043468
-0.03725509 0.20328704 0.007742842 -0.12653519 0.026982501 0.10353678 -0.043922376 -0.15714721
-0.1240387 -0.08032985 0.011340572 -0.074166976 0.05546058 0.10069375 0.106768735 -0.11315982
-0.052462563 0.086828694 -0.03485496 0.1072799 0.048164755 0.07276262 -0.13637106 0.030543843
0.036516167 0.20270942 0.15486695 0.077146195 0.016893094 0.006087724 -0.016706092 0.14029449
-0.0887124 -0.06248617 0.003622408 -0.11347731 0.022414306 0.0984678 0.118545584 0.086093955
-0.10682914 0.06399271 0.14152306 0.038910642 -0.103744686 -0.06105156 0.009792923 0.015690152
-0.2069313 0.057736818 0.09247297 0.029582206 0.0010968741 -0.08346563 -0.11341838 -0.012682623
0.025288653 -0.21267962 -0.018773638 -0.24468605 0.02632776 -0.0442357 -0.100784495 -0.14374202
-0.055882953 -0.1304963 0.012073526 -0.059437737 -0.012700599 -0.08981539 -0.06688925 0.011183581
-0.0109924795 0.09869634 -0.07723861 0.12347751 0.09408568 0.12404631 0.07799449 0.08669396
0.052213702 0.023258623 0.10982405 0.11224835 -0.09006709 -0.041705772 0.12212391 -0.14455935
0.1282765 -0.08381366 0.026819982 0.057292428 -0.07477051 -0.007353712 0.0020584273 -0.098581575
00000000: 849c 3d3c c951 5c3d ae76 f33d 5ba5 afbd
00000010: 2cbe ca3d f04f e2bd dda6 f43c f7d3 e0bd
00000020: 3d9b c23d befb d7bd 703a f33c 7225 f7bb
00000030: b95c 0cbc ed33 dcbd f2bb 6fbd a3c9 9abd
00000040: 688f bc3d e0ff 453d 6f74 693c a507 583d
00000050: a33f 6f3c b3f1 f53d f842 c8bd 71d7 6f3d
00000060: 9bd5 3e3d 9c22 353e 9fd1 b5bd 9670 163d
00000070: c8f3 98bd ccd4 5cbc c8c6 5d3d 1969 2abc
00000080: 9fad ebbc 73dc c23c 7de2 433d 1758 d0bc
00000090: 2226 16bc ebc4 ad3b b363 5f3d ed40 8d3c
000000a0: 302c 013e 2f5e 0bbd a6c8 16bb 0a24 b43d
000000b0: d921 8d3d 80f0 f9bd c01a 363b 3c64 0a3d
000000c0: 0002 c03d 77ac 6a3d 82a3 b7bd bd8a b4bc
000000d0: c7ad c73d 6f72 06be 4a84 443d ccc3 13bd
000000e0: 4278 e53c 7c89 4bbd 537c c23d 2548 dc3d
000000f0: 1c05 c9bc 4bcb 95bd ed46 29bd 1940 4d3c
00000100: 8e2f ecbd cf15 ec3d 3f02 abbb 4e7c aebd
00000110: bb82 c4bc c6f5 98bd 4d42 d9bd 2137 603d
00000120: 88ea 48bd 3d35 01be 15bb da3c fb1c e1bd
00000130: 3279 f0bb 9625 87bd 1fee 43bd e4bb 9fbd
00000140: 5fc3 e83c dbc8 c4bd 92fd c0bc 6f26 593d
00000150: edce 373d 7e36 a23d dfaf 513d 82da cfbb
00000160: 47ea 513d 5fde 843c 8813 c0bd 4350 d53c
00000170: 8abd 173d a6f7 5c3d 7d55 debd ce0b 7cbd
00000180: 0993 f1bd fe07 593c cfdf d4bd cfe8 3bbd
00000190: a723 b2bc f0df d23d 2a51 bebd 01ae dc3d
000001a0: 6ad1 203d f5ca b23d 0c86 43bc 8c45 f23d
000001b0: e803 9dbd 531f b2bd 025b 5f3c 4785 99bd
000001c0: 4718 f13d 54bc 4bbb eef0 5b3d 774e ad3c
000001d0: 77af c53c e3b5 e1bc ccee 5e3d 9395 0fbd
000001e0: 8a38 fbbb 1e09 1c3d e07e d73d f6c8 df3d
000001f0: c4d5 59bc 5157 b7bd f76d 93bd c9e9 2b3d
00000200: 6222 c3bc 37cf 8fbd f1ef 283e 93db db3d
00000210: c1a3 833c 9e30 e43c 1c78 40bd d82f 903d
00000220: 34b5 833d e7d5 b1bd 344f 0dbe 88d1 913d
00000230: f2da a1bd be48 77bd 78c4 acbb fc45 ed3d
00000240: 3d67 493e 4121 08bd 5d21 92bd 66bf c0bd
00000250: 413b 023e 9afb b33c 25c4 d13d 03a6 ed3d
00000260: 89e3 7c3d a2ba 5f3e 10a5 edbd 6b31 2c3e
00000270: 5bab 32bd b144 33bb 9d45 3ebd 4908 c63b
00000280: cb98 18bd 7a2a 503e abb7 fd3b 7192 01be
00000290: 680a dd3c 170b d43d f3e7 33bd 33eb 20be
000002a0: 0008 febd fa83 a4bd cecd 393c dbe4 97bd
000002b0: a22a 633d 8638 ce3d 91a9 da3d 56c0 e7bd
000002c0: fce2 56bd 3ed3 b13d 13c4 0ebd 90b5 db3d
000002d0: 6848 453d 9204 953d dba4 0bbe 1537 fa3c
000002e0: fa91 153d 0f93 4f3e 7195 1e3e d3fe 9d3d
000002f0: 6363 8a3c 887b c73b 37db 88bc 5ca9 0f3e
00000300: d9ae b5bd 80f1 7fbd ec65 6d3b cb66 e8bd
00000310: 359e b73c 7ca9 c93d 07c8 f23d 0752 b03d
00000320: 3cc9 dabd 9c0e 833d 6ceb 103e c460 1f3d
00000330: 1878 d4bd 3311 7abd 7f72 203c a288 803c
00000340: cce5 53be 717d 6c3d 7862 bd3d 6256 f23c
00000350: fdc4 8f3a 07f0 aabd e547 e8bd c7ca 4fbc
00000360: 262a cf3c b0c8 59be 2ccb 99bc fb8e 7abe
00000370: 51ad d73c 7e30 35bd 1a68 cebd 1c31 13be
00000380: 86e5 64bd d2a0 05be 0ad0 453c fc74 73bd
00000390: 2c16 50bc 22f1 b7bd 3bfd 88bd 573b 373c
000003a0: cd19 34bc 4f21 ca3d 472f 9ebd c7e1 fc3d
000003b0: feaf c03d fe0b fe3d 93bb 9f3d 9a8c b13d
000003c0: 09de 553d de88 be3c 6eeb e03d 77e2 e53d
000003d0: 1875 b8bd acd3 2abd 1a1c fa3d 5e07 14be
000003e0: ea5a 033e 7fa6 abbd 94b5 db3c 77ab 6a3d
000003f0: 4821 99bd 68f7 f0bb aee6 063b 23e5 c9bd

post_layers.2.bias f4 [64]
0.0337399 -0.10229943 -0.09724825 -0.0038794135 -0.039102662 -0.06341417 -0.002015332 0.10953465
0.091033 0.054307416 -0.07899947 -0.035983253 0.0074454322 0.002984628 0.11664867 0.032024298
0.07295538 0.13243166 0.07534917 -0.02480644 -0.12949637 0.09812376 -0.08678187 -0.039947517
0.05681226 0.11469902 -0.060351145 -0.047062896 -0.10258715 -0.06223594 0.091659136 -0.008827519
-0.101185516 0.101402074 -0.005249293 -0.11595739 0.021867828 0.019407447 0.061492234 -0.021475522
-0.10490048 0.07079221 0.022591634 -0.025386672 0.05041362 0.015409625 0.015871838 -0.008594051
0.05364725 0.071753636 0.035583552 0.04414056 -0.0023205744 0.13570108 0.08399669 0.028647808
-0.03847506 0.094715856 0.041294895 -0.07008529 -0.004371998 0.04002849 0.08726589 0.106416486
00000000: d932 0a3d 5d82 d1bd 172a c7bd c23d 7ebb
00000010: 1d2a 20bd 4adf 81bd a913 04bb b453 e03d
00000020: 826f ba3d 7471 5e3d 79ca a1bd 2d63 13bd
00000030: d0f8 f33b c099 433b 7fe5 ee3d e92b 033d
00000040: a169 953d 2a9c 073e aa50 9a3d e036 cbbc
00000050: b29a 04be 1cf5 c83d b1ba b1bd 02a0 23bd
00000060: f9b3 683d 52e7 ea3d c332 77bd 06c5 40bd
00000070: 3619 d2bd 1deb 7ebd c9b7 bb3d 4ca1 10bc
00000080: 5a3a cfbd e4ab cf3d 4302 acbb 117b edbd
00000090: 2924 b33c 5efc 9e3c 48df 7b3d 6fed afbc
000000a0: 10d6 d6bd 82fb 903d 1712 b93c b6f7 cfbc
000000b0: 837e 4e3d a778 7c3c a805 823c 10ce 0cbc
000000c0: 38bd 5b3d 92f3 923d 0fc0 113d bbcc 343d
000000d0: c714 18bb 39f5 0a3e 7506 ac3d cfae ea3c
000000e0: 0698 1dbd 63fa c13d d624 293d e088 8fbd
000000f0: fa42 8fbb eaf4 233d 75b8 b23d e3f0 d93d

output_layer.weight f4 [1, 64]
-0.05267859 -0.007595582 -0.12277488 0.047742803 0.074534774 0.13112797 0.14549017 -0.040057663
0.104016736 0.057161063 -0.022651128 0.04311075 -0.09404531 0.025428833 0.113082774 -0.12718609
-0.09315455 0.029976854 0.07525198 0.031669315 -0.035578627 -0.08258466 0.060132574 -0.13201219
0.12197945 -0.020840172 0.09710083 0.08769708 0.010534704 0.0829549 -0.08444084 -0.12819794
-0.076219454 -0.09620438 -0.2315526 -0.14743842 -0.081475995 0.12400011 0.08891078 -0.06791037
0.11728703 0.10448834 0.05778952 -0.11606245 0.12617722 -0.10621022 -0.102851495 0.078100756
-0.11107209 -0.10356182 0.11416523 -0.07365941 0.1323967 0.0793592 -0.03124441 0.13392171
-0.099272594 -0.091373675 0.029063916 0.10257145 0.13725942 -0.069610246 0.0436429 -0.078313775
00000000: 81c5 57bd 5ce4 f8bb 6571 fbbd f58d 433d
00000010: b0a5 983d 6946 063e 60fb 143e 8113 24bd
00000020: ba06 d53d b821 6a3d dc8e b9bc e694 303d
00000030: d49a c0bd 2150 d03c f197 e73d 123d 02be
00000040: d0c7 bebd 0592 f53c b61d 9a3d afb7 013d
00000050: e5ba 11bd 2522 a9bd 934d 763d 342e 07be
00000060: 5dd0 f93d 02b9 aabc cddc c63d 879a b33d
00000070: c099 2c3c 42e4 a93d 52ef acbd 5246 03be
00000080: f218 9cbd cd06 c5bd 201c 6dbe 19fa 16be
00000090: e3dc a6bd c5f3 fd3d db16 b63d 9814 8bbd
000000a0: 2f34 f03d fcfd d53d b4b4 6c3d 26b2 edbd
000000b0: 9a34 013e be84 d9bd cea3 d2bd 4af3 9f3d
000000c0: c479 e3bd 3818 d4bd 76cf e93d bfda 96bd
000000d0: 0093 073e 1487 a23d 47f4 ffbc c622 093e
000000e0: 6e4f cbbd 1f22 bbbd 7317 ee3c fb10 d23d
000000f0: bc8d 0c3e d18f 8ebd e6c2 323d f962 a0bd

gc_layers.0.lin_f.weight f4 [64, 160]
0.019493116 0.09149421 0.06489205 0.046857763 0.07552824 -0.06411697 0.06608579 -0.05264267
-0.045012485 -0.028720558 -0.021130009 0.08091469 0.08150427 -0.07643349 -0.06397661 0.06894094
-0.04021698 0.06809779 -0.0086547565 -0.05403598 0.051569324 0.001329519 -0.038239073 -0.017722337
0.0042573703 0.030283883 -0.05194771 0.037770823 -0.01661745 0.004631464 -0.051519766 -0.06391118
0.009651936 -0.06924341 0.023454089 0.077485055 0.053103443 0.072108746 -0.0384793 -0.059339195
0.013478944 0.05328787 0.042370457 -0.07521545 0.0368557 -0.0019641416 -0.091657095 0.0026228153
0.033926006 0.050240844 -0.029656244 0.0318107 0.02192425 -0.0018386362 0.0061164093 0.08255525
-0.046404846 -0.057089765 -0.022876821 -0.10368663 -0.016161842 -0.045955192 0.05773136 0.044866353
0.0471746 0.049131513 -0.0014205633 -0.08404704 -0.019536225 -0.014162057 -0.059911225 -0.03142951
-0.003525318 0.0018105214 0.035898205 0.041524045 -0.06316013 0.05865458 -0.011485155 0.06711528
-0.041803084 -0.053700615 -0.013395599 -0.01732585 0.0053972085 -0.05338537 -0.06584581 -0.04389223
0.065453514 0.0832544 0.08901485 0.010722259 -0.057950083 0.010383853 0.07011715 0.00999492
-0.00478989 0.013444815 -0.03164025 -0.008395946 -0.01967227 0.020991 -0.08432055 -0.036920253
0.033170715 0.031541236 -0.038906936 -0.00021124103 0.05122607 -0.035458222 -0.07523014 0.033829644
-0.04719968 -0.06348662 -0.067747355 0.009833975 0.005436414 -0.027916523 -0.016485926 0.022097882
-0.023722932 0.05519529 0.03299839 -0.050532255 0.04411852 0.007626947 0.054149013 -0.0009089963
0.113028705 0.056440476 0.047784183 0.049849298 0.0421494 0.010063772 -0.08261858 0.016937563
-0.036853045 -0.020970114 0.084421664 -0.034627933 -0.06814412 0.026660336 -0.0042675915 0.021253917
0.062295917 0.020989925 0.016376149 0.007740216 0.041570526 -0.057721045 -0.06433152 0.00015931476
-0.031260327 -0.01630329 -0.08923431 0.005747753 -0.08714154 -0.016796771 0.004710357 0.036529124
-0.016662212 0.010043293 -0.041333336 0.033249993 -0.044174213 -0.028172681 -0.041601896 0.07468244
-0.07834999 -0.082511954 0.015926335 -0.06558189 -0.055223152 -0.035656095 -0.07210854 0.015135658
-0.047540553 -0.081487566 0.049478333 0.058180537 0.024268216 0.05359175 0.067923486 -0.040722065
-0.06516106 -0.036130328 0.044831265 -0.07604086 0.007258802 -0.036352362 -0.03617654 -0.038771547
0.003826371 0.00042754537 -0.09716612 -0.016666865 0.029935092 -0.06341846 -0.057206728 -0.029246185
-0.0014358001 0.055285387 -0.08935305 0.013509449 0.050323986 0.08335339 -0.045432325 0.010133071
-0.06185996 0.03024401 0.011303827 -0.049492806 0.031116217 -0.014943724 0.033813477 0.031724337
0.011490986 -0.05082405 0.019418044 -0.010189464 0.055416062 0.022665106 -0.010943931 0.019804657
0.006795348 -0.029334031 -0.0263049 0.043986488 0.016023254 -0.057414554 0.035870194 -0.06445348
-0.05569668 0.03430039 0.04385868 -0.022729026 0.016182264 -0.04033371 -0.033122282 -0.100645036
-0.07468709 0.04664063 -0.03428063 0.06477073 0.026579695 0.0077804374 -0.018308228 0.046181925
0.06061803 0.08589882 -0.016356831 0.08588861 -0.028484356 -0.084246024 0.07085945 0.0026088299
00000000: 07b0 9f3c 5161 bb3d 20e6 843d eded 3f3d
00000010: 8dae 9a3d c24f 83bd fd57 873d d79f 57bd
00000020: 035f 38bd 6047 ebbc d718 adbc 9ab6 a53d
00000030: b6eb a63d 2989 9cbd 2b06 83bd e830 8d3d
00000040: 8fba 24bd db76 8b3d aecc 0dbc d554 5dbd
00000050: 5b3a 533d 4143 ae3a 93a0 1cbd 6f2e 91bc
00000060: 6981 8b3b e815 f83c 1fc7 54bd 94b5 1a3d
00000070: 5221 88bc 89c3 973b 6406 53bd dde3 82bd
00000080: 2723 1e3c 7dcf 8dbd ca22 c03c 7cb0 9e3d
00000090: ff82 593d c0ad 933d 789c 1dbd a80d 73bd
000000a0: cad6 5c3c 6244 5a3d a58c 2d3d 8f0a 9abd
000000b0: 01f6 163d d4b8 00bb b7b6 bbbd 8ae3 2b3b
000000c0: fff5 0a3d 58c9 4d3d a7f1 f2bc f04b 023d
000000d0: 7c9a b33c 65fe f0ba 296c c83b ba12 a93d
000000e0: 0213 3ebd f5d6 69bd 2c68 bbbc a859 d4bd
000000f0: d765 84bc 833b 3cbd b877 6c3d c8c5 373d
00000100: 273a 413d 203e 493d 3232 baba db20 acbd
00000110: 6f0a a0bc f907 68bc 7965 75bd 3bbc 00bd
00000120: 0609 67bb 044f ed3a ff09 133d 1e15 2a3d
00000130: 195a 81bd c93f 703d 3b2c 3cbc bc73 893d
00000140: b639 2bbd 2df5 5bbd 3779 5bbc f1ee 8dbc
00000150: 11db b03b 9eaa 5abd 2bda 86bd 57c8 33bd
00000160: 7e0c 863d 4881 aa3d 6b4d b63d 6aac 2f3c
00000170: 115d 6dbd 0921 2a3c 9599 8f3d bcc1 233c
00000180: 82f4 9cbb a447 5c3c 3599 01bd 268f 09bc
00000190: be27 a1bc 51f5 ab3c 41b0 acbd b139 17bd
000001a0: 04de 073d 6231 013d e15c 1fbd 9580 5db9
000001b0: 6dd2 513d a43c 11bd 4212 9abd f490 0a3d
000001c0: 7454 41bd 4605 82bd 20bf 8abd ae1e 213c
000001d0: f223 b23b 31b1 e4bc 7e0d 87bc 9e06 b53c
000001e0: 9856 c2bc 7514 623d 5229 073d e9fa 4ebd
000001f0: 9fb5 343d 78eb f93b 5bcb 5d3d b649 6eba
00000200: 987b e73d 212e 673d 59b9 433d c72e 4c3d
00000210: d9a4 2c3d 85e2 243c ee33 a9bd a5c0 8a3c
00000220: 38f3 16bd 84c9 abbc 44e5 ac3d 05d6 0dbd
00000230: 258f 8bbd c766 da3c 27d7 8bbb b21c ae3c
00000240: 012a 7f3d 10f3 ab3c 4627 863c a3a1 fd3b
00000250: db45 2a3d e76c 6cbd 3ec0 83bd bb0d 2739
00000260: d40a 00bd 7a8e 85bc 7ac0 b6bd a657 bc3b
00000270: 4477 b2bd 6299 89bc 5759 9a3b 909f 153d
00000280: 317f 88bc a08c 243c 254d 29bd 2531 083d
00000290: 05f0 34bd 65ca e6bc c066 2abd 1bf3 983d
000002a0: f675 a0bd 07fc a8bd f277 823c cc4f 86bd
000002b0: ac31 62bd 200c 12bd a4ad 93bd 8dfb 773c
000002c0: e2b9 42bd f4e2 a6bd cba9 4a3d b74e 6e3d
000002d0: 23ce c63c 0683 5b3d 781b 8b3d 2ecc 26bd
000002e0: 2973 85bd 65fd 13bd fda0 373d 4fbb 9bbd
000002f0: 3fdb ed3b 37e6 14bd da2d 14bd eace 1ebd
00000300: dac3 7a3b 2b28 e039 08ff c6bd f388 88bc
00000310: 703a f53c 8ae1 81bd 9a51 6abd b295 efbc
00000320: 7531 bcba ee72 623d bbfe b6bd bc56 5d3c
00000330: 8620 4e3d 2fb5 aa3d 3f17 3abd 2e05 263c
00000340: df60 7dbd 49c2 f73c b033 393c f8b8 4abd
00000350: 70e7 fe3c 85d6 74bc 0080 0a3d 61f1 013d
00000360: b044 3c3c e12c 50bd 9712 9f3c b6f1 26bc
00000370: f4fb 623d 2cac b93c 2c4e 33bc 603d a23c
00000380: 83ab de3b ec4d f0bc 607d d7bc 2d2b 343d
00000390: 3343 833c 862b 6bbd a0ec 123d 3000 84bd
000003a0: 3422 64bd 917e 0c3d 29a5 333d 3932 babc
000003b0: ab90 843c f634 25bd 3bab 07bd fc1e cebd
000003c0: 8cf5 98bd 3f0a 3f3d d969 0cbd 84a6 843d
000003d0: a9bd d93c 0af3 fe3b 23fb 95bc 4229 3d3d
000003e0: 9d4a 783d b8eb af3d c3fe 85bc 5ee6 af3d
000003f0: 0658 e9bc 2e89 acbd c21e 913d e7f8 2a3b

gc_layers.0.lin_f.bias f4 [64]
0.07355068 0.0072412104 0.027569609 0.0688087 -0.072334245 0.018100299 -0.028374726 0.0065400177
0.07946862 0.03824181 -0.027395753 0.015916547 -0.0316095 0.003991048 -0.04627938 0.052052267
0.019839274 3.4571553e-05 0.06691638 -0.016853925 0.00067549426 0.043391626 0.09205792 -0.047558665
-0.0071198787 0.072274886 -0.06929031 0.07388909 0.03935987 -0.00026306233 -0.030335898 -0.07556135
-0.020230778 0.08410451 0.015261744 0.035903882 0.07274095 0.0076621664 0.048202273 0.008819665
-0.07193734 -0.0269493 0.046741325 -0.001598944 -0.0053157182 -0.024758013 0.07718056 -0.07862253
-0.062118843 -0.008610051 -0.079226255 -0.047917537 0.052276593 0.06771889 0.0021139716 -0.056137502
-0.033007372 0.014358809 -0.019755065 -0.034248617 -0.032992925 0.01591202 0.0011939835 0.030042225
00000000: bda1 963d ad47 ed3b a9d9 e13c 93eb 8c3d
00000010: fa23 94bd 1447 943c 1d72 e8bc a54d d63b
00000020: 72c0 a23d 72a3 1c3d 0f6d e0bc 6b63 823c
00000030: f778 01bd 56c7 823b 728f 3dbd c234 553d
00000040: f985 a23c ec00 1138 740b 893d 3e11 8abc
00000050: a713 313a 6bbb 313d dd88 bc3d e0cc 42bd
00000060: df4d e9bb db04 943d 14e8 8dbd 2a53 973d
00000070: d137 213d a1eb 89b9 fd82 f8bc e9bf 9abd
00000080: 04bb a5bc fc3e ac3d 650c 7a3c f30f 133d
00000090: 35f9 943d e912 fb3b bf6f 453d 5b80 103c
000000a0: e253 93bd c7c4 dcbc d573 3f3d a893 d1ba
000000b0: 7a2f aebb 51d1 cabc d710 9e3d d904 a1bd
000000c0: 5470 7ebd 2c11 0dbc 6041 a2bd 2e45 44bd
000000d0: fb1f 563d 34b0 8a3d 8f8a 0a3b 70f0 65bd
000000e0: bd32 07bd 3641 6b3c 60d5 a1bc 4748 0cbd
000000f0: 9723 07bd ed59 823c 707f 9c3a 1d1b f63c
